GRU_logs/lightning_logs/version_3/checkpoints/epoch=0-step=79.ckpt (torch, 70471 bytes, 40 tensors)

embeddings.embeddings.house_hold.weight f4 [2, 1]
0	0x00000000	0.0
1	0xbe53f642	-0.20699409

rnn.weight_ih_l0 f4 [45, 4]
0	0x3e910029	0.28320435
1	0xbda98369	-0.082770176
2	0x3dd38469	0.103279896
3	0x3c4695e6	0.0121206995
4	0xbdc20820	-0.09474206
5	0x3c8e614a	0.017380375
6	0xbdd55f94	-0.10418621
7	0xbde3cf28	-0.11123496
8	0x3d31bcf4	0.04339309
9	0xbd849569	-0.0647381
10	0xbe004275	-0.12525351
11	0x3e8b10b8	0.27161193
12	0x3eb136ab	0.3461202
13	0x3de3f439	0.11130566
14	0x3d69d3d5	0.057086784
15	0x3eb48285	0.35255828
16	0xbe7936d1	-0.24337317
17	0xbe3a13d3	-0.18171625
18	0x3a49e685	0.00077018916
19	0x3de55590	0.111979604
20	0x3e1ae46e	0.15126202
21	0x3cf9a187	0.03047253
22	0x3e97624b	0.2956718
23	0xbea940fc	-0.33057392
24	0x3d8386d4	0.06422201
25	0x3d155677	0.036459412
26	0x3e109894	0.14120704
27	0xbe8569ac	-0.26057184
28	0xbe95d513	-0.29264125
29	0x3c7fab16	0.015604755
30	0x3dc060a1	0.093934305
31	0x3e88e228	0.26735044
32	0xbe5a35fb	-0.21309654
33	0xbe143475	-0.14473136
34	0x3d077b33	0.033076476
35	0x3e94a0f4	0.29029047
36	0xbc381ce9	-0.0112373615
37	0xbe213c6a	-0.15745702
38	0x3d098e96	0.033583246
39	0x3eabd849	0.3356345
40	0xbeabff90	-0.33593416
41	0xbe943716	-0.28948277
42	0x3e530a04	0.2060929
43	0x3ea62317	0.32448646
44	0xbd1466c4	-0.036230817
45	0xbe196adb	-0.14982168
46	0x3c191719	0.009343886
47	0xbea93065	-0.33044735
48	0x3e586f0a	0.21136108
49	0x3e4bebb8	0.19914138
50	0xbe98e834	-0.29864657
51	0x3cd511c3	0.026009446
52	0xbdcb0bf5	-0.0991439
53	0xbe440c3f	-0.19145297
54	0xbedb19b7	-0.42793056
55	0x3ea0c756	0.3140208
56	0x3d4737f5	0.04863735
57	0xbe0bf6e2	-0.13668397
58	0x3e0c7989	0.13718237
59	0xbc091315	-0.008366366
60	0xbecce31d	-0.40017024
61	0xbd08a3ee	-0.03335946
62	0xbd2e386a	-0.04253427
63	0x3ed1be95	0.40965715
64	0xbda3d738	-0.08000034
65	0xbeb4a1fb	-0.3527983
66	0xbe0c329b	-0.1369118
67	0xbc572733	-0.013131904
68	0xbcc70027	-0.024292065
69	0x3e38b7f4	0.18038923
70	0xbcd9994a	-0.026562352
71	0x3eb33658	0.35002398
72	0xbe37031d	-0.17872281
73	0x3d9284f4	0.07154265
74	0xbe358635	-0.17726977
75	0x3d95c83b	0.073135816
76	0xbdec62c0	-0.115422726
77	0x3cac28a6	0.021015476
78	0xbc6b8a9a	-0.014376307
79	0xbd852833	-0.06501808
80	0xbedd3f86	-0.43212527
81	0x3e520b3f	0.20512103
82	0x3df1d957	0.118090324
83	0x3cbbc28d	0.022919917
84	0x3e382ec1	0.17986585
85	0xbe0cb910	-0.1374247
86	0xbdda1148	-0.106478274
87	0x3cce830e	0.025208976
88	0x3c8de18f	0.017319469
89	0xbdc33851	-0.09532226
90	0x3e578de4	0.2105022
91	0x3e40bf77	0.18823038
92	0xbec6933d	-0.3878421
93	0x3cc82504	0.024431713
94	0xbdfe3659	-0.1241271
95	0x3ed11e2e	0.40843338
96	0xbdc8b7c6	-0.09800677
97	0x3e72ebac	0.23722714
98	0x3dedc3ad	0.11609588
99	0x3e39b2dc	0.18134636
100	0xbcd5b279	-0.026086079
101	0xbcf9bf31	-0.030486675
102	0x3c26368d	0.010144842
103	0x3e3ac1b5	0.18237956
104	0x3d80a303	0.06281092
105	0x3d670d2d	0.05640905
106	0xbe9efd37	-0.31052563
107	0x3dc4f182	0.096163765
108	0xbcaaf969	-0.020870881
109	0x3e752c16	0.23942599
110	0x3ba6209c	0.0050698053
111	0x3ba20782	0.0049447427
112	0xbe257550	-0.16158032
113	0x3e2188f2	0.15774897
114	0xbe03b44c	-0.12861747
115	0x3ec67411	0.38760427
116	0xbe7504fe	-0.23927686
117	0x3d611b6d	0.054957796
118	0x3e83f69b	0.25774083
119	0x3e57e656	0.2108396
120	0x3d81d361	0.063391455
121	0x3e7b4fce	0.24542162
122	0xbeccb274	-0.399799
123	0x3eec2fd4	0.4613024
124	0xbe8fc245	-0.28077903
125	0xbdcdff7a	-0.10058494
126	0xbdac16ac	-0.08402762
127	0xbd98a1a5	-0.07452706
128	0x3de53c45	0.11193136
129	0x3ddbe896	0.107377216
130	0x3eb15c50	0.3464074
131	0x3db5a43e	0.08869217
132	0x3e56daf4	0.20981961
133	0x3e4db114	0.20087081
134	0xbefbd1b0	-0.49183416
135	0x3ea6e736	0.32598275
136	0xbc142406	-0.009041792
137	0xbc8c0703	-0.017093187
138	0x3d4ae3ae	0.04953354
139	0x3e8bc549	0.27298954
140	0x3e5da1de	0.21643779
141	0x3d139d5f	0.036038753
142	0xbef8a82e	-0.4856581
143	0xbc5da4ba	-0.013528043
144	0xbeef7fd1	-0.46777204
145	0xbd715cb1	-0.058926288
146	0x3e1bded0	0.15221715
147	0xbc94013e	-0.018066999
148	0xbe931a1a	-0.2873085
149	0x3e412562	0.18861917
150	0x3e893520	0.26798344
151	0xbe20e63d	-0.15712829
152	0xbe38e4f6	-0.18056092
153	0x3c5e7fa7	0.013580239
154	0x3f04e58c	0.5191276
155	0x3d28633c	0.041110262
156	0xbed41bad	-0.41427365
157	0xbdcc8dd3	-0.09987988
158	0x3ec07a5f	0.37593362
159	0xbedf8ae4	-0.43660653
160	0xbdd40118	-0.10351771
161	0x3d93b487	0.07212167
162	0x3eb0a239	0.34498766
163	0xbc3bb6ca	-0.0114571545
164	0xbd712192	-0.058869906
165	0xbc875943	-0.016522055
166	0x3d91471b	0.070936404
167	0xbe29327d	-0.16523166
168	0xbd8070be	-0.06271504
169	0xbe04f973	-0.12985782
170	0x3eb4b0f4	0.35291255
171	0x3e33f9f9	0.17575826
172	0xbad1dc86	-0.0016011156
173	0x3ddf8d61	0.10915638
174	0xbee37bbb	-0.44430336
175	0x3ee2fb1f	0.44332215
176	0x3e98eb9b	0.29867253
177	0xba8d3c74	-0.0010775463
178	0xbe92ddc8	-0.2868483
179	0x3eaec410	0.3413396

rnn.weight_hh_l0 f4 [45, 15]
0	0x3defb4a6	0.11704378
1	0xbdfaeea3	-0.122525476
2	0xbe2e1d25	-0.17003305
3	0xbe1d3459	-0.15352
4	0x3e13e443	0.14442544
5	0xbe4fc662	-0.20290521
6	0xbc70119d	-0.014652637
7	0x3e50b892	0.20382908
8	0xbdaa3125	-0.08310155
9	0x3e922f41	0.28551677
10	0x3cbd0783	0.02307487
11	0xbca48b48	-0.020085946
12	0x3e67909d	0.2261376
13	0x3e0695be	0.1314306
14	0x3dbfc9a7	0.09364634
15	0x3e6a83e2	0.22901872
16	0x3e0391e1	0.12848617
17	0x3e3ea300	0.18616867
18	0xbd83b104	-0.064302474
19	0x3e15797d	0.14597125
20	0x3e55daed	0.20884295
21	0xbd83828a	-0.06421383
22	0xbdc5f722	-0.096662775
23	0x3d18db67	0.037318613
24	0x3d1624d0	0.0366562
25	0x3c0145f2	0.007890211
26	0xbda12d8f	-0.07870018
27	0x3e405fa9	0.18786491
28	0xbd1f0d4e	-0.038831048
29	0xbe07ee21	-0.13274433
30	0xbde93531	-0.113870986
31	0xbe596be7	-0.21232568
32	0x3da2147c	0.07914063
33	0xbd9d27bf	-0.076735966
34	0x3cde8bc2	0.027166251
35	0xbcb5498e	-0.0221298
36	0x3d437ab0	0.047724426
37	0xbc95d107	-0.018288149
38	0x3cec82a2	0.028870884
39	0x3d79467a	0.060858227
40	0x3b765a5e	0.0037590484
41	0xbe2b3b64	-0.16721874
42	0xbe6fd367	-0.23420487
43	0x3e806ae8	0.25081563
44	0xbe0aad3e	-0.13542649
45	0xbdb46dcd	-0.08810005
46	0x3e359cc6	0.17735586
47	0xbdafef07	-0.08590513
48	0x3e1bf4ae	0.15230057
49	0xbd1985c7	-0.037481096
50	0x3d2c459a	0.042058565
51	0x3e572347	0.21009551
52	0x3b673c9b	0.0035283926
53	0xbe65e56f	-0.22450803
54	0x3d9e87e4	0.07740763
55	0xbe6692ac	-0.22516888
56	0xbdd652da	-0.104650214
57	0xbe48e0c6	-0.19616994
58	0xbe6865ae	-0.22695038
59	0xbd8a44d4	-0.06751409
60	0xbe525553	-0.20540361
61	0xbd971b29	-0.07378227
62	0x3d9da506	0.07697491
63	0x3c10c3fd	0.00883579
64	0xbd5fa134	-0.054597095
65	0x3ddee5da	0.108836845
66	0x3da1e269	0.079045124
67	0x3d9f047e	0.07764529
68	0xbde0367c	-0.10947892
69	0xbe414fae	-0.18878052
70	0x3d8f2e3e	0.06991242
71	0xbe12f28d	-0.14350338
72	0x3da7e2c3	0.08197548
73	0x3e0e8433	0.13917617
74	0xbdc2f9ca	-0.095203
75	0xbde461d9	-0.111514755
76	0xbe72e8cf	-0.23721622
77	0x3e607387	0.2191907
78	0x3e318075	0.17334159
79	0xbd9e27e6	-0.07722454
80	0x3e1435c3	0.14473633
81	0x3e15578e	0.1458418
82	0xbdc61760	-0.09672427
83	0xbdd01f4e	-0.10162221
84	0xbe8f3503	-0.27970132
85	0x3e4c27c0	0.19937038
86	0x3dfbf138	0.12301868
87	0x3e14d4d2	0.1453431
88	0xbd810b1f	-0.06300949
89	0x3e07e9cd	0.13272782
90	0xbe3b8165	-0.18311079
91	0x3db1b5b7	0.086772375
92	0x3e21964a	0.15779987
93	0xbe050782	-0.12991145
94	0x3da43163	0.08017232
95	0xbdfa3f71	-0.12219132
96	0x3e71bc5f	0.23607014
97	0x3dcfe119	0.10150356
98	0x3dfd7348	0.12375504
99	0x3e45a2bc	0.1930036
100	0xbe708591	-0.23488452
101	0x3d595ae6	0.053065203
102	0xbde2ab2c	-0.11067805
103	0x3e4cad8b	0.19988076
104	0x3e8da93d	0.2766818
105	0x3d47d2db	0.04878507
106	0xbd94af2c	-0.07259974
107	0x3e258669	0.16164555
108	0xbda16bb5	-0.078818716
109	0xbe6fcae9	-0.23417248
110	0xbdbfb6d2	-0.09361042
111	0x3de60d68	0.11233026
112	0xbd8f3bfc	-0.06993863
113	0x3ddc0be9	0.10744459
114	0x3db7428b	0.08948239
115	0xbe3a683f	-0.18203829
116	0xbd965518	-0.07340449
117	0xbdc24ebb	-0.09487673
118	0xbba075fb	-0.004896877
119	0xbe1caba5	-0.15299852
120	0x3e76e1fd	0.24109645
121	0x3d96701b	0.07345601
122	0x3e01e66a	0.12685552
123	0xbe0b6481	-0.13612558
124	0x3e53c4b9	0.20680512
125	0xbe26e37c	-0.16297716
126	0xbd8ceb10	-0.06880772
127	0x3cf07a2c	0.029355131
128	0x3db69aa9	0.08916218
129	0xbe36763f	-0.17818545
130	0x3e00d333	0.12580566
131	0x3cf8c516	0.030367415
132	0x3e430e6f	0.19048475
133	0x3dafb4be	0.08579396
134	0xbdd2f54a	-0.103006914
135	0x3d337d52	0.043820687
136	0x3e933300	0.28749847
137	0xbca386a5	-0.019961664
138	0xbe084955	-0.13309224
139	0xbd241b0d	-0.04006486
140	0x3e13cfc7	0.1443473
141	0x3e7afdfd	0.24510951
142	0x3e193edd	0.14965387
143	0xbe3fa1e0	-0.18714094
144	0x3d66604a	0.056244172
145	0x3e367deb	0.17821471
146	0x3e1e6c8d	0.15471096
147	0x3cf3d742	0.029765729
148	0xbd19e0be	-0.037567846
149	0x3da501b3	0.08056965
150	0x3c1e96b3	0.009679484
151	0xbc4bb45d	-0.012433139
152	0xbe583959	-0.21115626
153	0x3c3e6b52	0.011622267
154	0xbd0ccb75	-0.03437372
155	0xbd087465	-0.033314127
156	0x3e4661d9	0.19373263
157	0xbdf7c432	-0.12097968
158	0x3e7d2f87	0.24725161
159	0xbe35eb5d	-0.17765565
160	0x3c228a72	0.009920703
161	0xbe3badde	-0.18328044
162	0xbdb990aa	-0.090607956
163	0xbe86d853	-0.26336917
164	0xbe52b628	-0.205773
165	0xbe2166ed	-0.1576192
166	0xbe6d4e29	-0.23174347
167	0xbe95f231	-0.2928634
168	0x3e3c161d	0.1836781
169	0x3ca38aeb	0.019963702
170	0xbe1bb32d	-0.15205069
171	0xbdd46c37	-0.10372203
172	0x3d8a45e0	0.06751609
173	0x3da89cc4	0.08233026
174	0x3cd12a98	0.025533006
175	0xbe32d285	-0.1746312
176	0xbdb7104b	-0.089386545
177	0xbdc05576	-0.093913004
178	0x3e156e69	0.145929
179	0xbb64c2a2	-0.003490605
180	0xbe16364c	-0.1466915
181	0x3de5b051	0.1121527
182	0xbe5394a5	-0.20662172
183	0xbe3386f7	-0.17531954
184	0xbe7bd0cd	-0.2459137
185	0x3d81fa30	0.063465476
186	0xbc9dda6e	-0.019269194
187	0x3d4626f3	0.04837699
188	0x3e487b46	0.19578275
189	0xbc10edd0	-0.008845761
190	0xbe510fe5	-0.2041622
191	0x3d86b196	0.065768406
192	0xbc87a000	-0.016555786
193	0xbe4d7075	-0.2006243
194	0xbe3a35d7	-0.18184601
195	0xbeb35dd3	-0.3503252
196	0x3ddb3a92	0.10704531
197	0x3d15662a	0.036474384
198	0xbe25a187	-0.16174899
199	0xbe54f4e1	-0.20796539
200	0xbd8f5d33	-0.07000198
201	0x3da6093c	0.0810723
202	0xbe576028	-0.21032774
203	0x3ea24a82	0.3169747
204	0x3ddf5e95	0.10906712
205	0x3d8ce76b	0.06880077
206	0xbdcb6e69	-0.099331684
207	0xbe1f98e8	-0.15585673
208	0x3cea232b	0.028581223
209	0xbe860ea4	-0.26183045
210	0x3e91c9be	0.2847423
211	0x3d71e701	0.059058193
212	0xbcf4b49f	-0.029871283
213	0x3d9f1abf	0.07768773
214	0xbe6057f1	-0.21908547
215	0xbe71a2fb	-0.23597328
216	0x3e4125fd	0.18862148
217	0xbde4f4a8	-0.11179477
218	0xbdbe3d89	-0.09289081
219	0xbe8be8d7	-0.2732608
220	0x3d139b6f	0.036036905
221	0xbd94596e	-0.0724362
222	0x3cc8b72a	0.024501402
223	0x3d914c7a	0.07094665
224	0xbe604a24	-0.21903282
225	0xbde2a63b	-0.11066862
226	0x3d7a91d7	0.06117424
227	0xbd7af923	-0.06127275
228	0xbdfd0b14	-0.123556286
229	0xbe4e6cd5	-0.20158704
230	0x3de473be	0.111548886
231	0x3e539f7c	0.20666307
232	0xbe40aaf0	-0.18815207
233	0x3d189047	0.03724697
234	0x3df646bd	0.12025211
235	0xbc58180b	-0.013189326
236	0xbdf2fbfb	-0.11864468
237	0xbeb550fc	-0.3541335
238	0x3e2a4788	0.1662885
239	0x3e59b756	0.21261343
240	0x3e91c839	0.2847307
241	0x3deed8b4	0.116624266
242	0xbe8387e9	-0.2568963
243	0xbdce3880	-0.1006937
244	0xbe120fbf	-0.14263819
245	0x3e07a561	0.13246681
246	0x3e0f7b3d	0.14011855
247	0xbd3719c8	-0.04470232
248	0x3e850ef6	0.25987977
249	0xbd519576	-0.051167928
250	0xbe4c7d3c	-0.19969648
251	0x3ea6e36d	0.32595387
252	0x3e2279b1	0.15866734
253	0x3d488faf	0.048965152
254	0x3e02f985	0.12790497
255	0xbe999e8b	-0.3000377

rnn.bias_ih_l0 f4 [45]
0	0x3dc207f7	0.094741754
1	0xbe59699b	-0.21231692
2	0xbcb7fa0e	-0.022458103
3	0x3e988037	0.2978532
4	0xbe2eaca5	-0.17058046
5	0x3eabbcb6	0.33542413
6	0x3e357cb8	0.17723358
7	0x3d826dc4	0.063685924
8	0xbe0f4f5f	-0.13995121
9	0xbe25fdbb	-0.16210072
10	0xbdae5130	-0.08511579
11	0xbd765bf2	-0.06014628
12	0xbd44d6fe	-0.048056595
13	0x3d619dfb	0.055082303
14	0xbe6acaf5	-0.22928984
15	0xbe329a99	-0.17441787
16	0xbda913a9	-0.08255703
17	0x3ccc3c10	0.024930984
18	0xbe854953	-0.26032504
19	0x3e609c9f	0.21934746
20	0xbde8eaf7	-0.11372941
21	0x3e8c05ae	0.27348083
22	0x3df2e5ed	0.11860261
23	0xbdf6f8ea	-0.12059195
24	0xbedc0f11	-0.42980245
25	0xbe78e270	-0.24305129
26	0xbe83ccda	-0.25742227
27	0xbe24172c	-0.16024464
28	0xbf02f645	-0.5115703
29	0xbd3b3b52	-0.04571087
30	0x3e03447a	0.1281909
31	0xbe8b6396	-0.27224416
32	0xbdac26cd	-0.08405838
33	0x3d9ac08d	0.075562574
34	0xbcb1e82f	-0.02171716
35	0x3d020ec3	0.03175236
36	0xbeb1881b	-0.34674153
37	0x3e851ca7	0.25998423
38	0x3da541a1	0.08069158
39	0x3e2194d7	0.15779434
40	0x3c8b1b83	0.016980892
41	0x3e0f179d	0.13973852
42	0x3e0c157a	0.13680068
43	0x3dd863e6	0.10565929
44	0xbdd339d3	-0.103137635

rnn.bias_hh_l0 f4 [45]
0	0x3e1eabdb	0.15495245
1	0xbd355a83	-0.04427577
2	0xbe32fb36	-0.17478642
3	0xbdae6749	-0.08515794
4	0x3d703c00	0.05865097
5	0x3e64267b	0.22280304
6	0xbdca9205	-0.09891132
7	0xbe0fec92	-0.14055088
8	0xbe82fdf5	-0.2558438
9	0x3e573ee7	0.21020089
10	0xbd71fe09	-0.059080157
11	0x3e8fbe6c	0.28074968
12	0x3e550a88	0.20804799
13	0xbe6a58b6	-0.22885403
14	0xbea50707	-0.32231924
15	0xbeb40a21	-0.35163978
16	0x3eca734f	0.39541098
17	0xbdda5631	-0.10660971
18	0xbef7b943	-0.4838353
19	0x3e74f1cd	0.23920365
20	0xbe91ba08	-0.28462243
21	0x3e687e98	0.22704542
22	0xbeb7f02d	-0.35925427
23	0xbf10d812	-0.565797
24	0xbe93fbeb	-0.28903136
25	0xbe5f7fec	-0.21826142
26	0x3d6b1744	0.057395235
27	0x3dec571b	0.115400515
28	0xbe64ab79	-0.22331037
29	0x3e0cb37c	0.13740343
30	0xbca7ef2c	-0.020499788
31	0xbd7c86fc	-0.06165217
32	0xbd46af03	-0.048506748
33	0x3c36e0aa	0.0111619625
34	0x3df25c2c	0.11833987
35	0xbe096385	-0.1341687
36	0x3e1a8079	0.15088071
37	0xbd4f01f4	-0.050538972
38	0xbe3b91cc	-0.18317336
39	0xbe89a6b6	-0.26885003
40	0xbd9b0a00	-0.07570267
41	0x3e927972	0.2860828
42	0xbe0e827a	-0.1391696
43	0x3e02622e	0.12732765
44	0xbdd7e4d5	-0.10541693

rnn.weight_ih_l1 f4 [45, 15]
0	0xbdd6cece	-0.104886636
1	0xbe85f4c5	-0.26163307
2	0x3dd1ed50	0.10250342
3	0xbcee61a2	-0.02909929
4	0x3e13ff02	0.14452747
5	0xbe0519e6	-0.1299816
6	0xbd43b2ef	-0.047778066
7	0x3e332fff	0.17498778
8	0xbe7e4fe3	-0.24835162
9	0x3d8767e7	0.06611615
10	0xbe4610cf	-0.1934235
11	0x3e037d06	0.12840661
12	0xbd8022e9	-0.062566586
13	0x3d90614b	0.07049807
14	0xbe5b9a37	-0.21445547
15	0x3e6dba70	0.23215652
16	0x3e333a8b	0.17502801
17	0xbd947e69	-0.07250673
18	0xbd90eeb1	-0.07076777
19	0x3e9b2f65	0.30309597
20	0xbdcabcb2	-0.09899272
21	0x3be11567	0.0068690064
22	0xbc30b6d4	-0.010785777
23	0xbe96d268	-0.29457402
24	0x3de5185f	0.11186289
25	0xbd3faf6e	-0.046798162
26	0xbe049b22	-0.12949803
27	0x3e452a27	0.19254361
28	0x3ebc582e	0.36786026
29	0xbe18bb05	-0.14915092
30	0x3e05eb0c	0.13077945
31	0xbd97a533	-0.07404556
32	0xbebde5ff	-0.37089536
33	0x3dd9b2bc	0.10629794
34	0x3df576c3	0.119855426
35	0x3c828743	0.015933638
36	0x3d021393	0.03175695
37	0xbe9f238d	-0.3108181
38	0xbc6c7853	-0.014432984
39	0xbdd0617c	-0.10174844
40	0x3cb990b7	0.022652013
41	0xbe585dc8	-0.21129525
42	0xbea198e7	-0.31561968
43	0x3d7341af	0.059388813
44	0x3ecb4d02	0.3970719
45	0xbd557bfd	-0.052120198
46	0x3de58f6e	0.11208998
47	0xbd9719c3	-0.073779605
48	0xbe03b63f	-0.1286249
49	0x3e0a8172	0.13525942
50	0xbd80fdce	-0.062984094
51	0xbca5c3ee	-0.020235028
52	0xbda70dc8	-0.081569254
53	0x3e529cfb	0.20567696
54	0x3e62c37d	0.22144885
55	0x3dec62e8	0.11542302
56	0x3e1046db	0.14089529
57	0xbe0f9617	-0.14022098
58	0xbdc16248	-0.09442574
59	0x3e89cbcd	0.269133
60	0xbdb46768	-0.08808786
61	0xbeacdc71	-0.33761933
62	0x3d74bef9	0.05975244
63	0x3d73b0ff	0.05949497
64	0xbe98e44a	-0.2986167
65	0xbd4b6c8c	-0.049664065
66	0xbdc38f8f	-0.09548866
67	0xbde22a40	-0.11043215
68	0xbca8cd5c	-0.020605735
69	0x3e82d68d	0.25554314
70	0x3ea77664	0.32707512
71	0xbd04b0ac	-0.03239505
72	0x3e0c604c	0.1370861
73	0x3e532d99	0.20622863
74	0xbe38e316	-0.18055376
75	0xbe10f008	-0.14154065
76	0x3d8e1d6e	0.06939207
77	0xbdd3549e	-0.10318874
78	0x3e5c7778	0.21529949
79	0xbe4e6829	-0.20156921
80	0xbb3a2fb6	-0.0028409786
81	0xbe26d461	-0.16291954
82	0xbe11edfb	-0.14250939
83	0x3dc7e549	0.097605295
84	0x3e26864c	0.16262168
85	0x3e6ba15c	0.23010772
86	0x3e334f30	0.17510676
87	0xbcbca6b6	-0.023028713
88	0xbdfc39b3	-0.12315693
89	0xbe093ec2	-0.13402846
90	0xbe66c924	-0.22537667
91	0xbe82252d	-0.25418988
92	0x3d66800e	0.056274466
93	0xbeb2f912	-0.3495565
94	0xbdaa5ce6	-0.083185
95	0xbebf7ea6	-0.37401313
96	0xbd073d34	-0.033017352
97	0x3d1ab0de	0.03776633
98	0xbcbad907	-0.022808565
99	0xbcb8952a	-0.022532064
100	0x3e32d7ef	0.17465185
101	0x3e63b0cb	0.2223541
102	0x3df98031	0.12182654
103	0xbe9f796a	-0.3114732
104	0xbe46b013	-0.19403104
105	0x3e743c5e	0.23851153
106	0xbe0a49d5	-0.13504727
107	0xbbb92bf8	-0.0056509934
108	0x3e265a2b	0.16245334
109	0xbe1502c8	-0.14551842
110	0xbd7dd611	-0.061971728
111	0x3e1a2932	0.15054777
112	0xbda6810b	-0.08130082
113	0x3dfccf8d	0.12344275
114	0xbe0611eb	-0.13092773
115	0xbcc63702	-0.024196152
116	0x3da9fafe	0.08299826
117	0xbe42b0a2	-0.19012693
118	0x3e8bb28e	0.27284664
119	0x3e2ded0d	0.16984959
120	0x3e39fb45	0.18162258
121	0x3db16d10	0.0866338
122	0xbd8ca762	-0.06867863
123	0x3e4427c8	0.191558
124	0xbe3fd3e9	-0.18733181
125	0x3ea9ebea	0.331878
126	0xbe61bedd	-0.22045465
127	0xbc8b31c3	-0.016991502
128	0xbe44c0af	-0.19214128
129	0xbaf54861	-0.0018713587
130	0x3e1d4736	0.15359196
131	0x3e30c0a3	0.17260985
132	0xbdd8e4b1	-0.105904944
133	0x3e4e5561	0.20149757
134	0xbdad4811	-0.08461011
135	0x3d787da1	0.060666684
136	0xbdd2054d	-0.10254917
137	0xbe1fccbc	-0.15605444
138	0xbc9e479b	-0.019321254
139	0xbe6470de	-0.2230868
140	0x3b119f4a	0.0022220188
141	0xbe0a06d1	-0.13479163
142	0x3d937258	0.07199544
143	0x3e42aee2	0.19012025
144	0xbd428415	-0.047489244
145	0xbd9abc90	-0.07555497
146	0xbd2e00f8	-0.042481393
147	0x3e6e8e3f	0.2329645
148	0x3d1ac31b	0.037783723
149	0xbdd25771	-0.102705844
150	0xbe8d676e	-0.27617973
151	0xbe237329	-0.15961899
152	0xbd2826e9	-0.041052733
153	0xbda4118f	-0.080111615
154	0xbe9bc624	-0.30424607
155	0xbcc3696a	-0.023853976
156	0x3dc66071	0.096863635
157	0x3e9b8f3f	0.30382726
158	0x3d09d93e	0.033654444
159	0x3dec8c03	0.115501426
160	0x3e271673	0.16317157
161	0xbe172648	-0.14760697
162	0x3db342df	0.08752989
163	0x3e53557d	0.2063808
164	0xbbfcbb1e	-0.007712736
165	0xbe434676	-0.19069847
166	0x3d0c9c3e	0.03432869
167	0xbd953237	-0.07284968
168	0xbe6ff6ca	-0.23433986
169	0xbe3f0ecc	-0.18657988
170	0xbe3129d8	-0.17301118
171	0xbdabd298	-0.08389777
172	0xbe0e8f7c	-0.13921922
173	0x3e58b664	0.21163327
174	0xbd2e3402	-0.042530067
175	0xbe6bd24b	-0.23029439
176	0xbdf4f53f	-0.119608395
177	0x3b9f6eff	0.0048655267
178	0xbe6009e2	-0.2187877
179	0x3c2d9ed4	0.01059695
180	0x3e95bd52	0.29246002
181	0xbd6ff82f	-0.058586296
182	0xbdcfbf53	-0.10143914
183	0x3d66f160	0.056382537
184	0xbd8514fd	-0.06498144
185	0xbe1f04dc	-0.15529197
186	0x3e8db055	0.27673593
187	0x3e4fd944	0.20297724
188	0x3ca64131	0.020294758
189	0xbe925a67	-0.28584597
190	0x3dc35d35	0.09539262
191	0xbdb681ac	-0.08911452
192	0xbdc8f8ee	-0.098131046
193	0x3e743ac2	0.2385054
194	0xbdfbc911	-0.1229421
195	0x3d2ecbf2	0.042674966
196	0xbd227f68	-0.039672285
197	0x3cf7dbd5	0.030256191
198	0xbe55def6	-0.20885834
199	0x3e0a6262	0.13514093
200	0x3e05dff2	0.1307371
201	0x3d594a75	0.053049523
202	0xbe598d39	-0.21245278
203	0xbc7254b1	-0.0147907
204	0xbe8f1c5e	-0.2795133
205	0x3c0e25b0	0.008675978
206	0xbe8c2872	-0.27374607
207	0xbdbad77f	-0.09123134
208	0xbd56eed9	-0.052473877
209	0x3ca9c1ca	0.020722289
210	0xbc0f57b1	-0.008748935
211	0x3e7b5565	0.24544294
212	0x3d82f2cd	0.06393967
213	0xbd4d81c9	-0.0501726
214	0xbdd7ee40	-0.105434895
215	0x3e21dabb	0.15806095
216	0xbde24fb7	-0.11050361
217	0x3e42c785	0.19021423
218	0x3d1d3b3d	0.038386572
219	0x3e5f6d7b	0.21819107
220	0xbdfe2bdf	-0.124107115
221	0x3dabb79d	0.08384631
222	0xbdd172fc	-0.1022701
223	0xbe0b4700	-0.13601303
224	0x3e223673	0.15841083
225	0xbb84878a	-0.004044478
226	0xbc8f39a5	-0.017483542
227	0x3d9ff482	0.07810308
228	0xbc00b1f3	-0.007854926
229	0x3d170966	0.036874197
230	0x3e312161	0.1729789
231	0xbe32a21e	-0.17444655
232	0x3e20bd9f	0.15697335
233	0xbdf2f59a	-0.11863251
234	0xbdd1701a	-0.1022646
235	0xbe77697c	-0.24161333
236	0x3ded9c16	0.11602037
237	0xbcb9f01d	-0.022697503
238	0xbe0eac1c	-0.13932842
239	0x3e9abe6a	0.302234
240	0xbb95a00b	-0.0045661977
241	0x3e9f259a	0.31083375
242	0x3e057b04	0.13035208
243	0xbdb2f858	-0.08738774
244	0xbe7fb0a6	-0.2496973
245	0xbece6783	-0.40313348
246	0x3ed4bc0c	0.41549718
247	0xbd67fe85	-0.056639213
248	0xbe0e9723	-0.13924842
249	0x3df94554	0.121714264
250	0xbd8b7674	-0.068097025
251	0xbe72e64b	-0.23720662
252	0xbceb2548	-0.0287043
253	0x3ad850c0	0.0016503558
254	0x3e7f4ef7	0.24932466
255	0xbd87d5d2	-0.0663258

rnn.weight_hh_l1 f4 [45, 15]
0	0x3e0dad9c	0.13835758
1	0x3e137eea	0.14403883
2	0x3bd00520	0.006348267
3	0x3ea99b4f	0.33126304
4	0x3c6035fe	0.013684748
5	0x3dd0d8c9	0.101975985
6	0xbe4866c5	-0.19570453
7	0x3e974522	0.29544932
8	0xbe883200	-0.26600647
9	0xbe7f7026	-0.24945125
10	0xbda17038	-0.07882732
11	0xbbbadddd	-0.0057027177
12	0xbea0d2c9	-0.31410816
13	0xbe951c11	-0.29122975
14	0x39b75001	0.00034964088
15	0xbd7d3013	-0.061813425
16	0xbe600bbd	-0.21879478
17	0x3e3410cd	0.17584534
18	0xbe8f5c7a	-0.28000242
19	0xbd9ae09f	-0.07562374
20	0xbe48287b	-0.19546692
21	0xbdc492d7	-0.0959832
22	0xbe74c479	-0.23903073
23	0x3e22bac3	0.15891556
24	0x3e3e83c9	0.1860496
25	0x3e656fba	0.22405902
26	0x3df9bc8a	0.12194164
27	0x3e981c92	0.29709297
28	0x3eac7e6e	0.33690208
29	0xbe6927c4	-0.22769076
30	0xbdac650a	-0.08417709
31	0xbcaaf092	-0.020866666
32	0xbdf94b53	-0.1217257
33	0xbdb3865f	-0.087658636
34	0x3e3d3d29	0.18480362
35	0xbe307977	-0.17233835
36	0xbe77c7a2	-0.24197248
37	0x3e3fb935	0.18722995
38	0xbd5ffd34	-0.054684833
39	0x3e005fbb	0.12536518
40	0xbe1d25f8	-0.15346515
41	0x3da59a71	0.08086098
42	0x3d237e2a	0.03991524
43	0x3e22cd51	0.15898634
44	0x3defc2a5	0.117070474
45	0xbd16c245	-0.036806364
46	0xbd4a71c4	-0.0494249
47	0xbd41aed9	-0.04728589
48	0x3d4089e1	0.04700649
49	0xbe07bb1c	-0.1325497
50	0x3e7dac8a	0.2477285
51	0x3e2ffe13	0.17186765
52	0xbda25cf3	-0.07927885
53	0xbdcaa6e3	-0.09895112
54	0x3ea7cdcc	0.32774198
55	0x3d550dd5	0.052015144
56	0xbd4c5d0a	-0.049893416
57	0x3d91c1a1	0.0711701
58	0x3dc66c10	0.0968858
59	0xbd3cccd5	-0.04609378
60	0x3e2523bd	0.16126914
61	0x3b80d419	0.003931534
62	0xbe4a4e30	-0.19756389
63	0x3b06f4d1	0.00205927
64	0xbe973943	-0.29535875
65	0x3e14609f	0.14489983
66	0x3e988c1c	0.29794395
67	0x3c267492	0.0101596285
68	0xbea36a3f	-0.31916997
69	0xbd910b98	-0.070822895
70	0xbdfb4d32	-0.12270583
71	0xbe3f8b78	-0.18705547
72	0xbe7a599e	-0.24448249
73	0xbe0924ac	-0.13392895
74	0x3e8ff344	0.28115284
75	0xbe08c6e2	-0.13357118
76	0xbe7563fb	-0.23963921
77	0x3c5f8a8b	0.013643871
78	0xbd797efe	-0.060912125
79	0xbd79c8a5	-0.060982365
80	0x3e6ad428	0.22932494
81	0xbe74860d	-0.23879261
82	0x3e1ff4fa	0.15620795
83	0xbe12eca3	-0.14348082
84	0xbdf4074e	-0.11915456
85	0x3e84ab19	0.25911787
86	0xbe6e70fc	-0.23285288
87	0xbd93bc96	-0.07213704
88	0x3e3da8f4	0.18521482
89	0xbd1f735c	-0.038928375
90	0x3e22a2fd	0.15882488
91	0xbe052979	-0.13004102
92	0xbe4db2f3	-0.20087795
93	0x3d80b756	0.062849686
94	0x3dac08ce	0.08400117
95	0x3e102d35	0.14079745
96	0x3e979247	0.29603788
97	0x3e7000ec	0.23437852
98	0xbdf930e6	-0.1216753
99	0x3cd49c50	0.025953442
100	0xbdddd429	-0.10831482
101	0x3d6314af	0.055439647
102	0xbe3c37e3	-0.18380694
103	0x3d8eebd4	0.069785744
104	0xbdc6661a	-0.09687443
105	0xbda3c6b1	-0.07996882
106	0x3cea1a96	0.02857713
107	0xbe1833dc	-0.14863533
108	0xbe81c905	-0.25348678
109	0x3e05801b	0.1303715
110	0x3e3fa0c3	0.1871367
111	0x3d8d56d1	0.069013245
112	0x3e598d80	0.21245384
113	0x3e28a959	0.16470851
114	0xba94208f	-0.0011301207
115	0xbe8f0102	-0.27930456
116	0x3c2f7685	0.01070941
117	0x3d6a08d7	0.057137337
118	0x3e5bd0c4	0.21466357
119	0x3d8cb520	0.06870484
120	0xbbbc978e	-0.0057553714
121	0x3dc42a6b	0.09578403
122	0xbe6ea46b	-0.23304908
123	0xbc3ca9dc	-0.011515107
124	0x3cbbbef7	0.022918208
125	0xbddf3789	-0.10899264
126	0xbc898154	-0.016785301
127	0xbdded6b2	-0.10880794
128	0x3da76e2e	0.08175312
129	0x3e85e393	0.26150188
130	0x3e1f4da3	0.1555696
131	0x3e6b13e2	0.22956803
132	0xbe2d1bf7	-0.16905199
133	0xbde64335	-0.112432875
134	0xbdeb209c	-0.11480829
135	0xbe6b6747	-0.22988616
136	0x3dd4b523	0.103861116
137	0xbcea691b	-0.028614571
138	0xbd4f04ec	-0.050541803
139	0x3da58c84	0.08083442
140	0x3ded7719	0.11594982
141	0xbe36ded0	-0.17858434
142	0x3e68d3d8	0.22737062
143	0xbe688b94	-0.22709495
144	0xbdbcb361	-0.09213901
145	0x3e699dcc	0.22814101
146	0x3e01604c	0.1263439
147	0xbe69b97f	-0.22824667
148	0xbdd11ee9	-0.10210974
149	0xbc8ad1d6	-0.01694576
150	0x3dbe3bb6	0.09288733
151	0xbe88d499	-0.267247
152	0xbe87e08c	-0.26538503
153	0xbd9dd844	-0.07707265
154	0x3e45e864	0.19326931
155	0x3e135c34	0.14390641
156	0x3e650c64	0.22368008
157	0x3d801ace	0.062551126
158	0x3e65ca67	0.22440492
159	0x3e7c9611	0.24666621
160	0xbe788921	-0.2427106
161	0x3e43a498	0.19105756
162	0x3e61e102	0.2205849
163	0x3ba0c4ab	0.004906257
164	0x3e572b88	0.210127
165	0x3dce8c77	0.10085385
166	0xbdedbd6a	-0.116083935
167	0xbdb93f04	-0.090452224
168	0xbae68c76	-0.0017589468
169	0xbdee36d9	-0.11631555
170	0xbde0e435	-0.10981027
171	0x3e4055e6	0.18782768
172	0xbe19f859	-0.15036143
173	0x3e232a0b	0.15934007
174	0xbe254725	-0.1614042
175	0xbe610e9f	-0.21978234
176	0x3e5669c5	0.20938785
177	0x3e1750f1	0.1477697
178	0x3e16e5d7	0.14736114
179	0xbd961f1a	-0.07330151
180	0xbe1461fc	-0.14490503
181	0x3e5989c9	0.21243967
182	0xbe4379d0	-0.19089437
183	0xbe390c57	-0.18071114
184	0xbe434e8d	-0.19072933
185	0x3df53aa1	0.11974073
186	0xbd8ead91	-0.06966699
187	0xbd192ebf	-0.037398096
188	0x3e38c1be	0.18042657
189	0x3e4910cb	0.19635312
190	0xbd4a4e1e	-0.049390905
191	0xbbd3ce3c	-0.006463794
192	0xbdda5a60	-0.10661769
193	0x3e737769	0.2377602
194	0xbe3f6044	-0.18689066
195	0x3e475957	0.19467674
196	0xbdcb938a	-0.0994025
197	0xbd01176c	-0.031516477
198	0xbddfa7ca	-0.10920675
199	0x3dbcd21c	0.09219763
200	0xbe017d3b	-0.12645428
201	0xbd6ff331	-0.058581535
202	0x3e7a30f8	0.24432743
203	0x3db124e8	0.086496174
204	0x3e321c1f	0.1739354
205	0x3e8687e3	0.26275548
206	0xbcede4da	-0.029039789
207	0xbe5ec99c	-0.21756595
208	0xbe4ae9ff	-0.19815825
209	0x3d80cf09	0.06289489
210	0x3e159d9e	0.14610907
211	0xbe5b48a2	-0.21414426
212	0xbd5dd5a1	-0.05415881
213	0xb9914ca2	-0.0002771365
214	0xbe6cd0f7	-0.23126589
215	0x3e7eda23	0.248879
216	0x3e886cf0	0.26645613
217	0xbbcd166d	-0.006258777
218	0xbe12912c	-0.14313191
219	0xbd9adf15	-0.07562081
220	0x3e1c5e5e	0.15270373
221	0xbdadffc3	-0.08496048
222	0xbc7a57e3	-0.015279743
223	0x3d92ff7f	0.07177638
224	0x3d9617db	0.07328769
225	0xbe088204	-0.13330847
226	0xbe0e8ca5	-0.13920839
227	0xbd7bf0a2	-0.061508782
228	0x3d4a80a2	0.04943908
229	0xbe49e647	-0.1971675
230	0x3eab910f	0.33509108
231	0x3e1cf53b	0.15327923
232	0xbe2206ef	-0.15822957
233	0x3d14de05	0.036344547
234	0xbc62ae4b	-0.0138355
235	0x3e3a693f	0.1820421
236	0x3d1bc970	0.038033903
237	0xbe833697	-0.25627586
238	0x3e336a23	0.17520957
239	0xbe0548a7	-0.13015996
240	0x3d8cae0b	0.068691336
241	0xbd0c6b70	-0.034282148
242	0x3ce56b38	0.028005227
243	0xbe45b4c1	-0.19307233
244	0xbce71a1d	-0.028210694
245	0x3da2a848	0.07942253
246	0xbd079dd8	-0.033109516
247	0x3e877b3e	0.26461214
248	0xbdfbac68	-0.12288743
249	0x3e88d91f	0.2672815
250	0xbed38330	-0.41311026
251	0xbd6c3f51	-0.05767757
252	0xbdcb464c	-0.099255174
253	0x3d139d1d	0.036038507
254	0x3ee107bd	0.43951216
255	0x3d0da3a0	0.034579873

rnn.bias_ih_l1 f4 [45]
0	0x3e9f3266	0.31093138
1	0x3e3d31be	0.18476006
2	0x3bc0940f	0.005877025
3	0xbe363ffa	-0.17797843
4	0x3e63275b	0.22182982
5	0x3b812ed2	0.003942349
6	0xbe9b5b2c	-0.30342996
7	0x3d83cbec	0.064353794
8	0xbce58840	-0.02801907
9	0xbe46041f	-0.1933751
10	0xbe87081e	-0.2637338
11	0xbdb1c6ae	-0.08680473
12	0xbe3f7436	-0.18696675
13	0xbe8933de	-0.26797384
14	0xbe250269	-0.161142
15	0xbe810988	-0.25202584
16	0xbe884137	-0.26612255
17	0xbe9819c4	-0.29707158
18	0xbe65687d	-0.2240314
19	0xbe4b728e	-0.19867918
20	0xbe4cfcd7	-0.20018326
21	0xbc98a82f	-0.018634884
22	0xbe4bc6d8	-0.19900072
23	0xbe0c4423	-0.13697867
24	0xbdc9a56a	-0.09846003
25	0x3d893ef2	0.06701459
26	0xbe740190	-0.23828721
27	0xbd668362	-0.05627764
28	0x3e3acdc4	0.18242556
29	0x3e816136	0.2526948
30	0x3e012396	0.12611231
31	0x3d7d1a2e	0.061792545
32	0x3e891a8c	0.26778066
33	0xbd784d49	-0.06062058
34	0xbe5b046d	-0.21388407
35	0xbd658e8b	-0.056044143
36	0x3e885787	0.26629278
37	0xbe19579b	-0.14974825
38	0xbe2947bd	-0.16531272
39	0xbe471b24	-0.19443947
40	0x3e844406	0.25833148
41	0xbdcc92f1	-0.09988964
42	0xbe24dc69	-0.16099705
43	0xbd160b70	-0.036632
44	0xbe0c52bb	-0.13703434

rnn.bias_hh_l1 f4 [45]
0	0x3e5a8893	0.21341161
1	0x3e0f860e	0.14015982
2	0xbe27c3a3	-0.16383223
3	0xbebc1c33	-0.36740264
4	0xbe83035a	-0.25588495
5	0xbe9a8c43	-0.30185136
6	0x3d693b54	0.056941345
7	0x3e0f1d8e	0.13976118
8	0x3c8e1fda	0.017349172
9	0xbdf3a0d5	-0.11895911
10	0x3d533987	0.051568534
11	0xbe802558	-0.2502849
12	0x3e251a72	0.1612337
13	0xbe5d4f6d	-0.2161233
14	0xbdbf8913	-0.09352317
15	0xbe9ebf72	-0.31005436
16	0xbe0d3ebd	-0.13793464
17	0x3c185119	0.009296679
18	0xbea48d62	-0.32139117
19	0xbe5bcdc0	-0.21465206
20	0xbed68240	-0.41896248
21	0x3dbea33d	0.09308479
22	0xbe8ae0a3	-0.2712451
23	0xbe85e6e7	-0.26152727
24	0x3d80eb68	0.062949
25	0x3d9b56eb	0.07584938
26	0xbe43d462	-0.19123986
27	0xbe0a36e8	-0.13497508
28	0x3eb7d1b3	0.35902175
29	0xbe45f2f3	-0.19330959
30	0x3ec61c98	0.3869369
31	0x3e3e7ce3	0.18602328
32	0x3ea09b9c	0.3136872
33	0xbcc8e5e5	-0.024523685
34	0x3d1e3e48	0.038633615
35	0x3d8721cb	0.06598242
36	0xbe4fbd2a	-0.20287004
37	0x3e89eb88	0.2693751
38	0xbe353ee5	-0.17699774
39	0xbdb081ac	-0.08618483
40	0xba7ee0b4	-0.00097228144
41	0x3cffe5c3	0.031237489
42	0xbe369af1	-0.17832543
43	0xbe324db0	-0.17412448
44	0x3e72f508	0.23726285

output_projector.weight f4 [1, 15]
0	0x3e19a1db	0.15003149
1	0xbebe05d1	-0.37113813
2	0xbe4fc0e1	-0.20288421
3	0xbea03de8	-0.3129723
4	0x3ebffe9f	0.37498948
5	0xbe5422a7	-0.20716344
6	0xbda96277	-0.08270734
7	0xbe89427e	-0.26808542
8	0x3e58b65b	0.21163313
9	0x3d3f9228	0.046770245
10	0xbe8706bf	-0.26372334
11	0xbde82e8d	-0.11337004
12	0x3e3107dc	0.17288154
13	0xbd2c23f3	-0.04202647
14	0x3cb5712b	0.02214869

exp_avg f4 [2, 1]
0	0x00000000	0.0
1	0x00000000	0.0

exp_avg_sq f4 [2, 1]
0	0x00000000	0.0
1	0x00000000	0.0

slow_buffer f4 [2, 1]
0	0x00000000	0.0
1	0xbe53f642	-0.20699409

exp_avg f4 [45, 4]
0	0x374f0980	1.2340373e-05
1	0x369327ac	4.38556e-06
2	0xb7314083	-1.0565042e-05
3	0xb6ceb9b0	-6.1608953e-06
4	0x37b96514	2.2100787e-05
5	0xb6982e03	-4.5353095e-06
6	0xb784791d	-1.5792024e-05
7	0xb5ee0772	-1.7734549e-06
8	0x37dfeddd	2.6694435e-05
9	0xb71f22c3	-9.485232e-06
10	0xb787b408	-1.6177088e-05
11	0xb58a8790	-1.0321255e-06
12	0xb6ea1fa7	-6.9774283e-06
13	0x36dd9e53	6.6047446e-06
14	0x3595ec91	1.1170215e-06
15	0xb547cdfa	-7.443301e-07
16	0x36e46244	6.806369e-06
17	0x35a5838d	1.2331744e-06
18	0xb6f94ca2	-7.4296995e-06
19	0xb523b457	-6.098466e-07
20	0xb702ba8d	-7.792039e-06
21	0x3797e771	1.8108376e-05
22	0xb74a5ea2	-1.2062172e-05
23	0x35ea527a	1.7458362e-06
24	0x367b5afb	3.7454872e-06
25	0x3605441b	1.9858187e-06
26	0xb6e5cfc1	-6.8489176e-06
27	0x359600b3	1.1176074e-06
28	0x372f66ba	1.0454731e-05
29	0xb5abc01c	-1.2796404e-06
30	0x3694d85c	4.4359313e-06
31	0xb7645ae3	-1.361102e-05
32	0xb68e814f	-4.2469833e-06
33	0xb5fa941c	-1.8669557e-06
34	0x362454e7	2.4487324e-06
35	0x3675f7c1	3.6652057e-06
36	0xb63fac69	-2.8561574e-06
37	0xb7614ae4	-1.3428482e-05
38	0x38049330	3.160833e-05
39	0xb7808b61	-1.5323692e-05
40	0x36faddd0	7.476403e-06
41	0x36c075a8	5.735743e-06
42	0xb7128f69	-8.735668e-06
43	0xb69634a6	-4.4764774e-06
44	0x37f21bb8	2.8861556e-05
45	0xb6c03263	-5.7279117e-06
46	0xb7cf3717	-2.4701976e-05
47	0x35d27f9e	1.5683361e-06
48	0x357ab9a2	9.340239e-07
49	0x374f6a53	1.2362917e-05
50	0x36dcbdab	6.578591e-06
51	0xb7a6ba61	-1.9875532e-05
52	0xb756b3ef	-1.2797288e-05
53	0x376974bc	1.3915062e-05
54	0x36fc7d45	7.5247685e-06
55	0xb710ff6b	-8.642538e-06
56	0x377519dc	1.4609159e-05
57	0xb4eedfc1	-4.4493757e-07
58	0xb69bce3b	-4.6433684e-06
59	0xb71fbbc3	-9.520855e-06
60	0x387a3ae6	5.96595e-05
61	0xb602d978	-1.9498093e-06
62	0xb7f284d3	-2.89105e-05
63	0xb7f195ce	-2.8799197e-05
64	0xb7ace2a4	-2.0609536e-05
65	0x358c7315	1.0464306e-06
66	0x377f232d	1.5207374e-05
67	0x36922770	4.35573e-06
68	0x379ef84d	1.8950692e-05
69	0x369a5503	4.5994543e-06
70	0x3800d007	3.071132e-05
71	0xb86396d0	-5.4261473e-05
72	0x38bd6a9f	9.032082e-05
73	0xb70191e8	-7.722971e-06
74	0xb7d367b1	-2.5201445e-05
75	0xb870bce6	-5.7396384e-05
76	0xb6c909d5	-5.9914114e-06
77	0x348d44b1	2.6313276e-07
78	0x33849003	6.1729246e-08
79	0x36be2347	5.666548e-06
80	0x384f416c	4.9413575e-05
81	0x37994507	1.8271165e-05
82	0xb789771a	-1.6387134e-05
83	0xb857285a	-5.1297575e-05
84	0x35c60628	1.4753941e-06
85	0x3608e49f	2.0398654e-06
86	0xb653ca78	-3.1559302e-06
87	0xb4c0e9b9	-3.5932842e-07
88	0x3748d0a4	1.1969507e-05
89	0xb3dff7bd	-1.042931e-07
90	0x3733bbdb	1.071297e-05
91	0xb7bd6649	-2.2578186e-05
92	0x38a1589b	7.693582e-05
93	0x37a46d28	1.9601153e-05
94	0xb7f90729	-2.9686447e-05
95	0xb88c321c	-6.685054e-05
96	0x3847611c	4.7535737e-05
97	0x378b34c7	1.6594668e-05
98	0xb80f9166	-3.422927e-05
99	0xb7fad422	-2.9901104e-05
100	0x3806f8ae	3.217969e-05
101	0x36f8564d	7.4010227e-06
102	0xb6b0ea23	-5.272466e-06
103	0xb80fe635	-3.4308254e-05
104	0xb6c44284	-5.8489986e-06
105	0xb6e5925b	-6.84177e-06
106	0x37591cbe	1.29409e-05
107	0xb486494c	-2.5012775e-07
108	0x3815708f	3.5629197e-05
109	0xb7736ec8	-1.4509722e-05
110	0xb6342cb1	-2.6848104e-06
111	0xb79aa424	-1.8434665e-05
112	0x38a470d5	7.841146e-05
113	0xb6dd24a8	-6.5905806e-06
114	0xb7809e7c	-1.533259e-05
115	0xb86cedd6	-5.6488287e-05
116	0x38272f4e	3.985996e-05
117	0x3642496c	2.895099e-06
118	0xb7611650	-1.341624e-05
119	0xb7f61ca4	-2.9338822e-05
120	0xb99fc9ff	-0.00030477342
121	0x38338052	4.2796433e-05
122	0x3a2adf63	0.00065182726
123	0xb9cc64d2	-0.0003898503
124	0xb7e3916c	-2.7128226e-05
125	0x378d7b5d	1.6865955e-05
126	0xb8151bc9	-3.5550245e-05
127	0x384026bd	4.5812445e-05
128	0x38f1b878	0.000115261355
129	0x396c550a	0.00022538393
130	0xb9c3dd61	-0.00037358238
131	0x380a25ec	3.293708e-05
132	0x37a9ec2b	2.0256344e-05
133	0x38fa2482	0.00011927729
134	0x39af272b	0.00033407783
135	0xb9f84f11	-0.00047361155
136	0x3920971d	0.00015315083
137	0x3800e232	3.072824e-05
138	0xb9270b26	-0.00015930514
139	0xb7ce2402	-2.4573881e-05
140	0x38f3ed05	0.00011631291
141	0xb94487fb	-0.00018742673
142	0x39a8db21	0.0003220672
143	0xb9839263	-0.00025095334
144	0x38381b85	4.3894648e-05
145	0xb70fd3f8	-8.572817e-06
146	0xb90005f8	-0.00012209255
147	0x38b5f8a9	8.677069e-05
148	0x3892486f	6.975314e-05
149	0x393b9ae6	0.00017891414
150	0xb9ca3691	-0.00038569098
151	0x390fae02	0.00013702366
152	0xb850c0d6	-4.9770657e-05
153	0xb8cf098a	-9.872306e-05
154	0xb8d0bb14	-9.953059e-05
155	0x39820941	0.00024802427
156	0x39ab8503	0.00032714763
157	0xb9394994	-0.00017670385
158	0xba0e2034	-0.0005421669
159	0x39cd602e	0.00039172306
160	0x38c71da1	9.494578e-05
161	0x39927b0b	0.00027938964
162	0xba01f38b	-0.000495725
163	0x38fe9285	0.00012138955
164	0x38d71ef5	0.00010257765
165	0x371942e0	9.135081e-06
166	0xb94bcce3	-0.00019435915
167	0x38ad5271	8.264639e-05
168	0x38f8379b	0.00011835919
169	0xb88e9c04	-6.800148e-05
170	0xb916fc5a	-0.00014399123
171	0x38c45d17	9.3633476e-05
172	0x386ba2c9	5.617997e-05
173	0x399e7855	0.00030225763
174	0x38d75177	0.00010267173
175	0xb9f1c107	-0.0004611092
176	0xb8dac298	-0.00010431296
177	0x3759f4ad	1.2991176e-05
178	0x3965037c	0.0002184044
179	0xb9054180	-0.00012708269

exp_avg_sq f4 [45, 4]
0	0x2f86b8cf	2.4505772e-10
1	0x2eb7decb	8.3614525e-11
2	0x3003afdb	4.790743e-10
3	0x2f0d6276	1.2858856e-10
4	0x2f9cf181	2.8547834e-10
5	0x2e38ff4d	4.206351e-11
6	0x2ed2a221	9.578494e-11
7	0x2ea3ea8d	7.4540464e-11
8	0x311c7cb3	2.277187e-09
9	0x30453427	7.1742295e-10
10	0x304f2fcf	7.53741e-10
11	0x30ec5eef	1.7198242e-09
12	0x3082bdba	9.512668e-10
13	0x2f31f9d1	1.6186809e-10
14	0x30ce1006	1.4993027e-09
15	0x2f9fe696	2.9085773e-10
16	0x30721534	8.806922e-10
17	0x2d9969fa	1.744115e-11
18	0x306baea2	8.574067e-10
19	0x2db9ba7a	2.1114877e-11
20	0x2f856f95	2.4271843e-10
21	0x2f0274b5	1.1864894e-10
22	0x2f879440	2.4661695e-10
23	0x2e714269	5.485604e-11
24	0x2e4445da	4.462728e-11
25	0x2e1ca03e	3.5612617e-11
26	0x2f1a27fb	1.4020422e-10
27	0x2d85107a	1.5127666e-11
28	0x2f016b1a	1.1770532e-10
29	0x2e093181	3.1194162e-11
30	0x2f438629	1.778281e-10
31	0x2f624d5b	2.0582062e-10
32	0x2e9f0081	7.2305724e-11
33	0x2e5e0fec	5.0491097e-11
34	0x2ed034a8	9.4680985e-11
35	0x2e9f334d	7.239596e-11
36	0x2f4de36a	1.8725435e-10
37	0x2e43aaaa	4.4489447e-11
38	0x3008ac2d	4.972119e-10
39	0x2f85a1b0	2.4307445e-10
40	0x2f756592	2.2318705e-10
41	0x2eed81cf	1.0800571e-10
42	0x2f5ee05e	2.0270494e-10
43	0x2ec86bc0	9.114087e-11
44	0x3097769e	1.1020409e-09
45	0x2fc952f7	3.6620637e-10
46	0x30aaf17a	1.243776e-09
47	0x301b00b2	5.638966e-10
48	0x2f027fee	1.1868881e-10
49	0x2e989589	6.9387225e-11
50	0x2e82b134	5.943193e-11
51	0x2e90ac4d	6.5789686e-11
52	0x2fcf3e2c	3.7697256e-10
53	0x2f18a876	1.3884169e-10
54	0x306f57c2	8.7072405e-10
55	0x301ed5c6	5.7783855e-10
56	0x2eb9a348	8.4418306e-11
57	0x2d691c67	1.3250823e-11
58	0x2e941f29	6.735796e-11
59	0x2d98945b	1.7346282e-11
60	0x31146541	2.159439e-09
61	0x2f909ce9	2.630494e-10
62	0x2f81ba43	2.359731e-10
63	0x30d66db7	1.5601732e-09
64	0x308055d4	9.33762e-10
65	0x2f164b7e	1.3669241e-10
66	0x2e7daf6b	5.7681342e-11
67	0x2f9ca8ec	2.849626e-10
68	0x315d0975	3.2165108e-09
69	0x301dccbc	5.740721e-10
70	0x308baa04	1.0161902e-09
71	0x313c75e2	2.742461e-09
72	0x321693cb	8.764753e-09
73	0x30a125fa	1.1725085e-09
74	0x302aaa57	6.2087707e-10
75	0x3182d882	3.808112e-09
76	0x2f97a8e2	2.7586738e-10
77	0x2d1bc605	8.854699e-12
78	0x2daf5fdc	1.9937767e-11
79	0x2ef4037d	1.1096455e-10
80	0x312e0845	2.5325033e-09
81	0x2fbef39e	3.47339e-10
82	0x30abbf44	1.2496248e-09
83	0x31682949	3.3783911e-09
84	0x2dd25de3	2.391593e-11
85	0x2ce252b1	6.432487e-12
86	0x2d0477c4	7.529925e-12
87	0x2d5146d6	1.1896003e-11
88	0x2f7e2217	2.3113277e-10
89	0x2e6cd2f3	5.3847548e-11
90	0x2eda39c8	9.923756e-11
91	0x2f61c84d	2.0534792e-10
92	0x31f28096	7.0577455e-09
93	0x30888826	9.933998e-10
94	0x30984657	1.1079447e-09
95	0x3198137d	4.425998e-09
96	0x3094988f	1.0811777e-09
97	0x2f1bb9be	1.4163157e-10
98	0x304f62aa	7.544637e-10
99	0x30fe5aaf	1.8506706e-09
100	0x30a1c6b5	1.1770768e-09
101	0x2f922058	2.6580227e-10
102	0x30376af0	6.672698e-10
103	0x30b5f6c6	1.323962e-09
104	0x2f824bd6	2.3700747e-10
105	0x2e2bc4a7	3.905556e-11
106	0x2ea3e88a	7.453689e-11
107	0x2f33c790	1.6350854e-10
108	0x2f212ad7	1.4658084e-10
109	0x2ebac859	8.4938896e-11
110	0x2f8f3057	2.6045896e-10
111	0x2fa170f6	2.9365993e-10
112	0x31c0c4bf	5.610303e-09
113	0x30ac4bd0	1.2536194e-09
114	0x30cb27fa	1.4781556e-09
115	0x319ef3a5	4.6261044e-09
116	0x300871ba	4.9638127e-10
117	0x2f7492cb	2.2243822e-10
118	0x302a81e0	6.2030203e-10
119	0x304c32be	7.4286877e-10
120	0x339a738e	7.192203e-08
121	0x32c9effd	2.3508614e-08
122	0x348d8f63	2.6367624e-07
123	0x33bfbd26	8.9285365e-08
124	0x34f7512e	4.60664e-07
125	0x3338e3e8	4.3048118e-08
126	0x35198a1c	5.719792e-07
127	0x32b3fd4b	2.0953527e-08
128	0x340c4df1	1.3066871e-07
129	0x3409efae	1.2846314e-07
130	0x33e2b48e	1.0556788e-07
131	0x33ea38e1	1.090682e-07
132	0x344e04a8	1.9186939e-07
133	0x3313174f	3.4247304e-08
134	0x34ee350e	4.4369557e-07
135	0x34403dd2	1.7903884e-07
136	0x34708607	2.24005e-07
137	0x31870b3b	3.930294e-09
138	0x3477acb1	2.3066492e-07
139	0x31c638ec	5.7690297e-09
140	0x33a5db95	7.723353e-08
141	0x32e0189b	2.6088221e-08
142	0x33ee97df	1.1110364e-07
143	0x33a5ac05	7.7147014e-08
144	0x31f0bef4	7.006628e-09
145	0x31de053a	6.4616446e-09
146	0x32c3272b	2.27188e-08
147	0x3170b3a3	3.5026708e-09
148	0x335e53da	5.1764665e-08
149	0x330bb378	3.2526685e-08
150	0x339c6cdc	7.2841175e-08
151	0x33979a25	7.059524e-08
152	0x3428402a	1.5669562e-07
153	0x33869855	6.26757e-08
154	0x343a43e3	1.7347297e-07
155	0x340ad392	1.292922e-07
156	0x33fbee2d	1.1731422e-07
157	0x32ad5f6c	2.0183244e-08
158	0x34a59dce	3.0848463e-07
159	0x34009277	1.1974213e-07
160	0x33bf83a6	8.918077e-08
161	0x336a8fad	5.4613043e-08
162	0x341f728a	1.4849698e-07
163	0x33bfa6d0	8.9244736e-08
164	0x3435cc63	1.6931294e-07
165	0x3314ffc4	3.4691553e-08
166	0x345c84e3	2.053744e-07
167	0x331c9dae	3.646499e-08
168	0x32bf57e2	2.2275291e-08
169	0x31ef7871	6.969508e-09
170	0x32ede440	2.7694227e-08
171	0x320f6b1a	8.348048e-09
172	0x34198023	1.4295851e-07
173	0x332eed47	4.0728334e-08
174	0x34c0b8c3	3.589722e-07
175	0x345642c9	1.99546e-07
176	0x334a1777	4.705313e-08
177	0x31e635cf	6.6999983e-09
178	0x33806324	5.978498e-08
179	0x3262d333	1.32029525e-08

slow_buffer f4 [45, 4]
0	0x3e925083	0.2857705
1	0xbda702af	-0.08154809
2	0x3dcfe5bb	0.101512395
3	0x3c2d59f4	0.0105805285
4	0xbdb90dda	-0.09035845
5	0x3c825b76	0.015912753
6	0xbdde17d2	-0.10844387
7	0xbde4d95b	-0.1117427
8	0x3d3bd806	0.045860313
9	0xbd87669f	-0.0661137
10	0xbe029e7a	-0.12755767
11	0x3e8b02b2	0.27150494
12	0x3eb0bf36	0.34520882
13	0x3de72133	0.11285629
14	0x3d6a5415	0.057209093
15	0x3eb46f48	0.3524115
16	0xbe7846ea	-0.24245802
17	0xbe399a2c	-0.18125218
18	0xb97a6c80	-0.00023882277
19	0x3de4e0b2	0.1117567
20	0x3e193a6d	0.14963694
21	0x3d0fc12e	0.03509634
22	0x3e961a29	0.29316834
23	0xbea8fada	-0.33003885
24	0x3d85fade	0.0654199
25	0x3d180e26	0.037122868
26	0x3e0ee20a	0.13953415
27	0xbe853169	-0.2601426
28	0xbe947672	-0.28996617
29	0x3c787dea	0.015166739
30	0x3dc27451	0.09494842
31	0x3e875b3f	0.26436803
32	0xbe5b76f7	-0.214321
33	0xbe14cd17	-0.1453136
34	0x3d0a3174	0.03373857
35	0x3e952b6c	0.2913469
36	0xbc42a743	-0.011880699
37	0xbe25a2f2	-0.1617544
38	0x3d1ef0fa	0.038804032
39	0x3eaa3596	0.33244008
40	0xbeab2df2	-0.3343349
41	0xbe93726a	-0.28798229
42	0x3e5111fb	0.20417015
43	0x3ea582f5	0.32326475
44	0xbd05cd48	-0.032666475
45	0xbe1a7dc7	-0.15087043
46	0x3bd2c9e5	0.006432759
47	0xbea90fe6	-0.33019942
48	0x3e58ad8e	0.21159956
49	0x3e4f9af1	0.20273949
50	0xbe97e474	-0.29666483
51	0x3ca51c0d	0.020154977
52	0xbdcfccc3	-0.10146477
53	0xbe408ee7	-0.18804513
54	0xbeda948a	-0.4269145
55	0x3ea015cc	0.3126663
56	0x3d57dafb	0.05269907
57	0xbe0c2480	-0.13685799
58	0x3e0b14e2	0.13582185
59	0xbc43d2ac	-0.011952084
60	0xbeca0062	-0.39453417
61	0xbd0a43ee	-0.03375619
62	0xbd47211a	-0.048615552
63	0x3ed027c2	0.40655333
64	0xbda96480	-0.08271122
65	0xbeb48040	-0.35254097
66	0xbe0779e5	-0.13230093
67	0xbc48fd81	-0.012267471
68	0xbcba9630	-0.022776693
69	0x3e39755c	0.18111175
70	0xbcb98cac	-0.022650085
71	0x3eb0d600	0.3453827
72	0xbe324022	-0.17407277
73	0x3d909cb6	0.0706114
74	0xbe39778c	-0.1811201
75	0x3d8d0992	0.06886591
76	0xbdeed884	-0.11662391
77	0x3cad0b86	0.021123659
78	0xbc6b2b1e	-0.014353542
79	0xbd82245b	-0.063545905
80	0xbedb02c1	-0.4277554
81	0x3e558782	0.20852473
82	0x3dede6ac	0.11616263
83	0x3c9ada20	0.018902838
84	0x3e38b952	0.18039444
85	0xbe0bd582	-0.13655666
86	0xbddcc5ea	-0.107799366
87	0x3ccd5825	0.025066445
88	0x3ca2a2e2	0.01985306
89	0xbdc34924	-0.09535435
90	0x3e5a7c6a	0.21336523
91	0x3e3badb0	0.18327975
92	0xbec45700	-0.38347626
93	0x3cdcc6dd	0.026950294
94	0xbe02da47	-0.12778579
95	0x3ecebb5e	0.40377325
96	0xbdbc9b3f	-0.09209298
97	0x3e770f51	0.24126936
98	0x3de3c878	0.11122221
99	0x3e369e2c	0.17833775
100	0xbcb5f536	-0.022211652
101	0xbced7348	-0.028985634
102	0x3c195a16	0.009359857
103	0x3e36b75f	0.17843388
104	0x3d7c3da4	0.061582223
105	0x3d5dd9e5	0.05416288
106	0xbe9d1799	-0.30682066
107	0x3dc4d2ce	0.0961052
108	0xbc4914f6	-0.012273064
109	0x3e710c22	0.23539785
110	0x3b942c0f	0.0045218538
111	0x3aad1b04	0.0013206904
112	0xbe2069c0	-0.1566534
113	0x3e20bdf6	0.15697464
114	0xbe056ee4	-0.13030583
115	0x3ec479c6	0.38374156
116	0xbe6e461d	-0.23268934
117	0x3d63a572	0.055577703
118	0x3e82e9da	0.2556904
119	0x3e53990a	0.20663849
120	0x3d6bb62e	0.057546787
121	0x3e7cbe40	0.2468195
122	0xbec94bce	-0.39315647
123	0x3ee8bd16	0.4545676
124	0xbe8fddd0	-0.28098917
125	0xbdcd2692	-0.10017122
126	0xbdac986e	-0.08427511
127	0xbd9565a7	-0.07294779
128	0x3de8a017	0.1135866
129	0x3de297a6	0.11064081
130	0x3eae5057	0.3404567
131	0x3db6b2fd	0.08920858
132	0x3e571a2e	0.2100608
133	0x3e51083a	0.20413294
134	0xbefa782e	-0.48919815
135	0x3ea3eaa0	0.32014942
136	0xbbf0e2d7	-0.00735126
137	0xbc731b7e	-0.014838098
138	0x3d43ca10	0.047800124
139	0x3e8afd61	0.27146438
140	0x3e5fd6d6	0.21859297
141	0x3cf77953	0.03020922
142	0xbef6183c	-0.48065364
143	0xbc94ef58	-0.018180534
144	0xbeee3846	-0.46527308
145	0xbd736f43	-0.05943228
146	0x3e17b880	0.14816475
147	0xbc3a62d2	-0.0113761
148	0xbe924cc1	-0.28574184
149	0x3e4647d3	0.19363336
150	0x3e857194	0.26063216
151	0xbe1e2f30	-0.15447688
152	0xbe399076	-0.18121514
153	0x3c3d5b09	0.011557349
154	0x3f0493f5	0.51788265
155	0x3d370d5a	0.044690467
156	0xbed192c1	-0.40932277
157	0xbdd93fe4	-0.10607889
158	0x3ebddbe3	0.37081823
159	0xbedc8992	-0.43073708
160	0xbdd0a4a8	-0.10187656
161	0x3da03b27	0.078237824
162	0x3ead3577	0.33829853
163	0xbc195934	-0.009359647
164	0xbd6bd026	-0.057571553
165	0xbc855082	-0.01627374
166	0x3d8cb176	0.068697855
167	0xbe26f35a	-0.16303769
168	0xbd70a3ee	-0.058750086
169	0xbe08f2b8	-0.1337384
170	0x3eb2763c	0.3485583
171	0x3e3905be	0.18068597
172	0xba5948d8	-0.00082887476
173	0x3def24a0	0.116769075
174	0xbee305e0	-0.4434042
175	0x3ee03925	0.43793598
176	0x3e97aa2c	0.29622018
177	0xb9a95d00	-0.00032303482
178	0xbe9085be	-0.28227037
179	0x3eabfca2	0.3359118
