GRU_logs/lightning_logs/version_2/checkpoints/epoch=0-step=79.ckpt (torch, 70471 bytes, 40 tensors)

embeddings.embeddings.house_hold.weight f4 [2, 1]
000000 00 00 00 00 42 f6 53 be
       0.0 -0.20699409

rnn.weight_ih_l0 f4 [45, 4]
000000 44 86 dc 3d f8 14 cc bc 94 ad 8c 3e ff b2 b2 bd
       0.10767797 -0.024912342 0.2747618 -0.08725547
000010 f7 5b 00 be 12 51 e5 bc c8 05 c4 bd fb af 01 bd
       -0.12535082 -0.027992759 -0.09571415 -0.03166197
000020 f1 b0 e4 3b 18 3f 10 3d b3 ea 69 3c 1a 50 f4 3d
       0.006979101 0.03521642 0.014277148 0.11929341
000030 a8 c7 a9 3e 96 ee 1c 3d bf f2 17 3e 16 e9 78 3e
       0.33160138 0.03831347 0.14838694 0.24307665
000040 bd b3 81 be ab 53 26 bd f0 35 3f bc 28 ec 81 3d
       -0.25332442 -0.040607136 -0.011670575 0.06343871
000050 83 dd f2 3d 37 22 42 3c c2 d2 bd 3e 80 54 b5 be
       0.11858656 0.011848978 0.37074858 -0.3541603
000060 3f eb 4e 3e 5e 8e 7e 3d 1c 53 c0 ba cd 43 6f be
       0.20206927 0.06214749 -0.0014673206 -0.23365708
000070 c2 93 86 be 8c 23 90 3d c5 9c 32 3e 9f 3c e3 3d
       -0.26284605 0.0703803 0.17442615 0.11095547
000080 f4 a5 19 be f9 42 77 be ab 32 e3 3d 89 4a 6c 3e
       -0.15004712 -0.24146642 0.110936485 0.23075308
000090 a8 51 97 bd 04 27 df bd e6 f0 e5 3d e6 d0 83 3e
       -0.073886216 -0.108961135 0.11227588 0.25745314
0000a0 a5 99 83 be cf 04 6b be c0 9a 87 3d 6b 08 a6 3e
       -0.2570316 -0.22951053 0.06621313 0.32428297
0000b0 b6 c8 06 3a f2 d4 63 be 28 2e e3 bd 86 2b 1d be
       0.00051416026 -0.22249201 -0.11092788 -0.15348634
0000c0 d6 35 1b 3e cb 6f 82 3e 21 76 8a be 7c b3 a4 3c
       0.15157256 0.25475916 -0.2704325 0.020105116
0000d0 44 e4 34 be 73 61 2c be a9 6e 9a bd c5 26 0d bd
       -0.17665201 -0.16834049 -0.07540638 -0.0344608
0000e0 d0 23 21 3e 97 9c 5d bd 5d 15 b5 bd bb dc ca 3c
       0.15736318 -0.054104414 -0.08841965 0.024763456
0000f0 8d f3 1c be cc 2d a1 be bb 13 bc 3d da f9 70 3e
       -0.15327282 -0.31480253 0.09183451 0.23532811
000100 06 26 b8 bd af 16 a2 be 0c 41 28 be 62 52 02 bc
       -0.089916274 -0.3165793 -0.16431063 -0.007954212
000110 b8 0a 51 3d ba 1a ed bd dd f1 6b 3e 08 a8 96 3e
       0.051035613 -0.11577363 0.23041482 0.29425073
000120 82 46 0d be 7c fa 1a be bd f3 bd 3c 96 20 84 3c
       -0.13796428 -0.15134615 0.023187513 0.01612882
000130 53 55 ae bd d4 c8 a8 bc 9a f0 ca bb 8d 07 a2 bd
       -0.08512368 -0.020603575 -0.0061932327 -0.079115964
000140 63 74 bf be 1a a7 c9 bd cf 61 b7 3e b1 73 d8 bc
       -0.37393484 -0.09846325 0.3581681 -0.026422353
000150 65 b7 47 3e ba 89 08 be a4 36 0c be d8 9b ef 3c
       0.19503553 -0.13333789 -0.13692719 0.029249117
000160 3e 4f 65 3d ff cd 42 be 14 72 ac 3e 27 d4 d8 3d
       0.055983774 -0.19023894 0.33680785 0.1058734
000170 aa 6b 9a be 8c e5 74 be 40 1b ca 3c 7b 37 bc 3e
       -0.30160266 -0.2391569 0.024671197 0.36761078
000180 b7 74 72 3e b6 3b 29 3e cd d0 93 3c fa 47 ad 3d
       0.23677336 0.16526684 0.0180439 0.08460994
000190 59 6f 44 3d ba c0 24 be 15 4e f1 3c af c9 34 3e
       0.047957752 -0.16089144 0.029456178 0.17655061
0001a0 ef 6b 2e 3e 69 af 9b bc 28 36 69 be f5 08 32 bd
       0.17033361 -0.01900454 -0.22774565 -0.043465573
0001b0 d1 df b1 3b 15 35 d6 3d b5 74 91 bd 00 32 01 3e
       0.0054282923 0.10459343 -0.07102338 0.1261673
0001c0 db ad 66 bd 63 b6 2c be 34 65 fd 3d a3 67 9f 3e
       -0.056318145 -0.1686645 0.123728186 0.31133756
0001d0 fe 06 c6 bd 03 e5 f3 3d a9 f2 3f 3e e2 86 d2 3d
       -0.096693024 0.11908915 0.18744911 0.10279633
0001e0 35 ce 8c 3d c8 3d 0b 3e cb 59 98 be fe 9b d6 3e
       0.06875268 0.13597786 -0.29756007 0.41915888
0001f0 a0 37 3d be 55 b7 ae bd 63 f4 0a be 53 5a 82 bd
       -0.1847825 -0.085310616 -0.13569789 -0.06364884
000200 88 3e 3b 3d 43 b5 26 3d 00 ac a5 3e 0c 31 b8 3d
       0.04571393 0.04070021 0.32357788 0.0899373
000210 e2 d7 04 3e a9 2b 4a 3e 61 f6 f2 be 79 64 ab 3e
       0.12972978 0.19743218 -0.47453597 0.33475092
000220 8e 58 b8 bb fb 93 8e 3e cb 4b c0 3d 4d ad 88 3e
       -0.005625791 0.27847275 0.09389456 0.26694718
000230 ff 54 fe 3d c9 0e 31 3d 6c a7 e7 be 25 ca 82 bd
       0.124185555 0.04322699 -0.4524492 -0.06386212
000240 7a 4f 11 be f3 a7 25 be 13 43 bb bc b3 15 32 3e
       -0.14190474 -0.16177349 -0.022859132 0.1739109
000250 77 77 69 be 92 42 0d 3e 97 76 9f 3e bb af 21 bc
       -0.22799478 0.13794926 0.31145164 -0.009868558
000260 28 92 0b be 5d d6 4f bd aa d3 ed 3e 4f a9 bf 3d
       -0.13629973 -0.050741542 0.4645055 0.09358465
000270 ca ce 63 be 06 9b 32 be 28 28 7b 3e 33 57 6d be
       -0.22246853 -0.17441949 0.24527037 -0.23177795
000280 93 2c 04 be e3 22 d9 bc 94 ae a7 3e f5 67 a8 bd
       -0.12907629 -0.026505893 0.3275038 -0.08222953
000290 7d 8a fe bc 1e dd f0 bd d0 40 72 bd 27 d5 f1 3d
       -0.031071896 -0.11760925 -0.05914384 0.11808234
0002a0 4c e0 00 bd e9 97 00 be 61 cc b9 3e 1f b1 14 3e
       -0.031463906 -0.12557949 0.3628874 0.14520691
0002b0 48 18 08 3b 0b 5b cb 3d 59 9e c0 be 05 df eb 3e
       0.0020766426 0.099294744 -0.3762081 0.46068588
0002c0 48 c3 f2 3d 65 e4 41 3e 35 6d 0c be 75 3a e5 3d
       0.11853653 0.18934782 -0.13713534 0.111927904

rnn.weight_hh_l0 f4 [45, 15]
000000 51 2e fb 3d 39 49 01 be 24 74 fe bd 9d 99 2d be
       0.122646935 -0.12625588 -0.12424496 -0.1695313
000010 4c 5c 1b 3e 1e 17 77 be 2f f5 2d 3c 67 af 74 3e
       0.15171927 -0.24129912 0.010617538 0.23895036
000020 3f 54 ad bd eb 4b 70 3e f1 07 05 3d 2a 84 6c bd
       -0.08463334 0.2346646 0.032478277 -0.05774323
000030 9d e4 4b 3e bd db 01 3e c2 7c 0a 3e df 16 49 3e
       0.19911428 0.1268148 0.13524154 0.19637631
000040 61 48 29 3e 90 af 5b 3e 96 bf e9 bd 88 29 ad 3d
       0.16531517 0.2145369 -0.11413495 0.08455187
000050 2d d5 3d 3e 25 9e 39 bd 43 47 92 bd 21 93 2e 3d
       0.18538351 -0.045316834 -0.07142498 0.04262078
000060 10 bf 89 3d f9 d1 6f 3d 98 89 8e bd 06 f5 0c 3e
       0.067258954 0.058549855 -0.06959838 0.13765344
000070 6a 31 76 bd ce 10 a7 bd ca 85 1f be 23 38 7a be
       -0.06010572 -0.08157502 -0.1557838 -0.24435477
000080 93 4b 24 3e 77 4c dc bd 72 36 f2 3d da 8b b9 bd
       0.16044454 -0.10756772 0.11826791 -0.09059878
000090 06 a8 e7 3c 1a 25 b3 3d cf d3 a2 3d e6 6a b2 3c
       0.028278362 0.08747311 0.079505555 0.021779489
0000a0 8f 47 20 3d 98 00 60 be 79 df 58 be ec 2f 3f 3e
       0.039130744 -0.21875226 -0.21178998 0.18670624
0000b0 8f 4c 9d bd c5 3c 43 be 3a 90 83 3d dc 02 34 3d
       -0.07680618 -0.1906615 0.064239934 0.04394804
0000c0 d5 58 a2 3a 94 f7 5c bd 49 ab 89 bd 57 44 05 3e
       0.0012386093 -0.053947046 -0.06722123 0.13014351
0000d0 81 dd a0 3d fa 08 07 bd 89 a1 2e 3e 45 6b 81 bd
       0.078547485 -0.032967545 0.17053808 -0.06319288
0000e0 52 48 0e bd c1 c0 d3 bd fe a7 ad be 7f f3 35 be
       -0.03473694 -0.10339499 -0.3391723 -0.17768668
0000f0 36 e2 2d be 77 87 52 bd de e5 a4 3c 8b fd aa 3d
       -0.16980824 -0.05139872 0.02012914 0.08349141
000100 2f 17 66 3c 84 3e 10 3e ed 40 cc 3d c6 ef c0 3d
       0.014043613 0.14086348 0.09973321 0.09420733
000110 d5 7a 5c be b3 3f 80 be a7 fa b3 3b e7 f3 5e be
       -0.21531232 -0.250486 0.0054925266 -0.21772729
000120 e9 dc 86 3d 7c fe 46 3e 9d ea 71 bd 74 c6 63 be
       0.06585104 0.19433016 -0.059061635 -0.22243673
000130 59 53 5c be 3e 60 80 3e 30 f5 68 3d 54 5a fd bc
       -0.2151617 0.25073427 0.056874454 -0.03092686
000140 34 a1 3c 3d cd b5 3d 3e ad 09 ea bc eb 92 cf 3c
       0.046052173 0.18526383 -0.028569067 0.02533861
000150 8a 99 3f be 79 d5 84 3e d8 bb 9f 3d c0 8e 5e 3e
       -0.18710914 0.25944117 0.077995 0.21734142
000160 59 29 40 be 26 40 99 3d 79 a4 20 be 46 53 80 3d
       -0.18765773 0.074829385 -0.15687741 0.06265883
000170 78 b0 03 3e d6 ef a2 bd 36 f0 c7 3d 84 02 89 bd
       0.12860286 -0.07955901 0.097626135 -0.06689933
000180 18 4b 4f 3e 4d c5 9a 3d 2b 34 9d 3d ab 42 39 3e
       0.2024349 0.075571634 0.07675966 0.18091838
000190 e4 74 87 be 02 02 97 3d 7d 4a e3 bd c8 c5 6c 3e
       -0.26456368 0.0737343 -0.11098192 0.23122323
0001a0 9f 7f 8d 3e 39 59 d9 3c 78 14 39 be df f5 8b 3e
       0.2763643 0.026531802 -0.18074214 0.27336022
0001b0 4f 49 d5 bd cb 3c 32 be c7 39 13 be 11 36 14 3d
       -0.10414373 -0.17406003 -0.14377509 0.036184374
0001c0 92 94 3e 3b 4d e4 44 3e f1 04 7f 3d 63 92 13 be
       0.0029080254 0.19227715 0.062260572 -0.14411311
0001d0 ba a5 0b bd ec 2d f6 bc 88 fa 4d bd db 82 2b be
       -0.034093596 -0.030051194 -0.050287753 -0.16749136
0001e0 c2 b6 43 3e 55 71 d7 bb b9 b6 57 3e 2e df 76 be
       0.19112685 -0.0065747895 0.21065797 -0.24108574
0001f0 e4 fc 4c 3e f8 6c 79 be 62 4f 07 be 80 b0 4e 3d
       0.20018345 -0.24357975 -0.13213876 0.050461292
000200 7f 72 5a 3e c0 51 8f bd 29 98 61 3e 02 6d a5 3d
       0.2133274 -0.069980145 0.220307 0.08077432
000210 37 1a 9d 3e 70 83 27 bc 3a 61 48 be 1b c8 c5 3d
       0.30684063 -0.010224208 -0.19568339 0.09657308
000220 8a 40 80 3e fb ac e3 3a 43 0e 2a bd 73 36 4b bd
       0.2504924 0.0017370278 -0.041517507 -0.049612474
000230 fe dc 2b 3e 2d b9 73 3e 07 81 28 3e 3e 95 8f be
       0.1678352 0.23801108 0.1645547 -0.2804355
000240 f0 60 fa bc cc f3 19 3e 03 09 3d 3e f6 5b dd bc
       -0.030563802 0.15034407 0.18460469 -0.02702139
000250 ef e4 43 3d e7 8d c5 3d 87 bc 48 3d ae 70 8f bd
       0.04782575 0.09646206 0.04900792 -0.07003914
000260 26 31 5a be d4 bb 70 3d 3d e1 78 bd 3b f4 7b 3a
       -0.21307811 0.058772877 -0.06076168 0.00096112833
000270 14 3f 04 3e 71 0f 0d be 78 71 53 3e e8 56 32 be
       0.12914687 -0.13775422 0.20648754 -0.17415965
000280 aa 4d 3a 3c 56 9e f2 bd 51 00 b9 bd fb ad 53 be
       0.011371056 -0.118466064 -0.090332635 -0.20671837
000290 56 cb 79 be ec 75 85 be 4a 46 49 be ed 6f 37 be
       -0.24393973 -0.2606653 -0.1965572 -0.1791379
0002a0 29 6b 35 3d 1d be b5 bd 50 b2 7b be ec 3d c8 bd
       0.04429165 -0.08874152 -0.2457974 -0.09777436
0002b0 20 e2 9f 3d 0d 25 82 3e cc 24 1a 3e b6 5f d8 bd
       0.07806802 0.25418893 0.150531 -0.105651304
0002c0 18 29 25 bc 19 3c f4 bd 31 63 9b 3c 0f 9b 8e 3c
       -0.010080598 -0.11925525 0.018968197 0.017407922
0002d0 78 e7 01 be ac 02 18 3e f8 84 4d be c1 c0 6a be
       -0.12685955 0.14844769 -0.20070255 -0.22925092
0002e0 e6 d6 84 be fb 4b 1e 3c f7 13 aa 3a 38 aa 6f 3d
       -0.25945204 0.00966167 0.0012975921 0.058511943
0002f0 4f 2e 72 3e dc 56 98 3b 1f 11 28 be 6e f8 03 3d
       0.23650478 0.0046490263 -0.16412781 0.032219343
000300 ad d0 ec 3c 13 d1 70 be f6 1e 5b be dd cd 9b be
       0.028908098 -0.23517255 -0.2139853 -0.304305
000310 a2 ef 4f bd 44 f2 e2 3d d1 5f a2 bd 44 d4 81 bd
       -0.05076564 0.11081365 -0.07928432 -0.063393146
000320 55 c0 5b bd f4 27 ff bc 3f 37 0b be f8 de a1 3e
       -0.05365022 -0.03114698 -0.13595293 0.31615424
000330 b0 dd 1c bd 69 e5 28 3d e0 62 04 be 13 5e f4 bd
       -0.038297355 0.041234408 -0.12928343 -0.11932006
000340 ec b2 76 3d 06 81 73 be ee 67 7b 3e 3a 16 e8 3c
       0.060229227 -0.23779687 0.24551365 0.028330911
000350 d8 78 13 3d 9b 76 0e 3d 7b b1 4e be 0d 9e 8d be
       0.036003917 0.03478108 -0.20184891 -0.27659646
000360 f1 f0 2a 3e 72 d1 4f bd c6 35 fe bc 44 9b 8d be
       0.16693474 -0.050736852 -0.0310315 -0.2765752
000370 60 0e 97 3c f4 5d 14 bd d3 47 64 3c 2b 80 90 3c
       0.018439472 -0.036222413 0.01393314 0.01763924
000380 47 6d 42 be b4 6f bb bd 77 4d 0f be 5a e3 0e 3d
       -0.18986998 -0.09152165 -0.13994394 0.034884788
000390 cd 66 83 bd 77 e6 46 be 7a 27 39 3e db 1d b7 3b
       -0.06416092 -0.19423853 0.18081465 0.005588276
0003a0 f5 fc 61 be 60 20 15 3e 93 03 72 3e 92 91 ae 3d
       -0.22069152 0.14563131 0.23634176 0.08523859
0003b0 53 61 d8 3d 8d eb 31 be 46 5a 5a 3e 74 fd 1b 3d
       0.10565438 -0.17375012 0.21323499 0.03808351
0003c0 e6 c9 8d 3e 00 14 02 3e 74 fc 8a be d8 bd da bd
       0.276931 0.12702942 -0.2714573 -0.10680741
0003d0 12 46 01 be d3 b3 eb 3d ff 22 18 3e 41 c4 2b bd
       -0.12624386 0.11508908 0.148571 -0.04193521
0003e0 20 5c 8a 3e 3a b2 55 bd b4 f9 47 be af 0c 97 3e
       0.2702341 -0.052171923 -0.19528848 0.29501864
0003f0 bd 30 39 3e d5 fa 45 3d 2b 49 d9 3d 16 9e 15 be
       0.18084998 0.048334915 0.10609659 -0.14611086

rnn.bias_ih_l0 f4 [45]
000000 0f f9 0f 3d a0 60 97 be 66 5e ae 3c 14 60 a1 3e
       0.03514963 -0.29565907 0.021285247 0.31518614
000010 aa 5c 0b be 7c b7 b1 3e 8e 0e 85 3e 8f 69 39 3e
       -0.13609567 0.347103 0.25987667 0.18106674
000020 bc f8 dc bd a1 cc f0 bd 48 bb 64 bd 89 f7 11 be
       -0.1078963 -0.1175778 -0.055842668 -0.14254583
000030 14 5b eb bd d3 ed 69 3e 99 bd 0b be a2 be 69 3c
       -0.11491981 0.22844629 -0.13646545 0.014266642
000040 cb ed cc bd 39 f0 90 3d c9 92 66 be dc 41 75 3e
       -0.10006293 0.07077069 -0.22516932 0.23950905
000050 d1 7c aa bd f7 dc 92 3e 7e 2c 2b 3e f0 41 a7 bd
       -0.08324588 0.28684208 0.16716191 -0.081668735
000060 6e ba 78 be e8 4e 65 be d4 6a d8 bd 5b 12 81 be
       -0.24289867 -0.22393382 -0.10567251 -0.25209317
000070 3d f2 e5 be 33 ee e1 3d 92 f5 f8 3d 0f 5f 5a be
       -0.44911376 0.11031761 0.12156214 -0.21325324
000080 5f 78 b8 bd ef 03 ab 3c 78 61 9f 3c 94 85 f9 3a
       -0.09007334 0.0208759 0.019455656 0.0019037002
000090 00 db 6f be a2 46 73 3e 29 88 da 3d ef bd f7 3d
       -0.23423386 0.23757413 0.10670502 0.12096774
0000a0 18 5f 1f 3d c5 76 78 3d 61 24 44 3e 21 04 6f 3d
       0.038909048 0.060660142 0.19154502 0.058353547
0000b0 0b fc f6 bd
       -0.12059792

rnn.bias_hh_l0 f4 [45]
000000 49 4c c3 3d 47 ae 02 be 29 30 06 be da e7 8a bd
       0.095360346 -0.12761794 -0.13104309 -0.067825034
000010 f3 bd be 3d 04 1c 70 3e f5 44 85 bc 11 cf bd bc
       0.09313574 0.23448187 -0.016268233 -0.023170026
000020 eb 28 65 be 28 6b 82 3e e4 2d f4 bc 51 1c 4b 3e
       -0.2237889 0.2547238 -0.029807039 0.1983502
000030 bf 92 10 3e 91 49 63 bd ad 00 6b be b9 dd 26 be
       0.14118479 -0.05549008 -0.22949477 -0.16295518
000040 c5 7c c1 3e f6 e9 78 bd 59 b9 e5 be 85 cb 84 3e
       0.37790504 -0.060769998 -0.44867972 0.25936523
000050 7e 1e 82 be 2d 2d 76 3e 68 13 9f be 35 e1 06 bf
       -0.2541389 0.2404067 -0.31069493 -0.5268739
000060 4e 28 d1 bd 66 ec 4b be 1e 2a 56 3e c9 ef c0 3c
       -0.10212766 -0.19914398 0.20914504 0.023551838
000070 e9 b6 24 be b6 3c 96 3e 92 d3 00 bd 81 f3 0f bc
       -0.160854 0.29343194 -0.03145177 -0.008786083
000080 64 27 85 bd e6 54 47 bd 3e ce 22 3e ae bb 12 be
       -0.06501654 -0.04866495 0.15898988 -0.14329407
000090 d3 2a 75 3e e7 6f cd bd 2a a3 46 be c6 13 ab be
       0.23942117 -0.10031109 -0.1939818 -0.33413523
0000a0 b5 1f 60 bd d5 73 71 3e 36 cf dc bd 36 ca 6f 3d
       -0.05471774 0.23579343 -0.1078171 0.058542453
0000b0 f8 b8 05 be
       -0.13058841

rnn.weight_ih_l1 f4 [45, 15]
000000 9d 20 80 be 91 3d 3e be 42 2e 2e 3e 6f e3 73 be
       -0.25024882 -0.18578173 0.17009833 -0.23817228
000010 d0 2e e2 3d 07 bd 8e be a2 9e d2 3b 48 82 66 3e
       0.11044085 -0.2787859 0.006427602 0.22510636
000020 ab 07 8b bd 66 d6 63 3e b6 63 60 bd 4d 7f ce 3d
       -0.06788572 0.22249755 -0.05478259 0.100828744
000030 50 57 8b b9 25 00 df bd ad 26 62 be e4 b2 39 3e
       -0.000265772 -0.108886994 -0.22085066 0.18134648
000040 1e 87 0c 3e f7 e3 ba bc 04 84 13 be be 4d 45 3e
       0.13723418 -0.02281378 -0.14405829 0.19267938
000050 73 82 0d be c6 1c d7 bc e3 9e b9 3c 3c c1 8c be
       -0.13819294 -0.026258837 0.02265877 -0.27491176
000060 43 bd 85 3e 57 bc 40 3d d7 62 3a 3c c3 ea 26 3e
       0.26120958 0.047054615 0.011376104 0.16300492
000070 5d 70 a6 3e b2 d1 71 be 40 24 52 3d f4 88 c8 bd
       0.325076 -0.23615149 0.051304102 -0.09791747
000080 4e 79 a2 be 81 d6 00 3d a8 2a fe 3c 53 6a 42 bd
       -0.31733173 0.031454567 0.0310262 -0.04746468
000090 3c f0 1b bc 1e 2c 8f be 24 e7 0e 3d 7a 0a f0 3c
       -0.009517726 -0.27963346 0.0348884 0.02930187
0000a0 31 db 04 3e 98 1b 05 be d9 6e 9b be 05 b8 63 3c
       0.1297424 -0.12998807 -0.30358008 0.013898854
0000b0 47 db 8e 3e 2e cb 03 be 24 a8 3d 3c 51 75 77 3a
       0.2790167 -0.12870476 0.011575732 0.0009439784
0000c0 86 47 31 be bb 2d 23 3e 5f 57 fe bd 0f bf a6 bd
       -0.1731244 0.15935414 -0.124190085 -0.0814191
0000d0 99 7e 81 bd ad 85 9e 3e 58 9c 81 3e 2f 98 34 3e
       -0.06322975 0.30961362 0.25314593 0.17636178
0000e0 1b 77 00 3e 2f 28 38 bd 31 1b 1c be 6e d4 1d 3e
       0.12545435 -0.044960197 -0.15244748 0.15413067
0000f0 8d c6 09 be 2f c9 ce be f2 4b ad 3d d0 9b 34 bd
       -0.13454647 -0.40387866 0.08461751 -0.044093907
000100 e3 30 6e be be d7 d0 bd 6a d7 e4 bd 37 5a d3 bd
       -0.23260836 -0.101973996 -0.111738995 -0.103199415
000110 e6 56 be 3d fc 8f a2 3e f0 be bd 3e cf e9 33 bc
       0.09293918 0.31750476 0.37059736 -0.010981037
000120 29 86 93 3e 9e 85 98 3d 8a 02 40 be bf 47 19 be
       0.28813294 0.074473605 -0.18750969 -0.14968775
000130 cc 89 10 3d 88 66 ba bd 2f 4e 47 3e 18 2a 51 be
       0.035287663 -0.091015875 0.19463418 -0.20426214
000140 89 f0 45 3c 6d 59 4a be f7 bd 0c be 30 09 df 3d
       0.012081274 -0.19760676 -0.13744341 0.10890424
000150 8a 0b 39 3e 7d 07 7c 3e ba b7 53 3e 67 58 88 bc
       0.18070808 0.24612232 0.20675555 -0.016643716
000160 11 5b 15 be 37 32 ed bd ba d6 16 be 76 17 88 be
       -0.1458552 -0.11581843 -0.14730349 -0.265804
000170 d0 0b 15 3a 35 02 67 be ee 09 e6 bc f4 a8 80 be
       0.0005685659 -0.22559436 -0.028080907 -0.251289
000180 9f 93 67 bd 0d b6 f6 bc a1 1a b5 bd 76 85 1a be
       -0.056537267 -0.030116105 -0.0884297 -0.15089974
000190 67 4f 95 3d 1d 44 59 3e 11 ac 00 3e 5c 75 50 be
       0.072905354 0.2121739 0.12565638 -0.20357269
0001a0 7c 55 0c be a2 08 50 3e ff eb 85 be 10 12 61 3d
       -0.13704485 0.20315793 -0.26156613 0.054948866
0001b0 aa 98 10 3e 43 00 ce bd fd 41 e0 bd 03 eb 59 3d
       0.14120737 -0.10058644 -0.10950086 0.05320264
0001c0 17 e7 3e bd 8b 9f 5c 3e b2 2f b4 bd 62 84 d8 3c
       -0.046607103 0.21545236 -0.0879816 0.026430313
0001d0 5d 28 e9 3d 03 b9 d7 bd 6f fe 5e 3e 57 3b b7 3d
       0.11384652 -0.10533335 0.21776746 0.08946865
0001e0 fc 7d 10 3e b2 5a e3 3c bc 25 24 3c ed 7d 2e 3d
       0.14110559 0.027753208 0.010018762 0.04260056
0001f0 11 1c 64 be 8d b5 82 3e eb f0 7c be 7f 03 81 bc
       -0.22276331 0.25529137 -0.24701278 -0.015748737
000200 89 1b 3f bd b1 ff bb 3d 58 db 81 3e 61 bc 79 3e
       -0.04665712 0.09179629 0.25362659 0.24388267
000210 71 67 66 3c 5e e5 81 3d aa 01 05 be 8e 35 15 3d
       0.014062748 0.063425764 -0.12988916 0.036428027
000220 cb 73 d9 bd 09 fe eb bd 20 de be bd 3e 7a 70 be
       -0.10617789 -0.11523063 -0.09319711 -0.23484132
000230 dd 0a 63 bd 50 51 06 be 35 57 c4 3d a6 57 82 3e
       -0.055430282 -0.13116956 0.09586946 0.25457495
000240 30 37 b4 bc c7 98 fe bc 3d 4c 2c bd 76 1e 84 3e
       -0.021998972 -0.03107871 -0.042064894 0.2580449
000250 1d a1 d1 bc c4 8a be bd 49 80 84 be c1 b2 86 be
       -0.02558952 -0.09303811 -0.25879124 -0.26308253
000260 28 13 9e bd 48 05 28 3c fe 04 30 be e7 e6 7a 3d
       -0.077184975 0.010255165 -0.17189404 0.061255362
000270 a0 cc 1f 3c e3 a9 9a 3e de 22 75 3c b7 bd ac 3d
       0.009753376 0.30207738 0.014961926 0.08434623
000280 3b 32 a7 3d d8 a0 09 be 41 6c 24 3e 1d 0f 77 3e
       0.081638776 -0.13440263 0.1605692 0.24126859
000290 bf 81 b0 bb b4 1a 34 be db 00 0c bd ae cb 41 bd
       -0.0053865607 -0.17588311 -0.034180503 -0.047313385
0002a0 34 04 71 be 3e 16 46 be bc 54 2b be 97 51 0c be
       -0.2353676 -0.19344422 -0.16731542 -0.13702999
0002b0 1f ca 0e be 9d 01 6e 3e c1 e4 23 bd 20 f1 5b be
       -0.1394429 0.23242803 -0.04001308 -0.214787
0002c0 1f d3 79 bd a6 46 bf 3c 7c 77 6a be 9a 11 5f 3c
       -0.060992356 0.023349117 -0.22897142 0.013615036
0002d0 40 e8 8a 3e 28 c7 c3 bd 8b b8 3e bd 28 38 e6 bc
       0.27130318 -0.095594704 -0.046562713 -0.02810295
0002e0 7c 78 02 be 69 61 49 be 96 b5 88 3e 70 01 4a 3e
       -0.12741274 -0.19666065 0.2670104 0.19727111
0002f0 51 c4 bb 3d 5c 7e 6f be 80 4c 14 3e f2 4f 6d 3a
       0.09168304 -0.23388046 0.14482307 0.00090527453
000300 0f d0 97 bd ad 36 28 3e 21 2a 01 be 02 27 de 3c
       -0.07412731 0.16427107 -0.12613727 0.02711821
000310 22 7c 01 bd 06 39 5a 3d f9 a1 78 be 88 69 b2 3d
       -0.031612523 0.053277038 -0.24280538 0.08711535
000320 e4 59 fd 3d 1b fb 41 3d f2 f3 5f be 9e ce 10 3c
       0.12370661 0.047358613 -0.21870402 0.008838324
000330 77 c0 80 be 45 f4 08 3d a0 43 7b be d8 91 d1 bd
       -0.2514684 0.03343608 -0.24537516 -0.102328956
000340 ec 30 9d bd 97 a6 09 3d 95 fd 1f 3c 4c 28 7c 3e
       -0.07675347 0.033606138 0.0097650485 0.24624747
000350 5e 8f 35 3d 0b 35 82 bc ba 58 a4 bd 41 de 37 3e
       0.04432618 -0.015894433 -0.08024736 0.17955877
000360 fb c9 d8 bd 1a 5f 4a 3e 86 1d 54 bb 16 82 3b 3e
       -0.105854 0.19762841 -0.003236623 0.18311343
000370 40 f9 1a be b7 73 84 3d 6e ea f1 bd 13 23 dc bd
       -0.15134144 0.06467383 -0.11812292 -0.107488774
000380 a3 8e 37 3e 25 5e 28 bd 7f b9 f2 bd b0 4b a1 3d
       0.17925505 -0.04110541 -0.11851787 0.07875764
000390 ec 3d a2 bd c3 7f 35 bc 1c 12 0f 3e 4b 69 8d be
       -0.07921967 -0.011077824 0.13971752 -0.27619395
0003a0 86 21 b1 3d fe 3d 20 3c 9b db e4 3d 55 4e 48 be
       0.08648972 0.009780405 0.11174699 -0.19561131
0003b0 31 9c 85 3e f8 12 4c 3e d8 7f 78 be a3 43 02 3e
       0.26095727 0.19929111 -0.24267519 0.12721114
0003c0 7a c3 3a 3e d3 9b 9d 3e fa 49 a7 3d 0f 70 d1 bd
       0.18238631 0.30782947 0.08168407 -0.102264516
0003d0 27 81 a7 be e4 30 c2 be 45 9c d2 3e 33 da 8d be
       -0.32715723 -0.37927926 0.4113485 -0.27705535
0003e0 1b 5c e3 bd d8 59 8d 3e c7 ef c9 bc 9c 22 1e be
       -0.11101552 0.27607608 -0.024650468 -0.1544289
0003f0 9a b8 73 3e e2 09 52 3d 1d d4 eb ba 85 3e 89 3d
       0.23800889 0.051278956 -0.0017992292 0.06701378

rnn.weight_hh_l1 f4 [45, 15]
000000 e8 3c 2d 3e 30 af e8 bc 2a c8 08 be c8 3a 46 3e
       0.16917765 -0.028403848 -0.13357607 0.19358361
000010 ea 0d 68 3e b8 0a 94 bd 8f db 33 be 6f 87 dd 3d
       0.22661558 -0.07228607 -0.17564224 0.108168475
000020 28 19 5c bd f6 61 22 be 8f 07 0e be 03 57 a6 bd
       -0.05373493 -0.15857682 -0.13870071 -0.08122065
000030 43 7a 01 be c5 d7 69 be 94 d8 21 3d a6 a1 25 3e
       -0.12644295 -0.22836216 0.039513186 0.16174945
000040 3d 34 b2 be 1c 74 ea 3d 88 e0 91 be 2a d7 6c 3a
       -0.3480548 0.11447927 -0.28491616 0.00090347475
000050 96 ab 47 be 2c b4 a3 3d b1 d8 8c be a8 1a 71 3e
       -0.19499049 0.079933494 -0.27509072 0.23545325
000060 04 3a a3 3d 8c 7f 73 3e 00 39 79 3b e3 a2 bc 3e
       0.0797005 0.23779124 0.003802836 0.36843023
000070 e9 5d 27 3e d8 95 00 be 30 76 b8 3d 26 d2 17 be
       0.16344418 -0.12557161 0.090069175 -0.14826259
000080 c7 41 29 be 66 86 0e be f5 5b 87 3e c7 d0 6b be
       -0.16528998 -0.13918456 0.26437345 -0.23028861
000090 c9 5a 81 bd a7 7e d2 3d 87 fc f6 3c 42 b7 2a 3d
       -0.06316144 0.10278063 0.030149711 0.041678675
0000a0 fc bc f5 bd 17 93 b1 bb d6 39 e1 3d 28 11 2b 3c
       -0.119989365 -0.005419146 0.109973595 0.010441102
0000b0 8d cb 53 3e 73 06 c5 3d 70 56 af bd 48 30 72 bc
       0.20683117 0.09620371 -0.085614085 -0.014782019
0000c0 1b e2 0d bc cf d9 c1 bd 02 69 44 3e 9e 26 44 3e
       -0.008659865 -0.09465372 0.19180682 0.19155356
0000d0 c4 66 1b be 21 f5 80 bd 1f f5 75 3e 4c bd e4 3d
       -0.1517592 -0.06296755 0.24019288 0.11168918
0000e0 90 29 80 bd 59 e5 6f 3d 3b 5b dc 3d 4b a0 3f bd
       -0.062579274 0.058568332 0.10759588 -0.046783727
0000f0 23 2c 1c 3e e3 2b 31 3c 3e c8 30 be 2f d4 dd bd
       0.15251212 0.010813686 -0.17263886 -0.108314864
000100 d6 45 64 be 87 88 5c 3c d1 dd 7b 3e b9 54 23 be
       -0.22292265 0.013460285 0.24596335 -0.15950288
000110 7c 66 69 be 62 7e f7 bd a8 e5 84 bd 3e f7 5d be
       -0.22793001 -0.120846525 -0.06489116 -0.21676347
000120 c9 22 45 be c2 ab 3f 3c 34 4e 6a 3e cc eb 84 bd
       -0.1925155 0.011698665 0.22881395 -0.06490287
000130 bd 3c 8c be 1e ef 01 3c 71 26 87 bd 4a 9b 8a 3b
       -0.2739009 0.007930545 -0.06599129 0.0042299377
000140 70 36 43 3e 84 ba 71 be f3 9c ee 3d 96 d4 d5 bd
       0.19063735 -0.23606306 0.116510294 -0.10440938
000150 5d d5 16 be e6 eb 72 3e cc c9 8a be ad ef 3b bd
       -0.14729829 0.237228 -0.27107084 -0.04588287
000160 53 a6 33 3e 3b b3 ef bc 68 dc 7c 3c a8 49 b4 3c
       0.17543916 -0.029260268 0.015433408 0.022007778
000170 58 8d b6 bd 28 36 16 3e 58 a4 90 bd 1a 98 2a 3e
       -0.08913678 0.14669096 -0.07062596 0.16659585
000180 c7 66 41 3e c2 37 94 3e 2c bf 84 be de 12 2c 3d
       0.18886863 0.2894879 -0.25927103 0.04201018
000190 f2 31 8c bd 87 46 e5 3d 79 a0 a2 be c6 a7 31 3e
       -0.06845464 0.11195093 -0.31763056 0.17349157
0001a0 9b e9 46 be df 0e 4c bc 32 0e f3 3c 62 b3 7e bd
       -0.19425051 -0.012454717 0.029669855 -0.06218279
0001b0 1a b1 92 be 15 f4 fb 3d 07 09 25 3e 98 3b 08 3e
       -0.28650743 0.12302414 0.16116725 0.13303983
0001c0 80 1f 31 3e 6f 33 23 3e c1 6f f7 bd 88 07 51 be
       0.17297173 0.15937589 -0.12081862 -0.20413029
0001d0 11 99 be 3b b0 57 94 3c ec 5e 45 3e 5f af 79 3d
       0.005816587 0.018108219 0.19274491 0.060958263
0001e0 33 3a 68 3c 45 d8 a6 3d ee 66 61 be 44 c1 1b bd
       0.014174032 0.08146719 -0.22011921 -0.03802611
0001f0 59 8a e1 3c 27 44 0c be 0c 89 64 3d 77 1a 26 be
       0.02753179 -0.13697873 0.05579476 -0.16221033
000200 9c 67 da 3d e5 cd 2d 3e 72 d8 66 3e 8e 30 62 3e
       0.10664293 0.16973074 0.22543505 0.22088835
000210 a5 c8 0d be 1e 07 14 be a5 22 c4 bd 03 86 68 be
       -0.13846071 -0.1445584 -0.095769204 -0.22707371
000220 e4 9a aa 3d 97 9c 80 bd 7b d8 92 bd 74 21 02 3e
       0.08330324 -0.06279867 -0.071701966 0.12708074
000230 74 19 d7 3d ec 41 49 be 63 08 54 3e cd 89 45 be
       0.10502902 -0.19654053 0.20706324 -0.19290848
000240 da c5 d1 bd 61 5c 5b 3e 9b db 03 3e 22 f0 46 be
       -0.10242815 0.21421959 0.12876742 -0.19427541
000250 0c 96 c9 bd 97 6d 1b 3c f0 bc 54 3d c0 25 1f be
       -0.09843072 0.0094865775 0.051937997 -0.15541744
000260 cc 93 ec bd ed bc c6 bd 05 74 03 3e 32 5e fa 3d
       -0.115516275 -0.097040035 0.12837227 0.122249976
000270 3f fc 5d 3e d9 3f aa 3c 0f c8 2e 3e c8 27 5a 3e
       0.21678255 0.020782398 0.17068504 0.21304238
000280 8a 35 3d be d9 83 3f 3e 15 37 14 3e c5 fd cb 3d
       -0.18477455 0.1870264 0.14474137 0.09960512
000290 a1 9e aa 3d be 7d f0 3d b4 d2 ad bd 5a 58 09 bd
       0.08331037 0.117427334 -0.08487454 -0.033531524
0002a0 7c 44 20 3c 6e 76 04 be e0 af b2 bd 8a 0e 59 3e
       0.009781953 -0.12935802 -0.08724952 0.21196952
0002b0 44 f6 0a be 17 04 f2 3d 06 18 68 be 3a b6 51 be
       -0.13570505 0.11817186 -0.22665414 -0.2047967
0002c0 a4 53 5a 3e 18 cc d3 3d d5 e7 ec 3d bd d5 9c bd
       0.21320969 0.10341662 0.11567656 -0.07657955
0002d0 55 da d4 bd a6 21 56 3e a5 92 4c be 74 1c 08 be
       -0.10393206 0.20911273 -0.19977815 -0.13292104
0002e0 e1 1a 47 be 8a 0f 16 3e 7f 42 45 bd 47 1d 99 bb
       -0.19443847 0.14654365 -0.04815912 -0.0046726796
0002f0 20 cb 1b 3e 66 77 3e 3e 9f ca aa bd e0 17 16 bd
       0.15214205 0.18600234 -0.08339428 -0.036643863
000300 c3 94 fa bd b0 11 2f 3e e4 39 16 be 27 32 62 3e
       -0.12235405 0.17096591 -0.14670521 0.22089444
000310 7f 00 0a be 21 ed 99 bd ce 1f e1 bd 75 4f 13 3e
       -0.13476752 -0.07515932 -0.109923944 0.14385779
000320 f9 60 19 be e2 c4 52 bd e6 e8 67 3e bd d9 fb 3d
       -0.14978398 -0.051457293 0.22647437 0.1229739
000330 c7 71 30 3e 28 c6 70 3e ac 6d 55 bd ec 19 33 be
       0.17230903 0.2351309 -0.052106544 -0.17490357
000340 72 36 55 be 31 33 a9 3d d8 29 06 3e 03 80 42 be
       -0.2082155 0.08261717 0.131019 -0.18994145
000350 89 2d e7 bc 0e db e2 3b f2 33 82 be 81 95 87 3e
       -0.028219955 0.006923086 -0.25430256 0.2648125
000360 87 29 79 3e 38 c9 b9 3b 49 75 27 be 35 13 96 bd
       0.24332248 0.005669739 -0.16353334 -0.07327882
000370 0c 56 19 3e 47 92 7b bd 83 15 4b bd 3a 65 ac 3d
       0.1497423 -0.061418798 -0.049581062 0.08417745
000380 0a 0a 77 3d 3d c4 06 be c5 e4 28 be 48 dc 80 bc
       0.06031231 -0.13160796 -0.16493519 -0.015730038
000390 74 db 1a 3d 4f 30 44 be 1f 52 87 3e fd 51 80 3e
       0.037806943 -0.19159053 0.2642984 0.25062552
0003a0 ef 0e 47 be 92 58 8e 3d cb 38 eb bd 40 9e 8e 3e
       -0.1943929 0.06950487 -0.11485442 0.2785511
0003b0 79 e2 64 3c 30 78 41 be a0 b9 53 3e a2 b7 67 be
       0.013970011 -0.18893504 0.20676279 -0.22628644
0003c0 29 56 08 3e 96 7d e7 bd a3 ce c5 ba 0b 21 17 be
       0.13314117 -0.113032505 -0.001509149 -0.14758699
0003d0 eb 42 58 3b 37 b6 4d bc 51 3e 8e 3d bd 8d 89 3e
       0.003299887 -0.01255565 0.0694548 0.2686595
0003e0 63 1d b2 bd a3 83 0e 3e 93 a0 87 be ff 20 5c bd
       -0.08697011 0.13917403 -0.26489696 -0.053742405
0003f0 8f b4 30 bd 3b 8e 20 3b 87 25 de 3e 84 fa 7a 3d
       -0.043140944 0.0024498838 0.43388006 0.061274067

rnn.bias_ih_l1 f4 [45]
000000 1b dd 4a 3e 03 0b f0 3d 94 9e 15 bd da 81 03 be
       0.19810908 0.1172085 -0.036528185 -0.12842503
000010 ea f8 92 3e 64 79 ab 3c 28 90 41 be 9d db 47 3e
       0.2870553 0.020931907 -0.18902647 0.1951737
000020 70 e7 db 39 13 f9 83 be a7 9f a8 bd d9 a0 02 bc
       0.0004194337 -0.25775966 -0.08233576 -0.007972919
000030 aa a1 74 be 23 6a 9e be 08 49 05 be 5b 0f 14 be
       -0.23889795 -0.3094035 -0.1301614 -0.14458983
000040 b7 bd 8f be b9 1c 87 be 49 64 8f be e8 6c 58 be
       -0.28074428 -0.263891 -0.280062 -0.21135294
000050 05 43 1f be 74 08 1a bd f7 01 25 be 55 69 ac bd
       -0.1555291 -0.037605718 -0.16114031 -0.08418528
000060 62 36 07 be 48 ca dd 3d 40 60 41 be 0f d9 bb 3d
       -0.13204339 0.10829598 -0.18884373 0.0917226
000070 b1 ed 5d 3e af 81 b3 3e 0d 36 ac 3a 1a 3e 86 3b
       0.21672703 0.35059878 0.0013138667 0.0040967586
000080 50 81 45 3e 28 70 ec bd 45 b4 2e be d3 82 b9 bd
       0.1928761 -0.115448296 -0.17060955 -0.09058156
000090 ac a8 57 3e 19 06 3c be 5a ad bb bd 65 22 19 be
       0.21060437 -0.18361701 -0.091639236 -0.14954527
0000a0 b1 c4 4a 3e 01 9e 2f 3d 0e 09 fd bd 25 64 fe 3c
       0.19801594 0.042875294 -0.12355243 0.031053612
0000b0 46 4c 58 be
       -0.21122846

rnn.bias_hh_l1 f4 [45]
000000 c2 01 ce 3d 9d b3 94 3d e5 2f 53 be 1f bd a2 be
       0.10058929 0.07260821 -0.20623739 -0.31784913
000010 39 3c 43 be 6b d9 91 be 0a 75 2f 3e 9b 89 8a 3e
       -0.19065942 -0.2848619 0.1713449 0.2705811
000020 e1 8b 3b 3d 75 be 3b be cd 8e 6e 3e 61 91 2f be
       0.045787696 -0.18334372 0.23296662 -0.17145301
000030 fe d9 df 3d f7 dd 83 be 57 16 80 bd 2d 7b 4f be
       0.109302506 -0.25755283 -0.06254261 -0.20261832
000040 c5 37 1c be a7 fc 2d 3d 6b 3d c1 be 1a c8 68 be
       -0.1525565 0.042477276 -0.3774217 -0.22732583
000050 58 a5 bf be 0c c9 97 3d 65 fc 6e be 57 be 55 be
       -0.37430835 0.074113935 -0.23338468 -0.2087339
000060 32 90 f0 3c 40 e2 ef 3d 12 33 11 be 75 67 55 3c
       0.029365633 0.11713076 -0.14179638 0.013025154
000070 aa 61 c9 3e fa 63 c3 bd 3f 3b 88 3e ce fd 08 3e
       0.39332324 -0.095405534 0.266077 0.13378069
000080 24 cc 6e 3e c8 a5 96 bd 55 7c 8d 3d 5e a1 0a 3d
       0.23320061 -0.07355839 0.0690848 0.033845298
000090 54 36 81 be 75 68 6f 3e 94 59 e7 bd ce 4b de bd
       -0.25236762 0.23379691 -0.112963825 -0.10854302
0000a0 49 23 83 bd 71 82 fe 3d 30 40 11 be 10 1c ed bd
       -0.064032145 0.124272235 -0.14184642 -0.11577618
0000b0 46 88 2c 3e
       0.16848859

output_projector.weight f4 [1, 15]
000000 8a 48 60 3e f5 ce a2 be 54 b1 10 be 1b e8 b7 be
       0.21902671 -0.3179852 -0.14130145 -0.3591927
000010 75 e8 ce 3e 1c f9 4a be a5 7d 39 be 1a 3c 8b be
       0.40411726 -0.1982159 -0.18114336 -0.2719429
000020 80 69 6a 3e ff 59 27 be 25 da 86 be 4f 58 0f be
       0.22891808 -0.16342925 -0.26338306 -0.13998531
000030 62 88 78 3d 52 e6 65 bc 7b d7 1a bc
       0.06067694 -0.014031963 -0.009450789

exp_avg f4 [2, 1]
000000 00 00 00 00 00 00 00 00
       0.0 0.0

exp_avg_sq f4 [2, 1]
000000 00 00 00 00 00 00 00 00
       0.0 0.0

slow_buffer f4 [2, 1]
000000 00 00 00 00 42 f6 53 be
       0.0 -0.20699409

exp_avg f4 [45, 4]
000000 f7 a5 b3 37 c4 89 ed b7 77 39 1a b7 8d 00 87 37
       2.1415746e-05 -2.8316754e-05 -9.192495e-06 1.609351e-05
000010 9a 38 a3 35 d1 8e 0a b6 45 c9 09 36 7d ad a1 b5
       1.216092e-06 -2.0646733e-06 2.0531745e-06 -1.2045926e-06
000020 9b 2f ad b6 6e 73 00 b7 a5 31 55 37 43 c8 ec 33
       -5.161344e-06 -7.65627e-06 1.2707348e-05 1.1026034e-07
000030 b4 b2 a6 b7 d1 1a 65 38 7c ab 57 b8 08 d4 8b 37
       -1.9871957e-05 5.462283e-05 -5.14197e-05 1.6668826e-05
000040 68 2a b7 36 61 ff c1 b7 83 e1 53 37 08 10 a9 36
       5.4587617e-06 -2.3126313e-05 1.2629086e-05 5.0384588e-06
000050 8d 9b d8 b6 d7 7b 0c 38 e3 73 d9 b7 c5 ce 95 b5
       -6.45541e-06 3.3493936e-05 -2.592238e-05 -1.1161543e-06
000060 a6 07 4f b7 0f 49 3e b7 f9 67 bc 37 1d 06 a4 35
       -1.2339942e-05 -1.1341893e-05 2.2459762e-05 1.2220731e-06
000070 8a 32 8f b7 cb 65 dc b7 74 9e 33 38 86 6d 0b 35
       -1.7070462e-05 -2.6273445e-05 4.2824497e-05 5.194091e-07
000080 8b 94 5a b8 d3 a4 88 38 96 fe 98 37 69 34 03 b8
       -5.211359e-05 6.515686e-05 1.8238363e-05 -3.1281645e-05
000090 97 41 8b 36 f7 4f 14 b7 85 78 a6 37 de 41 7e b7
       4.1501585e-06 -8.840106e-06 1.9844863e-05 -1.5154916e-05
0000a0 02 7d e3 b6 06 70 02 37 3c e9 16 37 bf 9a 27 b7
       -6.77968e-06 7.774686e-06 8.995001e-06 -9.990005e-06
0000b0 c9 7b 33 b7 d2 6c 9a 37 66 c8 91 37 54 77 d2 b7
       -1.0698052e-05 1.8408904e-05 1.7378665e-05 -2.5089517e-05
0000c0 f2 4e 58 b5 f3 49 9e 37 5d 6e 53 b7 30 41 b7 b6
       -8.058115e-07 1.8869503e-05 -1.2602276e-05 -5.461414e-06
0000d0 e8 a9 ab 37 a1 4e c5 37 6d 5e 9a b8 25 81 f8 37
       2.0463907e-05 2.3520844e-05 -7.3608804e-05 2.9624041e-05
0000e0 1e 39 55 b7 19 9f 02 b8 61 fe 88 38 c4 1e b4 b7
       -1.2709088e-05 -3.1142587e-05 6.532367e-05 -2.1471998e-05
0000f0 85 2e 08 b8 8d 93 64 38 9a ee dc b7 4d 92 90 36
       -3.246825e-05 5.4496853e-05 -2.6337151e-05 4.308566e-06
000100 d2 47 0e b7 ee d3 8d 37 e8 65 34 b7 9c 17 1c 36
       -8.4805815e-06 1.6907197e-05 -1.0752563e-05 2.3259554e-06
000110 43 92 1b b8 f2 68 08 39 a1 94 c9 b8 fd 7b 51 36
       -3.7091097e-05 0.00013009066 -9.612111e-05 3.1215598e-06
000120 73 62 3c 38 30 ff 50 b7 e7 6b 90 b8 20 b5 18 38
       4.491438e-05 -1.2457182e-05 -6.8865535e-05 3.640831e-05
000130 78 8c 5b b7 56 7e d0 37 80 99 df b6 e4 46 ab b6
       -1.3086123e-05 2.4854362e-05 -6.6637876e-06 -5.10445e-06
000140 63 98 8e 37 8b 25 3b 38 63 7e c4 b8 0a 8b 06 38
       1.699868e-05 4.461924e-05 -9.36955e-05 3.207758e-05
000150 c1 50 05 37 76 49 3e 37 95 47 01 b8 1e 84 41 37
       7.94622e-06 1.13419865e-05 -3.0822663e-05 1.1534457e-05
000160 92 d4 9f b7 33 13 af 38 c9 a4 9f b8 e2 35 44 37
       -1.9053263e-05 8.3482264e-05 -7.6124044e-05 1.1695056e-05
000170 b1 2f 2d b8 1e dd 0d 39 b6 a9 ef b8 4c 1d aa 37
       -4.129083e-05 0.0001352918 -0.00011428019 2.0279222e-05
000180 d7 08 c1 b4 a3 26 ac b6 f8 27 bc 37 29 1a 8e b7
       -3.5955483e-07 -5.1304974e-06 2.2429958e-05 -1.69399e-05
000190 18 e5 19 b7 a5 c9 c5 37 4e c6 3a b7 96 9f 5b b6
       -9.172851e-06 2.3578128e-05 -1.1132635e-05 -3.2726434e-06
0001a0 3f 1c 97 b5 4f e1 a2 36 85 01 05 b7 ca e8 8c 36
       -1.1258597e-06 4.8542056e-06 -7.927772e-06 4.1994253e-06
0001b0 2a 19 d1 b7 6d c9 db 37 32 96 01 37 b6 f6 16 b7
       -2.492646e-05 2.620063e-05 7.723969e-06 -8.998139e-06
0001c0 ed 1c 82 b6 a5 13 8b 38 96 f2 ab b8 f7 02 a4 37
       -3.8776693e-06 6.6316956e-05 -8.1991006e-05 1.9551704e-05
0001d0 ec eb 3a 38 e6 e2 f6 36 19 5b 8f b8 d1 db 89 37
       4.4565575e-05 7.3577858e-06 -6.8357396e-05 1.6434033e-05
0001e0 5e b0 2a b9 50 a7 b5 38 c1 14 64 39 10 38 14 b9
       -0.00016278165 8.661917e-05 0.00021751506 -0.00014135265
0001f0 c8 d3 87 b9 89 c8 9b 38 a5 03 d3 38 f5 82 b0 38
       -0.00025906996 7.4283285e-05 0.00010061943 8.4167266e-05
000200 1f 80 33 38 63 64 be 37 26 87 d1 b8 0a 5c 10 38
       4.2796248e-05 2.2696511e-05 -9.99107e-05 3.4417993e-05
000210 76 0f 20 39 b2 65 7c 39 1b ca 34 b9 0d ab 67 b9
       0.00015264549 0.00024070477 -0.00017241428 -0.00022093598
000220 ca 8a cb 39 1b 67 76 b9 e3 24 5f 37 c0 a0 2e b9
       0.00038822583 -0.00023498798 1.3300424e-05 -0.00016653817
000230 3c e2 43 39 9d 72 44 b9 f7 e7 9c 36 ef db 8a b6
       0.00018680928 -0.00018734713 4.6761666e-06 -4.138324e-06
000240 0d bf 09 b9 d9 fb 75 38 1f 83 65 38 82 fa 96 37
       -0.0001313651 5.8647103e-05 5.471997e-05 1.7998045e-05
000250 ba 4e 02 39 27 07 34 39 ef f3 47 b8 72 2c 82 b9
       0.00012427094 0.00017168802 -4.7672478e-05 -0.00024828647
000260 df cc ab b8 a1 f8 80 b9 34 71 cc 39 70 15 82 b8
       -8.1920756e-05 -0.00024599305 0.00038994255 -6.202876e-05
000270 f4 87 b7 b8 ce 25 35 38 d6 55 66 b7 8c 7f 73 38
       -8.751443e-05 4.318897e-05 -1.37290535e-05 5.8054502e-05
000280 f8 3d a7 38 da 50 ea b7 26 ad ed b8 65 03 81 38
       7.974723e-05 -2.7932623e-05 -0.00011333292 6.1518316e-05
000290 02 8b 04 b8 f3 14 13 39 19 2f 52 38 fc 7d 26 b9
       -3.1600714e-05 0.00014026817 5.0111765e-05 -0.00015877926
0002a0 e1 91 77 b7 4e 33 85 b8 3e 5d a8 37 77 1c 74 38
       -1.4756312e-05 -6.3514904e-05 2.007058e-05 5.8200643e-05
0002b0 cf 2f 40 b8 f8 b8 80 39 10 1a 78 38 3f b6 87 b9
       -4.5820892e-05 0.00024551875 5.915208e-05 -0.0002588499
0002c0 aa f3 a8 39 7b 6c 52 b9 32 c5 d1 b8 e8 c1 b4 b7
       0.00032225 -0.00020067573 -0.00010002627 -2.1547967e-05

exp_avg_sq f4 [45, 4]
000000 97 9a e3 2e 3e 0c de 2e 08 7f 9b 2e b2 8d 82 2e
       1.03502255e-10 1.0097566e-10 7.071149e-11 5.936886e-11
000010 a5 0a 38 2f ae 93 87 2d b9 67 fd 2d 2a f1 fd 2d
       1.6738484e-10 1.5413306e-11 2.8808832e-11 2.8869868e-11
000020 77 d5 1f 30 66 69 fb 2e 6a 12 af 2f 32 51 9b 2f
       5.8147215e-10 1.1432881e-10 3.1845399e-10 2.8252028e-10
000030 25 b3 d2 2f d4 64 cc 2f bc c8 31 30 cb d9 9f 2f
       3.8326067e-10 3.7179027e-10 6.4677486e-10 2.9076683e-10
000040 3b c1 04 30 a7 af db 2e 3e f9 fd 2e 10 b1 96 2e
       4.829592e-10 9.990169e-11 1.1549382e-10 6.852663e-11
000050 c0 55 d4 2e 2c d4 02 2f fd 5c 69 2f 4f 01 bd 2e
       9.655876e-11 1.189881e-10 2.1224263e-10 8.5949574e-11
000060 28 50 d4 2d 14 c4 01 2e 69 75 2a 2e 76 53 2d 2d
       2.4137206e-11 2.9505356e-11 3.8757806e-11 9.8524435e-12
000070 3e 76 0b 30 11 96 05 2f 56 b0 6c 2f 16 64 cd 2e
       5.073594e-10 1.2149594e-10 2.1526722e-10 9.3400995e-11
000080 d7 66 6d 2f 44 f7 94 2f a2 e3 c7 2f 6a b0 aa 2f
       2.159156e-10 2.7096736e-10 3.6359632e-10 3.104817e-10
000090 1a 49 e0 2f 28 21 e5 2e 36 b0 b1 2f af d7 29 2e
       4.0797304e-10 1.0419604e-10 3.2321318e-10 3.8617717e-11
0000a0 c6 23 28 2e 2f c5 5d 2d c1 c7 bd 2e cf 4a 52 2e
       3.823055e-11 1.2606179e-11 8.6302084e-11 4.7814915e-11
0000b0 47 29 db 2f fd bd 93 2e 3c ac ec 2f 91 ca 4e 2f
       3.9865197e-10 6.718535e-11 4.305053e-10 1.8807557e-10
0000c0 b3 9d 09 2e b2 14 d8 2e d2 9c 01 30 e3 7b bb 2e
       3.129026e-11 9.826219e-11 4.715278e-10 8.525782e-11
0000d0 90 38 99 2f c7 2c a2 2f 15 99 e2 2f 1c ef a0 2f
       2.7870728e-10 2.9499445e-10 4.1217932e-10 2.9273728e-10
0000e0 9c c1 19 30 8c b1 19 2f fa d4 8a 2f 3b 1b 19 2f
       5.593621e-10 1.3978346e-10 2.5253383e-10 1.3924943e-10
0000f0 a3 14 26 30 1f 03 f5 2f 0a a6 97 2f 74 d1 0e 30
       6.0419775e-10 4.4567458e-10 2.7584718e-10 5.195695e-10
000100 54 05 df 30 75 bf 80 2e c8 19 1a 30 e9 a6 03 30
       1.62269e-09 5.854776e-11 5.606151e-10 4.7894716e-10
000110 cd 31 1b 31 0f 42 de 30 c4 50 b7 30 8e 76 1f 31
       2.2583777e-09 1.6171401e-09 1.3337957e-09 2.3204936e-09
000120 2b 46 cf 31 61 1e f3 2f 72 95 3f 30 06 e7 5f 31
       6.03247e-09 4.4223028e-10 6.969777e-10 3.2582093e-09
000130 cd b4 bc 2f a7 d2 6e 2e f8 ad 6a 2f bf bd b0 2e
       3.4325467e-10 5.430203e-11 2.1343982e-10 8.037259e-11
000140 35 e0 d3 30 c4 8c 30 30 62 1d 51 30 60 ab 38 31
       1.5415994e-09 6.4228467e-10 7.607551e-10 2.687294e-09
000150 20 50 c5 2d 81 68 4d 2d 9c 75 92 2e f5 41 a5 2d
       2.243189e-11 1.1676105e-11 6.660203e-11 1.8787619e-11
000160 c3 49 af 2f ca cf 1c 30 0b c5 4c 30 36 b8 f8 2f
       3.1884725e-10 5.7047755e-10 7.449478e-10 4.5241827e-10
000170 b8 9f cb 31 0a 5b 36 31 63 ea 00 31 8b f5 af 31
       5.9262355e-09 2.6536235e-09 1.8759685e-09 5.1210853e-09
000180 db 43 9c 2e f6 ea 54 2e ad b3 97 2f db 44 3c 2f
       7.106112e-11 4.8411906e-11 2.7594407e-10 1.7122963e-10
000190 c4 f1 43 30 4d e5 71 2f 70 8b 23 2f cb ed 59 30
       7.1284156e-10 2.2000286e-10 1.4874302e-10 7.9282064e-10
0001a0 40 af b1 2f 4c 37 c7 2d 3e 79 23 2f d1 86 05 2f
       3.2320635e-10 2.2648237e-11 1.4867838e-10 1.2144176e-10
0001b0 3a e8 18 30 05 d5 8b 2f 25 56 4b 2f 70 81 82 30
       5.562729e-10 2.5435312e-10 1.8493347e-10 9.495533e-10
0001c0 6d 46 19 31 da 50 8b 30 53 f2 6c 30 a2 d0 22 31
       2.2304463e-09 1.013656e-09 8.6200663e-10 2.3692697e-09
0001d0 c8 af be 2f dc d2 18 2f cc 28 9a 30 31 50 a4 2f
       3.46857e-10 1.3899232e-10 1.121657e-09 2.9888406e-10
0001e0 a7 bf a3 32 44 4a 96 32 92 bc dd 33 dd cf b2 32
       1.906285e-08 1.749607e-08 1.0325415e-07 2.0816453e-08
0001f0 26 7e 4c 34 d1 05 70 32 26 41 d1 33 37 20 19 33
       1.9044873e-07 1.3971161e-08 9.744171e-08 3.5652388e-08
000200 ca bb 1a 33 15 32 d6 32 f8 9d 8f 33 fa c1 7b 32
       3.6026712e-08 2.4935654e-08 6.687691e-08 1.4654228e-08
000210 0c 8d c7 33 90 ae 19 33 36 69 a1 34 9b aa 88 33
       9.292316e-08 3.5781852e-08 3.0065138e-07 6.3640265e-08
000220 2a 97 0f 34 db d0 c2 32 10 2d 01 33 8e d3 b5 32
       1.3372906e-07 2.2679549e-08 3.0076137e-08 2.1167377e-08
000230 53 6c 04 33 b3 9b e0 32 ad b7 8b 33 bb 3b 98 32
       3.0832165e-08 2.6147836e-08 6.506102e-08 1.7722291e-08
000240 c3 15 9b 31 94 3b 95 31 52 8a 1c 31 2a a1 26 31
       4.5135677e-09 4.343244e-09 2.2779614e-09 2.424779e-09
000250 86 df 2e 33 25 d8 cd 32 10 ee 3e 32 b6 c9 a5 32
       4.0715825e-08 2.3963432e-08 1.1113585e-08 1.9300256e-08
000260 9e 01 59 33 97 3a 63 33 db e4 68 34 96 50 83 33
       5.052572e-08 5.2905843e-08 2.1689941e-07 6.1148214e-08
000270 df 32 44 33 34 99 a1 32 ff 98 64 33 95 94 78 32
       4.5681073e-08 1.8812536e-08 5.3224536e-08 1.44692835e-08
000280 8f 4d d8 32 d2 17 98 32 1d 14 13 34 a2 30 c5 32
       2.5180979e-08 1.7705961e-08 1.3697759e-07 2.2955934e-08
000290 3a 8b a7 33 e2 8b ec 31 b5 66 8e 33 09 1f 89 32
       7.801869e-08 6.884407e-09 6.6310726e-08 1.5963012e-08
0002a0 e5 b0 7f 32 b8 bb 44 32 36 49 78 33 c8 d1 10 32
       1.4883175e-08 1.1451384e-08 5.7808585e-08 8.429602e-09
0002b0 bc e6 8a 33 6c fe 57 33 b4 e7 8a 34 c1 07 9b 33
       6.468096e-08 5.0289984e-08 2.587309e-07 7.2191604e-08
0002c0 cc 41 8f 33 70 c5 de 32 30 e5 48 33 b4 3a 91 32
       6.670925e-08 2.5933986e-08 4.6774574e-08 1.6906917e-08

slow_buffer f4 [45, 4]
000000 6c 1f e8 3d 49 e7 04 bd 6b 50 8b 3e a6 c4 a8 bd
       0.11334118 -0.032447133 0.27209792 -0.08240633
000010 d2 11 00 be c6 cb eb bc 18 90 c2 bd 4d 66 03 bd
       -0.12506798 -0.02878369 -0.0950014 -0.032079984
000020 32 3e ca 3b 58 29 08 3d f2 e6 88 3c 9b 5b f4 3d
       0.006171965 0.033242553 0.016711686 0.11931535
000030 dc f1 a7 3e 7e b1 45 3d 3e 05 10 3e cb 46 7c 3e
       0.32801712 0.048264973 0.140645 0.2463638
000040 5f 3c 81 be 8d 99 3f bd 6a 01 0a bc 26 ef 84 3d
       -0.25241372 -0.046777297 -0.008423189 0.064909264
000050 d7 4e ef 3d 64 13 a7 3c fe f0 ba 3e 00 7d b5 be
       0.116849594 0.020394988 0.36511987 -0.3544693
000060 10 66 4a 3e 10 7f 6e 3d 7c e4 c1 3b ba c1 6e be
       0.19765496 0.058226645 0.00591713 -0.23316088
000070 c0 02 88 be 00 7c 82 3d 2b 18 3c 3e 80 86 e3 3d
       -0.26564598 0.063713074 0.18368594 0.11109638
000080 3e 2d 25 be 6e cf 69 be 90 0d ea 3d b2 1a 66 3e
       -0.1613054 -0.22833034 0.11428368 0.22471121
000090 46 d1 95 bd 93 ee e3 bd c4 b0 ed 3d 5a 43 81 3e
       -0.07315306 -0.11129489 0.11605981 0.25246698
0000a0 94 be 84 be 6e e2 67 be fb b2 8c 3d 72 6b a4 3e
       -0.2592665 -0.2264497 0.06870075 0.32113224
0000b0 b0 3c b6 ba 2a 4e 5e be 5e 01 dd bd 1b f3 22 be
       -0.0013903584 -0.21709505 -0.107912764 -0.1591305
0000c0 92 ed 1a 3e 65 06 85 3e fb 8b 8b be b0 4a 98 3c
       0.15129688 0.2598144 -0.27255234 0.018590301
0000d0 34 b4 30 be 0c a7 27 be de f8 b4 bd 16 8c ea bc
       -0.17256242 -0.16372317 -0.0883653 -0.028631251
0000e0 a5 13 1f 3e 5a cb 7c bd b2 84 99 bd 81 d1 9f 3c
       0.15534838 -0.06171737 -0.07496013 0.019509079
0000f0 9a 14 22 be f4 64 9c be 54 43 b1 3d 96 b1 71 3e
       -0.15828171 -0.3054577 0.0865542 0.236029
000100 c0 fd b9 bd f0 78 9f be 8e ff 29 be 3e e4 f7 bb
       -0.09081602 -0.31146955 -0.16601393 -0.0075650504
000110 b9 f3 42 3d 94 cc d0 bd 5f a8 60 3e 8e cd 96 3e
       0.047595713 -0.1019527 0.21939228 0.294537
000120 0c 7a 0a be ec 2b 1d be 64 8b 56 3c c9 d8 9b 3c
       -0.1352312 -0.15348786 0.013094757 0.01902427
000130 5a 58 b3 bd 26 7f 54 bc 4c 46 fa bb 59 f8 a4 bd
       -0.08757086 -0.012969768 -0.0076377746 -0.08055181
000140 1c 83 be be 1a dc bb bd 8a 92 b0 3e 4e c8 c1 bc
       -0.37209404 -0.091728404 0.344868 -0.023655083
000150 7e a9 4a 3e 8a eb 03 be 1c 7c 15 be 20 63 09 3d
       0.19791219 -0.1288282 -0.14598125 0.0335418
000160 1e 5d 56 3d 90 58 35 be cc de a6 3e 36 ea dc 3d
       0.052334897 -0.17709565 0.32591856 0.1078686
000170 98 b7 9b be c4 e1 68 be 80 da 58 3c 56 e5 bc 3e
       -0.30413508 -0.22742373 0.013235688 0.3689372
000180 6e 59 72 3e 9d 94 27 3e 93 a6 b8 3c 9c 43 a5 3d
       0.23666927 0.16365285 0.022540366 0.08069536
000190 2c f9 3e 3d e6 90 1f be c0 62 db 3c bd 51 34 3e
       0.046624348 -0.15582618 0.026780486 0.17609306
0001a0 a8 33 2e 3e c8 4f 8d bc b5 29 6b be 67 ab 2d bd
       0.17011893 -0.017249957 -0.22965129 -0.04239979
0001b0 e0 89 c0 3a 34 3d e1 3d 45 e1 8d bd 61 fb ff 3d
       0.0014689527 0.10998002 -0.069277324 0.124991186
0001c0 e4 28 68 bd b0 0d 24 be e0 a2 e6 3d a3 50 a0 3e
       -0.05667962 -0.16020846 0.11261535 0.3131152
0001d0 5e 04 b5 bd 78 95 f7 3d 9c 5c 37 3e 4e 1b d9 3d
       -0.088387236 0.12089056 0.17906421 0.10600911
0001e0 57 cb 80 3d 34 91 0e 3e c1 8e 96 be 58 1b d4 3e
       0.06288784 0.13922578 -0.29405788 0.41427112
0001f0 39 63 40 be b0 62 a8 bd 9a 3f 09 be 8c 74 7b bd
       -0.1878785 -0.08221948 -0.13403168 -0.061390445
000200 ac ec 3f 3d 64 a9 29 3d ea a7 a4 3e 97 0f bb 3d
       0.046856567 0.04142131 0.32159358 0.09133833
000210 ed 7d 07 3e d8 c5 50 3e 4f ce f3 be 70 17 a9 3e
       0.1323163 0.20387971 -0.47618338 0.33025694
000220 00 11 ed b8 da 94 8a 3e 9b 16 c1 3d 62 c0 85 3e
       -0.00011304207 0.2706669 0.0942814 0.2612334
000230 26 aa 04 3e 3c 37 19 3d 16 9b e7 be 04 1b 83 bd
       0.12955531 0.03740619 -0.4523551 -0.06401637
000240 aa 9b 1a be 6a 6f 21 be 46 d6 91 bc 90 be 33 3e
       -0.15098444 -0.15765157 -0.017802369 0.17553163
000250 dc 42 66 be 7b f3 12 3e c9 55 9e 3e f4 b3 99 bc
       -0.22486442 0.14350693 0.30924824 -0.018762566
000260 1f 7a 0d be a0 3b 66 bd d0 10 f0 3e fd 06 bd 3d
       -0.13816117 -0.056209207 0.46887827 0.092298485
000270 d0 f1 65 be 98 00 31 be 64 d8 7a 3e 10 e8 6a be
       -0.22455525 -0.17285383 0.24496609 -0.22940087
000280 70 97 01 be 40 ab e1 bc 18 de a6 3e a2 3e a4 bd
       -0.12655425 -0.027547479 0.3259132 -0.08019759
000290 3c a8 01 bd 5a 61 e0 bd ed 28 6e bd 00 1c e5 3d
       -0.03165458 -0.10956068 -0.0581445 0.11186981
0002a0 a7 51 03 bd 04 8f 03 be 6b 04 ba 3e 8c d0 17 3e
       -0.03206029 -0.12847525 0.36331496 0.14825648
0002b0 08 fa 96 3a 7a ce d6 3d 9a 4e c0 be 8d 55 e9 3e
       0.0011518607 0.10488601 -0.37559968 0.45573083
0002c0 de e2 ff 3d 9e 7b 3b 3e 69 d7 0e be 0d 8c e3 3d
       0.12494443 0.18308875 -0.1394936 0.11110697
