GRU_logs/lightning_logs/version_4/checkpoints/epoch=0-step=79.ckpt (torch, 70471 bytes, 40 tensors)

embeddings.embeddings.house_hold.weight f4 [2, 1]
0.0 -0.20699409
00000000: 0000 0000 42f6 53be

rnn.weight_ih_l0 f4 [45, 4]
0.18813936 -0.02512393 0.16395815 -0.04439751 -0.13243781 0.027723633 -0.15183915 -0.017501594
-0.08951478 0.10437094 0.045124855 0.14848377 0.2766936 0.18588708 0.06222023 0.26575953
-0.25672036 -0.13093632 -0.0044161133 0.15513608 0.024253493 0.17636654 0.31247506 -0.32952797
0.096245304 0.043932237 0.16506168 -0.3105148 -0.31704447 0.019730339 0.22406831 0.18245177
-0.24165817 -0.07681327 0.07657365 0.20789646 -0.060543973 -0.122160815 0.08688467 0.266565
-0.37343907 -0.2304146 0.2578549 0.2510451 0.011183253 -0.10918532 -0.070315115 -0.32488462
0.12523547 0.28448907 -0.28705907 0.015688753 -0.193538 -0.04528845 -0.41311038 0.24964182
0.12030912 -0.12783402 0.048568 -0.0010601999 -0.26318258 -0.11815484 -0.23069593 0.44392994
-0.07739651 -0.4000028 0.050739203 -0.08006607 -0.04534208 0.030395055 0.16997436 0.2692332
-0.14055558 0.03168302 -0.41432032 0.1114642 -0.12723562 0.01564881 -0.0016733891 -0.051893525
-0.41910082 0.06860699 0.22378688 -0.021077024 0.19523497 -0.17272851 -0.086204246 0.023240363
0.06133788 -0.15400563 0.26282224 0.14153138 -0.36949086 0.03200819 -0.3741538 0.47941527
0.04134802 0.16589107 0.09051192 0.14734595 -0.033902626 -0.017312393 -0.042401534 0.2286112
0.17440894 -0.11657425 -0.17492607 -0.010564176 0.14484303 0.23446973 -0.20509897 0.10127521
-0.13887167 0.083020575 -0.16458061 0.39676857 0.10018997 -0.111684695 0.23905768 0.04768586
0.008010569 0.22081928 -0.40672415 0.4232644 -0.25512496 -0.2386999 -0.043283395 -0.03884756
0.09916443 0.015390982 0.39757353 0.00820756 0.15161033 0.2605298 -0.5536583 0.31550908
0.019251576 0.1613069 0.03166997 0.35887313 0.19500758 0.08597573 -0.5015807 -0.056313902
-0.32536423 -0.17310905 0.22894357 -0.08710423 -0.21653956 0.16779596 0.24357805 -0.13567404
-0.12810487 -0.08217477 0.6021608 0.007014927 -0.26385984 -0.31281096 0.33368263 -0.2716039
-0.09889445 0.026893768 0.367541 -0.0644805 -0.007876269 0.10388819 -0.026730785 -0.13091734
-0.0011970494 -0.04066019 0.3673945 0.2961775 -0.06656793 0.15873335 -0.5079895 0.45936042
0.14873947 0.0955291 -0.059324555 0.12148214
00000000: 9ba7 403e b3d0 cdbc a5e4 273e 2ada 35bd
00000010: c79d 07be ac1c e33c b97b 1bbe 815f 8fbc
00000020: 8653 b7bd 6ec0 d53d d7d4 383d 210c 183e
00000030: c9aa 8d3e 2f59 3e3e a4da 7e3d a211 883e
00000040: da70 83be 2c14 06be 0bb5 90bb fedb 1e3e
00000050: 43af c63c 6e99 343e bbfc 9f3e e4b7 a8be
00000060: 421c c53d 4af2 333d ee05 293e ccfb 9ebe
00000070: a753 a2be 85a1 a13c 2a72 653e a3d4 3a3e
00000080: 3d75 77be 4750 9dbd a5d2 9c3d cfe2 543e
00000090: f5fc 77bd 732f fabd 97f0 b13d 357b 883e
000000a0: 6833 bfbe cef1 6bbe 8f05 843e fc88 803e
000000b0: f639 373c 8e9c dfbd 5f01 90bd 4757 a6be
000000c0: ba3d 003e 8da8 913e 68f9 92be b385 803c
000000d0: d32e 46be 6280 39bd 3483 d3be 1ba2 7f3e
000000e0: a164 f63d ece6 02be 3def 463d 68f6 8aba
000000f0: debf 86be 2afb f1bd 8e3b 6cbe c94a e33e
00000100: 1082 9ebd 2bcd ccbe e9d3 4f3d aef9 a3bd
00000110: 9eb8 39bd 0dff f83c c20d 2e3e efd8 893e
00000120: cded 0fbe 0ec6 013d cb21 d4be 5847 e43d
00000130: 0e4a 02be ef31 803c 9f55 dbba 4e8e 54bd
00000140: 6294 d6be d281 8c3d 6328 653e b9a9 acbc
00000150: adeb 473e bedf 30be da8b b0bd 9362 be3c
00000160: 6e3d 7b3d a7b3 1dbe a390 863e 9aed 103e
00000170: e82d bdbe 051b 033d 1691 bfbe eb75 f53e
00000180: 8b5c 293d 59df 293e 505e b93d dbe1 163e
00000190: 7bdd 0abd b8d2 8dbc 3bad 2dbd 0e19 6a3e
000001a0: 4298 323e 7bbe eebd d21f 33be 5e15 2dbc
000001b0: bb51 143e d518 703e 7705 52be 6169 cf3d
000001c0: 6034 0ebe b106 aa3d d287 28be 4025 cb3e
000001d0: 6630 cd3d f2ba e4bd 89cb 743e 4052 433d
000001e0: c33e 033c 731e 623e 263e d0be 1db6 d83e
000001f0: bd9f 82be bf6d 74be ee49 31bd 9e1e 1fbd
00000200: b816 cb3d 752a 7c3c c28e cb3e 0079 063c
00000210: bd3f 1b3e 2964 853e 8dbc 0dbf 688a a13e
00000220: 7bb5 9d3c a32d 253e 5fb8 013d 38be b73e
00000230: 11b0 473e 0b14 b03d 9867 00bf 68a9 66bd
00000240: 2496 a6be 8043 31be 2f70 6a3e b463 b2bd
00000250: 8cbc 5dbe b4d2 2b3e 866c 793e 23ee 0abe
00000260: ec2d 03be 3f4b a8bd 3627 1a3f 79dd e53b
00000270: a318 87be c228 a0be 73d8 aa3e ab0f 8bbe
00000280: 2c89 cabd 5250 dc3c 552e bc3e 5a0e 84bd
00000290: 770b 01bc 55c3 d43d 85fa dabc 320f 06be
000002a0: 50e6 9cba 4d8b 26bd 221b bc3e 94a4 973e
000002b0: c454 88bd ff8a 223e 9a0b 02bf 4a31 eb3e
000002c0: 294f 183e c3a4 c33d 4efe 72bd a1cb f83d

rnn.weight_hh_l0 f4 [45, 15]
0.14548363 -0.1230391 -0.15734614 -0.11857287 0.1448424 -0.20969076 -0.0029978105 0.22308573
-0.13910557 0.21049218 0.017752904 -0.039318137 0.17616841 0.17750214 0.14397973 0.18709064
0.17443998 0.21807195 -0.12058929 0.096365824 0.16633557 -0.042133093 -0.04850937 0.05739325
0.066524155 0.06186199 -0.079600036 0.12168463 -0.06639869 -0.076060906 -0.11259315 -0.22242144
0.104718745 -0.070627004 0.100961216 -0.06273665 0.057940766 0.054345343 -7.855748e-06 -0.018206233
0.06652955 -0.23134752 -0.20128998 0.25494328 -0.12664504 -0.09556195 0.1375301 -0.045918647
0.1463072 -0.019824887 0.014626294 0.20685591 0.055198655 -0.22742955 0.016577424 -0.18814667
-0.09514171 -0.20458366 -0.20261095 -0.07747929 -0.20950943 -0.037718732 0.06925919 0.0010939934
-0.053534083 0.101129495 0.10523112 0.08411551 -0.12819394 -0.19681339 0.07008963 -0.19134466
0.075100385 0.13568126 -0.07543826 -0.15202138 -0.18159354 0.24114098 0.12163883 -0.030143704
0.07756444 0.22401589 -0.037443526 -0.07034588 -0.2827924 0.22856605 0.03101087 0.18838404
-0.1146926 0.095120735 -0.17255099 0.053706788 0.14863448 -0.095341675 0.1002417 -0.095947884
0.20972753 0.10442133 0.0933501 0.17598313 -0.24341348 0.06593706 -0.103427835 0.22690402
0.2595207 0.029078262 -0.1278794 0.22115754 -0.096000604 -0.22609805 -0.119041264 0.06434621
-0.04321352 0.16903915 0.10381881 -0.1268011 -0.051861707 -0.05140654 -0.029391298 -0.184151
0.19122884 0.016512368 0.17918278 -0.17165482 0.23348634 -0.2013333 -0.0887205 0.08004809
0.12704997 -0.177555 0.19134007 0.043856703 0.22935352 0.052821517 -0.12928551 0.06659654
0.24803725 0.021006994 -0.07611697 -0.036520455 0.14233592 0.22306423 0.14939393 -0.22727148
0.0069438363 0.17503272 0.16164835 0.0056106313 3.890378e-05 0.104330294 -0.031724464 -0.058433056
-0.15858491 -0.016461877 -0.025973251 -0.07265927 0.16689806 -0.06915352 0.2905464 -0.16589068
0.05614846 -0.17229149 -0.08054814 -0.29136705 -0.20832099 -0.1996387 -0.265684 -0.25020006
0.17537615 0.0075642266 -0.1786671 -0.15281646 0.09883096 0.1107542 0.063246585 -0.15936325
-0.010172865 -0.13252738 0.12937848 0.013388801 -0.13435681 0.16163188 -0.22151497 -0.18478967
-0.23350874 0.03620393 0.023436086 0.08343338 0.18963893 -0.03532409 -0.19009127 0.0076262783
-0.03927404 -0.2049552 -0.17408523 -0.29031357 0.06814724 0.047528155 -0.09541871 -0.19023469
-0.032383643 0.07004471 -0.19921222 0.27089646 -0.0017635521 0.07688441 -0.13556707 -0.18160228
0.10238668 -0.23533039 0.2585945 0.0200772 -0.014390412 0.04621669 -0.21505022 -0.24012803
0.14281252 -0.10343766 -0.046801835 -0.22557943 0.05766113 -0.02815916 0.043610383 0.045532145
-0.25529957 -0.11228782 0.0403608 -0.07497202 -0.1330411 -0.19621281 0.15215923 0.14168379
-0.2139973 0.17670952 0.33999676 0.026976563 -0.08101799 -0.19093646 0.15338852 0.045694683
0.31042543 0.085535504 -0.26664308 -0.053738456 -0.13006891 0.17506902 0.11904954 -0.06509247
0.20883678 -0.096283644 -0.21966389 0.34482762 0.17296931 0.096886784 0.102838956 -0.28163704
00000000: a9f9 143e ecfb fbbd 591f 21be 55d6 f2bd
00000010: 9151 143e 2db9 56be ea76 44bb 9670 643e
00000020: b171 0ebe 438b 573e 8a6e 913c 0e0c 21bd
00000030: 7e65 343e 1fc3 353e 6c6f 133e b094 3f3e
00000040: 65a0 323e 414e 5f3e 85f7 f6bd 725b c53d
00000050: df53 2a3e c093 2cbd c3b1 46bd 2f15 6b3d
00000060: d13d 883d ff62 7d3d 5805 a3bd cb35 f93d
00000070: 09fc 87bd d2c5 9bbd 3d97 e6bd 72c2 63be
00000080: c876 d63d e4a4 90bd c1c4 ce3d 137c 80bd
00000090: 4c53 6d3d 3999 5e3d 2ecc 03b7 3d25 95bc
000000a0: a540 883d 5de6 6cbe f61e 4ebe ed87 823e
000000b0: 3daf 01be fcb5 c3bd b1d4 0c3e 3115 3cbd
000000c0: 8ed1 153e cd67 a2bc 20a3 6f3c 09d2 533e
000000d0: fc17 623d 4be3 68be 61cd 873c 85a9 40be
000000e0: a8d9 c2bd 617e 51be 3f79 4fbe 76ad 9ebd
000000f0: a489 56be f57e 1abd c3d7 8d3d 5464 8f3a
00000100: 8e46 5bbd fb1c cf3d 6a83 d73d c144 ac3d
00000110: 4645 03be 7389 49be 278b 8f3d dbef 43be
00000120: 3bce 993d 07f0 0a3e 607f 9abd 7eab 1bbe
00000130: a8f3 39be a9ed 763e c71d f93d eeef f6bc
00000140: 1bda 9e3d 6c64 653e 625e 19bd 8011 90bd
00000150: 2aca 90be 380d 6a3e 820a fe3c bfe7 403e
00000160: f4e3 eabd a9ce c23d 35b1 30be a6fb 5b3d
00000170: a333 183e 7f42 c3bd 854b cd3d 5380 c4bd
00000180: d0c2 563e dada d53d 562e bf3d ec34 343e
00000190: 6241 79be 020a 873d f9d1 d3bd 8759 683e
000001a0: e6df 843e 8935 ee3c d1f2 02be 1f77 623e
000001b0: f79b c4bd 3f86 67be e8cb f3bd f2c7 833d
000001c0: a900 31bd 9918 2d3e f59e d43d 26d8 01be
000001d0: f16c 54bd aa8f 52bd 05c6 f0bc 1492 3cbe
000001e0: 7ed1 433e f244 873c b17b 373e 48c6 2fbe
000001f0: 0b17 6f3e 512a 4ebe 18b3 b5bd 41f0 a33d
00000200: 6319 023e fad0 35be a7ee 433e 16a3 333d
00000210: a6db 6a3e 605b 583d 6c63 04be c463 883d
00000220: 7afd 7d3e dc16 ac3c 37e3 9bbd 7996 15bd
00000230: 82c0 113e f36a 643e b9fa 183e dbb9 68be
00000240: 1f89 e33b c73b 333e 2587 253e 63d9 b73b
00000250: 9e2c 2338 1fab d53d 83f1 01bd 8057 6fbd
00000260: 1564 22be 0fdb 86bc dbc5 d4bc 62ce 94bd
00000270: 53e7 2a3e 5ca0 8dbd 7fc2 943e 3fdf 29be
00000280: edfb 653d 2e6d 30be 6cf6 a4bd 102e 95be
00000290: 1952 55be 166e 4cbe bc07 88be 391a 80be
000002a0: ce95 333e 55dd f73b 82f4 36be eb7b 1cbe
000002b0: e367 ca3d 19d3 e23d 6d87 813d 1f30 23be
000002c0: 17ac 26bc 42b5 07be cb7b 043e b45c 5b3c
000002d0: d594 09be d482 253e d2d4 62be 8139 3dbe
000002e0: ea1c 6fbe 924a 143d 09fd bf3c 1fdf aa3d
000002f0: b530 423e feaf 10bd 49a7 42be dce5 f93b
00000300: d1dd 20bd c7df 51be 6643 32be fba3 94be
00000310: c890 8b3d e2ac 423d e26a c3bd e2cc 42be
00000320: b6a4 04bd 9a73 8f3d 4afe 4bbe f1b2 8a3e
00000330: fd26 e7ba 9375 9d3d 18d2 0abe f3f5 39be
00000340: 1cb0 d13d 73fa 70be 8066 843e f178 a43c
00000350: c3c5 6bbc b64d 3d3d 2036 5cbe 1fe4 75be
00000360: 723d 123e 20d7 d3bd 48b3 3fbd 4bfe 66be
00000370: 142e 6c3d 0aae e6bc cda0 323d ea7f 3a3d
00000380: a0b6 82be 28f7 e5bd 5e51 253d ee8a 99bd
00000390: ed3b 08be 03ec 48be a1cf 1b3e 8e15 113e
000003a0: 1c22 5bbe 57f3 343e 0e14 ae3e f4fd dc3c
000003b0: c3ec a5bd d984 43be e111 1d3e 592a 3b3d
000003c0: 15f0 9e3e 3d2d af3d 7185 88be db1c 5cbd
000003d0: c930 05be 4b45 333e 3fd0 f33d 334f 85bd
000003e0: 4fd9 553e 5c30 c5bd 92ef 60be 3f8d b03e
000003f0: de1e 313e 946c c63d 3b9d d23d bb32 90be

rnn.bias_ih_l0 f4 [45]
0.05166199 -0.30036235 -0.05615978 0.28581947 -0.19092627 0.24361514 0.24772963 0.117336474
-0.11014141 -0.15920079 -0.06634771 -0.039911572 -0.10862322 0.056929454 -0.1565997 -0.15406194
-0.044465818 0.055263523 -0.2683324 0.20794128 -0.09843774 0.2873009 0.17322412 -0.15994188
-0.37526855 -0.28335923 -0.11971583 -0.12574737 -0.52178574 0.28571594 0.15541117 -0.2479025
-0.07729492 0.06782654 -0.0031974562 0.06859768 -0.19151881 0.2576593 0.120823696 0.16008757
0.026596397 0.1613061 0.14597984 0.11507249 -0.16381802
00000000: 869b 533d 18c9 99be cc07 66bd ee56 923e
00000010: 2d82 43be 3f76 793e d6ac 7d3e 1b4e f03d
00000020: d291 e1bd 8805 23be 4fe1 87bd 517a 23bd
00000030: da75 debd dc2e 693d ac5b 20be 6ac2 1dbe
00000040: ca21 36bd 015c 623d dd62 89be 8fee 543e
00000050: ba99 c9bd 1b19 933e aa61 313e cec7 23be
00000060: 3323 c0be 7614 91be 932d f5bd ebc3 00be
00000070: c093 05bf 5c49 923e 1b24 1f3e 27da 7dbe
00000080: cd4c 9ebd a4e8 8a3d 6a8c 51bb f17c 8c3d
00000090: 821d 44be ebeb 833e 6a72 f73d ffed 233e
000000a0: b0e0 d93c 6d2d 253e bd7b 153e 20ab eb3d
000000b0: e9bf 27be

rnn.bias_hh_l0 f4 [45]
0.111872725 -0.13232122 -0.20848809 -0.09719168 0.038305145 0.13099399 -0.028415272 -0.086900316
-0.22603413 0.21310084 -0.040312078 0.3009845 0.1474814 -0.22700693 -0.24962905 -0.33128378
0.43350223 -0.07627714 -0.49184272 0.22779746 -0.26933074 0.24086559 -0.30463275 -0.60514706
-0.2344975 -0.25856936 0.19510172 0.14989772 -0.23352596 0.4688303 0.014217155 -0.041902874
-0.049159996 0.02140861 0.1326269 -0.08741128 0.2971933 -0.065104835 -0.13676955 -0.28144255
-0.0750233 0.3251102 -0.12184374 0.09457117 -0.1516836
00000000: 871d e53d 377f 07be e77d 55be 6e0c c7bd
00000010: dbe5 1c3d 4a23 063e 25c7 e8bc cbf8 b1bd
00000020: 7e75 67be 1b37 5a3e 471e 25bd a41a 9a3e
00000030: 5d05 173e 8174 68be c29e 7fbe 079e a9be
00000040: 01f4 dd3e 3037 9cbd cfd2 fbbe bd43 693e
00000050: b8e5 89be 78a5 763e d3f8 9bbe ebea 1abf
00000060: 1d20 70be 3463 84be bfc8 473e ca7e 193e
00000070: 6e21 6fbe 860a f03e 12ef 683c 59a2 2bbd
00000080: fe5b 49bd 1c61 af3c 59cf 073e af04 b3bd
00000090: b829 983e af55 85bd 510d 0cbe 3d19 90be
000000a0: d1a5 99bd d874 a63e 3689 f9bd 88ae c13d
000000b0: f252 1bbe

rnn.weight_ih_l1 f4 [45, 15]
-0.18023726 -0.24624555 0.13089748 -0.10610389 0.16718528 -0.21705818 -0.037273824 0.21517089
-0.16105378 0.1291835 -0.12908924 0.08540292 0.010524451 -0.017728012 -0.22382446 0.1702327
0.09773806 -0.04319513 -0.11275984 0.28162244 -0.16208056 -0.04443933 0.028098818 -0.26902413
0.24508192 0.004465452 -0.042285968 0.2073344 0.31512865 -0.21515922 0.08646671 -0.115904234
-0.36839464 0.087056525 0.0867703 -0.027352227 -0.016937302 -0.27951828 -0.029553335 -0.023650484
0.058355547 -0.15374286 -0.3148662 0.06089867 0.31102583 -0.038160417 0.10527806 -0.11320495
-0.087354705 0.12359603 -0.024163187 -0.05460664 -0.08142114 0.11663865 0.22749357 0.10074165
0.14393319 -0.1722005 -0.02242551 0.23954841 -0.13835558 -0.32443517 0.117697105 -0.04914708
-0.24495089 -0.15958509 -0.035076316 -0.06000104 0.09966982 0.2333994 0.39337412 -0.08602304
0.2337329 0.07020613 -0.120080195 -0.1427834 0.07584002 -0.1103491 0.20492375 -0.2100212
0.012989876 -0.17119852 -0.1334647 0.083153605 0.16627659 0.22817598 0.2026214 -0.05606992
-0.13233496 -0.081519686 -0.2107356 -0.18090394 0.05321452 -0.3348695 -0.06191588 -0.35747904
-0.009390277 0.030945325 -0.019074135 -0.108926654 0.1611081 0.1578812 0.11520695 -0.30528605
-0.11592362 0.24415502 -0.13940012 0.004438951 0.17941815 -0.1424743 -0.06969257 0.12297414
-0.059794195 0.10312861 -0.12301001 -0.026813377 0.09583573 -0.20044126 0.27679014 0.16022605
0.10340535 -0.036145523 0.07224763 0.049929895 -0.14572056 0.1859651 -0.28154173 0.056175727
-0.02145001 0.020325357 0.27958938 0.2205058 0.037742723 0.057932865 -0.11285223 0.046958752
-0.08107106 -0.14379305 -0.06827322 -0.21494906 -0.042758282 -0.11274442 0.0888543 0.22239669
-0.031643175 -0.05341441 -0.067155294 0.24597745 -0.011002205 -0.08196049 -0.3029681 -0.21543367
0.012583355 -0.108564176 -0.22941789 -0.0732826 0.06881377 0.34318832 0.1058861 0.05727444
0.19910967 -0.17792536 0.18316947 0.14048995 -0.012362589 -0.22072555 -0.017769376 -0.014767047
-0.2861957 -0.17140429 -0.22882651 -0.1191641 -0.11144157 0.28409174 -0.023050101 -0.17574868
-0.096527554 0.053641815 -0.27253756 0.004239058 0.24144699 -0.11741242 -0.036997363 -0.03598258
-0.06644791 -0.23837024 0.24850729 0.24114527 0.112723954 -0.23721579 0.16154519 -0.041743603
-0.04486111 0.15130764 -0.13486587 0.035565734 -0.03884767 0.041435964 -0.20521134 0.1334712
0.121433124 0.04232032 -0.19616109 -0.027460406 -0.28082767 0.023351602 -0.2739156 -0.11176119
-0.043470856 0.032516114 -0.00969591 0.28574678 0.05501565 -0.051390577 -0.10617082 0.1569596
-0.08322623 0.20028208 0.016964417 0.20778023 -0.12813297 0.05560912 -0.12196237 -0.13190418
0.18076131 -0.04074769 -0.027684068 0.05202861 -0.084409714 0.04244064 0.1475265 -0.20655507
0.0978757 -0.0024750067 0.05873703 -0.23025183 0.14265804 0.104968816 -0.2427022 0.18753342
0.14885193 0.3686991 -0.028008893 0.005914939 -0.21703148 -0.31733492 0.46385434 -0.10002411
-0.27765456 0.14856403 -0.1415109 -0.31667927 0.003104979 0.2083827 0.15715261 -0.06503816
00000000: 1e90 38be cb27 7cbe fd09 063e ff4c d9bd
00000010: 9e32 2b3e 8044 5ebe 70ac 18bd c255 5c3e
00000020: 48eb 24be ae48 043e f82f 04be bae7 ae3d
00000030: bf6e 2c3c 563a 91bc 3d32 65be 7b51 2e3e
00000040: e42a c83d 60ed 30bd a2ee e6bd d130 903e
00000050: 72f8 25be 0406 36bd 7e2f e63c 88bd 89be
00000060: c1f6 7a3e ed52 923b 0d34 2dbd 784f 543e
00000070: 8b58 a13e b352 5cbe 7515 b13d 335f edbd
00000080: 399e bcbe b14a b23d a1b4 b13d c711 e0bc
00000090: 19c0 8abc 051d 8fbe d619 f2bc a9be c1bc
000000a0: 3a06 6f3d c56e 1dbe 2436 a1be e270 793d
000000b0: c73e 9f3e 194e 1cbd 069c d73d ffd7 e7bd
000000c0: 06e7 b2bd ea1f fd3d e0f1 c5bc 36ab 5fbd
000000d0: 20c0 a6bd 3fe0 ee3d 13f4 683e a351 ce3d
000000e0: 3963 133e 5455 30be b4b5 b7bc 2e4c 753e
000000f0: 16ad 0dbe 5e1c a6be 2e0b f13d 734e 49bd
00000100: 68d4 7abe 466a 23be 2fac 0fbd a7c3 75bd
00000110: b11f cc3d 4100 6f3e 5568 c93e d92c b0bd
00000120: ad57 6f3e 3bc8 8f3d 9bec f5bd d035 12be
00000130: 0352 9b3d b5fe e1bd 88d7 513e cc0f 57be
00000140: 7dd3 543c aa4e 2fbe f8aa 08be 704c aa3d
00000150: 6944 2a3e f7a6 693e fc7b 4f3e 93a9 65bd
00000160: d182 07be cbf3 a6bd 13cb 57be e23e 39be
00000170: 78f7 593d 0474 abbe 819b 7dbd 7e07 b7be
00000180: add9 19bc 0d81 fd3c 5c41 9cbc f014 dfbd
00000190: 86f9 243e 9cab 213e 9ff1 eb3d 744e 9cbe
000001a0: 5d69 edbd c603 7a3e e8be 0ebe 9f74 913b
000001b0: 64b9 373e c8e4 11be faba 8ebd ded9 fb3d
000001c0: c2ea 74bd 1835 d33d acec fbbd baa7 dbbc
000001d0: 8645 c43d 7940 4dbe 70b7 8d3e 4c12 243e
000001e0: 2fc6 d33d 540d 14bd 91f6 933d 4a83 4c3d
000001f0: c537 15be a36d 3e3e 3d26 90be 8518 663d
00000200: eeb7 afbc 5d81 a63c 5726 8f3e 46cc 613e
00000210: 1d98 1a3d 034b 6d3d 121f e7bd d257 403d
00000220: 9508 a6bd 7c3e 13be d4d2 8bbd 9b1b 5cbe
00000230: 4f23 2fbd 8ce6 e6bd 3ef9 b53d f5bb 633e
00000240: 469c 01bd 12c9 5abd b788 89bd 83e1 7b3e
00000250: 9842 34bc e7da a7bd a31e 9bbe a59a 5cbe
00000260: 6b2a 4e3c e556 debd 86ec 6abe 3015 96bd
00000270: 3cee 8c3d 61b6 af3e d0da d83d 9a98 6a3d
00000280: 68e3 4b3e 1132 36be c790 3b3e 99dc 0f3e
00000290: 758c 4abc e105 62be 1591 91bc 7cf1 71bc
000002a0: 3e88 92be 9b84 2fbe 7f51 6abe 4f0c f4bd
000002b0: 7a3b e4bd 7974 913e 91d3 bcbc 76f7 33be
000002c0: 3db0 c5bd 85b7 5b3d 0b8a 8bbe cce7 8a3b
000002d0: e13d 773e ec75 f0bd 8c8a 17bd 7862 13bd
000002e0: d815 88bd 5417 74be b278 7e3e c9ee 763e
000002f0: d1db e63d b2e8 72be 1a6c 253e 57fb 2abd
00000300: 49c0 37bd 64f0 1a3e 471a 0abe 60ad 113d
00000310: bc1e 1fbd c2b8 293d ec22 52be adac 083e
00000320: eeb1 f83d 1258 2d3d 74de 48be a5f4 e0bc
00000330: a5c8 8fbe dc4b bf3c aa3e 8cbe 0de3 e4bd
00000340: 7f0e 32bd 9e2f 053d 98db 1ebc 674d 923e
00000350: 1758 613d ed7e 52bd 1670 d9bd 04ba 203e
00000360: 8472 aabd bf16 4d3e f6f8 8a3c 57c4 543e
00000370: 4a35 03be 63c6 633d 68c7 f9bd e411 07be
00000380: 7e19 393e 0de7 26bd b3c9 e2bc f41b 553d
00000390: 00df acbd 3dd6 2d3d 3011 173e 2c83 53be
000003a0: 0e73 c83d b933 22bb 3d96 703d 23c7 6bbe
000003b0: f314 123e e4f9 d63d ed86 78be c308 403e
000003c0: a46c 183e 21c6 bc3e e872 e5bc 1bd2 c13b
000003d0: 803d 5ebe b979 a2be 517e ed3e 71d9 ccbd
000003e0: bd28 8ebe 2b21 183e 3ce8 10be c923 a2be
000003f0: e77c 4b3b 4662 553e 9dec 203e ba32 85bd

rnn.weight_hh_l1 f4 [45, 15]
0.08853584 0.049193256 -0.062658705 0.22558516 0.13078697 0.0018965357 -0.17965695 0.18667312
-0.15250579 -0.20493278 -0.089573175 -0.030830797 -0.19590428 -0.24134548 0.0077681076 0.033538166
-0.24801636 0.17619058 -0.26895243 -0.045571998 -0.20808811 -0.024285084 -0.2441555 0.17032929
0.14982419 0.2068702 0.069503695 0.298244 0.3109968 -0.21989775 -0.007518422 -0.077470094
-0.123799175 -0.13631788 0.23619743 -0.2410764 -0.14440303 0.113696486 -0.007471778 0.10872692
-0.15151797 0.018200958 0.07528625 0.14059027 0.12319406 -0.013151549 -0.07692662 -0.041996144
0.010305829 -0.10739882 0.19564162 0.18997185 -0.12718973 -0.07411531 0.31466177 0.053236503
-0.08096315 0.08673017 0.12150538 -0.057724874 0.053529955 -3.496091e-05 -0.23374778 -0.034006167
-0.2618572 0.1663966 0.21798015 0.003914815 -0.28670165 -0.04876046 -0.11496913 -0.12521352
-0.20317467 -0.12441576 0.29711595 -0.116437405 -0.2423989 0.0026367072 -0.03579282 -0.023829732
0.2375156 -0.27272958 0.16747464 -0.13791911 -0.10881569 0.2013503 -0.25327343 -0.06043313
0.17381682 -0.03344891 0.07007687 -0.10035363 -0.19321653 0.096425764 0.04391924 0.18408765
0.19363676 0.29355624 -0.15804692 0.027684964 -0.10845316 0.10460547 -0.2111858 0.077711724
-0.10040073 -0.07999701 0.0471338 -0.12280138 -0.23597142 0.113505095 0.22296613 0.050811302
0.24746029 0.14397116 -0.031039169 -0.28836793 0.012345506 0.0311414 0.20154774 0.065799154
0.020832974 0.105690986 -0.16487709 -0.032388777 0.030564317 -0.08342987 0.013523696 -0.101100884
0.06571926 0.19178784 0.18433146 0.2164432 -0.20812523 -0.18505849 -0.097564824 -0.27383706
0.10815799 -0.059325863 -0.063215114 0.09740464 0.12476229 -0.20874938 0.22980466 -0.2143602
-0.085191146 0.21842803 0.14869736 -0.19976027 -0.08393197 -0.007158869 0.062513635 -0.24659583
-0.22639495 -0.10054922 0.17551243 0.19162847 0.18970421 0.08947367 0.207282 0.21018246
-0.20378165 0.21958522 0.20088702 -0.023301646 0.20790878 0.12500647 -0.11525866 -0.057966962
-0.016486933 -0.09390296 -0.106413625 0.19653498 -0.15646812 0.15842623 -0.19620095 -0.21608262
0.19983649 0.13288407 0.12098943 -0.0704718 -0.10294205 0.19578859 -0.1770781 -0.19583543
-0.15516764 0.11537402 -0.056791462 -0.053800084 0.19136715 0.18470398 -0.06683117 -0.029365618
-0.10934631 0.1990942 -0.16968207 0.19517776 -0.12166451 -0.051944803 -0.12493893 0.13184296
-0.13596521 -0.06356851 0.22955604 0.113487855 0.17812239 0.24638602 -0.040235203 -0.18970144
-0.20056829 0.07470155 0.1287925 -0.22430605 -0.07547324 0.0006156372 -0.2214763 0.24985921
0.24966052 -0.0069571678 -0.13156785 -0.060817514 0.14352521 -0.07319617 -0.003856365 0.080989115
0.085505925 -0.18687597 -0.16969398 -0.07389942 -0.018514799 -0.16696635 0.24287699 0.19304971
-0.22905326 0.11850285 -0.021102477 0.26403546 0.05272386 -0.1296033 0.28186396 -0.23886226
-0.01826863 -0.13636112 -0.033575937 -0.43560544 0.06714907 -0.15593296 0.050214574 -0.021402307
-0.0052004866 0.2682764 -0.22261703 0.03772466 0.018775113 0.16401938 0.35582072 0.040479552
00000000: 4752 b53d de7e 493d 3553 80bd ccff 663e
00000010: 05ed 053e 2e95 f83a fef7 37be 3d27 3f3e
00000020: 7a2a 1cbe e6d9 51be 2472 b7bd de90 fcbc
00000030: 229b 48be 4523 77be 9c8b fe3b 515f 093d
00000040: 00f8 7dbe 4e6b 343e 22b4 89be b4a9 3abd
00000050: 0d15 55be 83f1 c6bc e603 7abe cd6a 2e3e
00000060: 836b 193e c8d5 533e f457 8e3d 70b3 983e
00000070: f93a 9f3e e02c 61be 185d f6bb a4a8 9ebd
00000080: 6c8a fdbd ea96 0bbe bddd 713e bbdc 76be
00000090: 63de 13be b4d9 e83d d1d5 f4bb 38ac de3d
000000a0: 8727 1bbe 2d1a 953c ad2f 9a3d e5f6 0f3e
000000b0: 2b4d fc3d 9879 57bc b48b 9dbd 2604 2cbd
000000c0: c8d9 283c eaf3 dbbd 4756 483e fb87 423e
000000d0: 063e 02be c5c9 97bd 591b a13e 850e 5a3d
000000e0: 02d0 a5bd 969f b13d d0d7 f83d eb70 6cbd
000000f0: 3a42 5b3d fea2 12b8 945b 6fbe 0d4a 0bbd
00000100: 2612 86be df63 2a3e 3036 5f3e d947 803b
00000110: 8fca 92be 0cb9 47bd ef74 ebbd f937 00be
00000120: 050d 50be b1cd febd 951f 983e bc76 eebd
00000130: 6b37 78be 9bcc 2c3b 7e9b 12bd 9236 c3bc
00000140: 4a37 733e 36a3 8bbe 797e 2b3e ab3a 0dbe
00000150: c3da debd c62e 4e3e 0ead 81be bb88 77bd
00000160: 09fd 313e b901 09bd 7684 8f3d 3486 cdbd
00000170: 8eda 45be df7a c53d a9e4 333d 7981 3c3e
00000180: b748 463e 014d 963e 0dd7 21be 94cb e23c
00000190: b11c debd 653b d63d 1741 58be 5327 9f3d
000001a0: e69e cdbd 79d5 a3bd 5f0f 413d 4a7f fbbd
000001b0: 7ea2 71be 5c75 e83d 3c51 643e 831f 503d
000001c0: 3b66 7d3e 2d6d 133e db45 febc f6a4 93be
000001d0: ce44 4a3c 401c ff3c 8862 4e3e b5c1 863d
000001e0: eaa9 aa3c 8474 d83d 8ad5 28be 18aa 04bd
000001f0: 0562 fa3c 48dd aabd 7e92 5d3c fb0d cfbd
00000200: d297 863d 0864 443e 63c1 3c3e 49a3 5d3e
00000210: c81e 55be f97f 3dbe 11d0 c7bd 5f34 8cbe
00000220: f081 dd3d adff 72bd ed76 81bd 157c c73d
00000230: 5f83 ff3d 66c2 55be ea51 6b3e 3e81 5bbe
00000240: b278 aebd 99ab 5f3e 1f44 183e f58d 4cbe
00000250: 86e4 abbd f294 eabb 2607 803d 9e83 7cbe
00000260: 14d4 67be c0ec cdbd 88b9 333e 413a 443e
00000270: d241 423e f93d b73d bc41 543e 123a 573e
00000280: 23ac 50be f3da 603e 54b5 4d3e 18e3 bebc
00000290: 0ae6 543e b201 003e bb0c ecbd c46e 6dbd
000002a0: 9b0f 87bc 3250 c0bd 63ef d9bd 7740 493e
000002b0: 2e39 20be 7c3a 223e e7e8 48be c344 5dbe
000002c0: f0a1 4c3e c312 083e 4ec9 f73d 8553 90bd
000002d0: 48d3 d2bd ce7c 483e f653 35be 1589 48be
000002e0: 44e4 1ebe 3749 ec3d 2a9e 68bd 7a5d 5cbd
000002f0: c0f5 433e 0a23 3d3e c8de 88bd 2a90 f0bc
00000300: f5f0 dfbd 5adf 4b3e 23c1 2dbe aedc 473e
00000310: 3e2b f9bd 13c4 54bd fbdf ffbd d701 073e
00000320: 773a 0bbe 3530 82bd bd10 6b3e 526c e83d
00000330: b765 363e 9e4c 7c3e abcd 24bd 1841 42be
00000340: c661 4dbe 20fd 983d 2ee2 033e 7cb0 65be
00000350: b791 9abd b762 213a afca 62be 18db 7f3e
00000360: 02a7 7f3e f4f8 e3bb b9b9 06be c91b 79bd
00000370: 46f8 123e e0e7 95bd 12bb 7cbb 9fdd a53d
00000380: bb1d af3d 6a5c 3fbe 42c4 2dbe 9458 97bd
00000390: 59ac 97bc 3af9 2abe bfb4 783e d3ae 453e
000003a0: f08c 6abe 9fb1 f23d 1adf acbc a82f 873e
000003b0: f9f4 573d bab6 04be 7950 903e 4f98 74be
000003c0: 18a8 95bc 40a2 0bbe ec86 09bd ad07 dfbe
000003d0: 7485 893d e4ac 1fbe ccad 4d3d e453 afbc
000003e0: d868 aabb 865b 893e b8f5 63be 2c85 1a3d
000003f0: 44ce 993c b2f4 273e 222e b63e e3cd 253d

rnn.bias_ih_l1 f4 [45]
0.26635367 0.18092263 0.012719356 -0.1549752 0.18579149 -0.0071188672 -0.29750556 0.08801431
0.06263328 -0.25852004 -0.22394082 -0.044837013 -0.17650318 -0.28356546 -0.19188185 -0.22928084
-0.3053401 -0.25820032 -0.26695988 -0.24214616 -0.18203361 0.013808548 -0.18395792 -0.17200509
0.009443294 0.035165794 -0.220479 -0.0075125317 0.18129253 0.2824863 0.067244925 0.06545354
0.26169303 -0.078554004 -0.23801833 -0.065259114 0.27194828 -0.16999741 -0.18527447 -0.17918852
0.26585844 -0.09329062 -0.20543769 -0.028434377 -0.14727618
00000000: 825f 883e c843 393e d964 503c d2b1 1ebe
00000010: 2040 3e3e 6345 e9bb a652 98be d940 b43d
00000020: e145 803d bd5c 84be be50 65be 04a7 37bd
00000030: 40bd 34be 7e2f 91be ad7c 44be 99c8 6abe
00000040: 8a55 9cbe d532 84be f7ae 88be 2af5 77be
00000050: 0567 3abe 403d 623c 775f 3cbe 1a22 30be
00000060: 0cb8 1a3c 020a 103d 3fc5 61be af2b f6bb
00000070: c0a4 393e 0ba2 903e b5b7 893d 810c 863d
00000080: a1fc 853e ece0 a0bd 14bb 73be 92a6 85bd
00000090: ce3c 8b3e cd13 2ebe 97b8 3dbe 327d 37be
000000a0: 991e 883e 270f bfbd 425e 52be 36ef e8bc
000000b0: 91cf 16be

rnn.bias_hh_l1 f4 [45]
0.16883393 0.13632238 -0.15698987 -0.34439942 -0.29192328 -0.31291255 0.06286579 0.16342174
0.10800153 -0.18410407 0.09136156 -0.2083172 0.17169726 -0.23171489 -0.124262996 -0.28730935
-0.1771522 0.048168063 -0.3643196 -0.2581191 -0.40081277 0.12552819 -0.25620222 -0.2965538
0.17085238 0.044000573 -0.17343165 -0.08620999 0.3578887 -0.16351797 0.32213494 0.19301608
0.30539206 -0.033505037 0.004209094 0.062130608 -0.18037756 0.25355482 -0.19222063 -0.099744536
0.016588286 0.057957143 -0.22727759 -0.16927339 0.22733077
00000000: cde2 2c3e 1898 0b3e f4c1 20be 1f55 b0be
00000010: f876 95be 1336 a0be c8bf 803d 0758 273e
00000020: e82f dd3d c785 3cbe c51b bb3d 1b51 55be
00000030: 68d1 2f3e ab46 6dbe 997d febd 361a 93be
00000040: 6367 35be e04b 453d 1988 babe 3028 84be
00000050: 5537 cdbe 768a 003e f02c 83be e6d5 97be
00000060: edf3 2e3e f239 343d 1198 31be dd8e b0bd
00000070: 303d b73e 4171 27be dfee a43e 02a6 453e
00000080: 595c 9c3e 943c 09bd 71ec 893b aa7c 7e3d
00000090: e5b4 38be f0d1 813e 7cd5 44be dd46 ccbd
000000a0: 28e4 873c 7864 6d3d 75bb 68be 0156 2dbe
000000b0: 66c9 683e

output_projector.weight f4 [1, 15]
0.1438989 -0.3156754 -0.20937587 -0.20575838 0.3248872 -0.12401094 -0.136374 -0.17555627
0.1325488 0.0017167594 -0.28826162 -0.06379787 0.08909005 -0.05469419 0.019156136
00000000: 3c5a 133e 35a0 a1be a166 56be 53b2 52be
00000010: 9d57 a63e 73f9 fdbd a0a5 0bbe 06c5 33be
00000020: dfba 073e e304 e13a 0797 93be 75a8 82bd
00000030: d874 b63d 0407 60bd 54ed 9c3c

exp_avg f4 [2, 1]
0.0 0.0
00000000: 0000 0000 0000 0000

exp_avg_sq f4 [2, 1]
0.0 0.0
00000000: 0000 0000 0000 0000

slow_buffer f4 [2, 1]
0.0 -0.20699409
00000000: 0000 0000 42f6 53be

exp_avg f4 [45, 4]
2.2521392e-05 -2.107435e-05 -1.27226085e-05 1.1275568e-05 7.173534e-06 -4.2799766e-06 -3.8397735e-07 -2.5095808e-06
7.494641e-05 -4.8720565e-05 -1.974445e-05 -6.481379e-06 2.517396e-05 -5.0701517e-05 5.149146e-06 2.0378411e-05
7.848857e-06 -1.1746864e-06 -3.7957188e-06 -2.8784505e-06 1.5505906e-05 -2.2937793e-05 9.9668355e-08 7.3322212e-06
5.275272e-06 4.6052355e-06 -1.7227103e-05 7.3465953e-06 2.9728391e-05 -6.677606e-06 -1.2074475e-05 -1.0976307e-05
2.5946627e-05 -3.6967314e-05 -4.9575956e-06 1.5978292e-05 9.253429e-06 -6.8385525e-06 4.3936184e-06 -6.8084955e-06
2.2957305e-05 -1.5008494e-05 -1.25703455e-05 4.621539e-06 1.2931045e-05 -1.5058326e-05 -1.4996031e-06 3.6268868e-06
-1.3773896e-06 4.5711766e-07 1.0700342e-05 -9.780073e-06 1.0475187e-05 -2.7498214e-05 2.0332278e-05 -3.3092551e-06
1.4584933e-05 -2.1377361e-06 -4.021589e-06 -8.425609e-06 -1.0463633e-05 3.7373655e-05 2.3914481e-05 -5.0824514e-05
-1.2527257e-05 6.9683506e-06 -4.8125544e-06 1.0371454e-05 2.857792e-06 8.807904e-05 -0.000113301554 2.2364733e-05
2.8578184e-05 4.000101e-05 2.293976e-06 -7.087315e-05 -5.421481e-06 1.1620489e-06 2.8592024e-06 1.4002305e-06
3.508449e-05 7.4157804e-05 -0.000101572914 -7.669372e-06 -1.9735749e-06 -7.96264e-07 1.3858024e-05 -1.1088185e-05
-3.9486e-06 2.095134e-05 -1.6292948e-05 -7.097961e-07 1.4331533e-05 4.8666796e-05 8.722852e-06 -7.172118e-05
1.8323226e-05 3.204305e-05 -2.8903834e-05 -2.1462449e-05 1.6451624e-05 3.4941106e-05 -3.1173196e-05 -2.0219535e-05
-1.9510482e-05 1.1692214e-05 4.84786e-06 2.9704104e-06 1.8453499e-06 5.774609e-06 2.0057385e-05 -2.7677348e-05
4.327682e-05 3.163605e-05 -2.194424e-05 -5.2968637e-05 -3.8790833e-05 2.655233e-05 4.326148e-06 7.91236e-06
-0.00013231055 0.00010264964 0.0002855014 -0.00025584054 -8.9518275e-05 0.00022748864 -0.000192407 5.4436598e-05
0.00021346608 6.670297e-05 -0.00041963137 0.00013946231 0.00015017763 9.846011e-05 0.0003053981 -0.0005540359
0.000106212785 -7.581342e-07 -7.6022254e-05 -2.9432354e-05 0.00011533928 -8.895838e-05 0.00019794467 -0.00022432557
-5.4044962e-05 0.00013541132 -0.00021786855 0.00013650222 5.810325e-05 0.00011502114 -0.0003115471 0.00013842269
-1.6247637e-05 -0.00014240468 -0.00026507457 0.0004237268 2.0132531e-05 -4.681131e-06 -1.9566709e-05 4.115301e-06
0.0002122289 -9.226547e-06 -0.00032736314 0.00012436077 2.3817682e-05 -8.470142e-05 2.6792208e-05 3.4091503e-05
0.00014165216 -2.4182777e-05 -0.000121182245 3.7129e-06 0.00022334511 0.00028805409 0.00012327987 -0.0006346791
-9.697409e-06 -3.015367e-05 -6.20046e-05 0.00010185568
00000000: 52ec bc37 d2c8 b0b7 3073 55b7 322c 3d37
00000010: 30b4 f036 b89c 8fb6 7225 ceb4 456a 28b6
00000020: 8c2c 9d38 4f59 4cb8 e2a0 a5b7 9f7a d9b6
00000030: ab2c d337 57a8 54b8 d4c6 ac36 4ef2 aa37
00000040: 96ae 0337 eba9 9db5 f4b9 7eb6 672b 41b6
00000050: ae12 8237 896a c0b7 4209 d633 4d07 f636
00000060: 3e02 b136 ac86 9a36 ec82 90b7 c682 f636
00000070: 3c61 f937 3310 e0b6 7a93 4ab7 e126 38b7
00000080: f5a7 d937 5a0d 1bb8 6c59 a6b6 1f09 8637
00000090: 2d3f 1b37 b876 e5b6 e56c 9336 8874 e4b6
000000a0: 7094 c037 fecc 7bb7 39e5 52b7 b812 9b36
000000b0: 6af2 5837 05a3 7cb7 f845 c9b5 7165 7336
000000c0: bfde b8b5 c669 f534 9e85 3337 1815 24b7
000000d0: 96be 2f37 f7ab e6b7 3c8f aa37 9214 5eb6
000000e0: cfb1 7437 0776 0fb6 30f1 86b6 b75b 0db7
000000f0: f68c 2fb7 a8c1 1c38 f59b c837 682c 55b8
00000100: 292c 52b7 add1 e936 877b a1b6 0e01 2e37
00000110: 7ec8 3f36 13b7 b838 4f9c edb8 e69b bb37
00000120: 2fbb ef37 c2c6 2738 35f2 1936 bca1 94b8
00000130: 2bea b5b6 b2f7 9b35 b9e0 3f36 8eef bb35
00000140: af27 1338 2b85 9b38 8b03 d5b8 b4ab 00b7
00000150: c271 04b6 d8be 55b5 c37f 6837 6407 3ab7
00000160: 377e 84b6 a9c0 af37 d7ac 88b7 d188 3eb5
00000170: 7771 7037 931f 4c38 5d58 1237 0469 96b8
00000180: d4b4 9937 f765 0638 8376 f2b7 420a b4b7
00000190: 9801 8a37 ba8d 1238 f7bf 02b8 1f9d a9b7
000001a0: 71aa a3b7 ad29 4437 cdaa a236 4357 4736
000001b0: bdad f735 83c3 c136 e840 a837 a72c e8b7
000001c0: 2284 3538 f3b0 0438 e614 b8b7 a42a 5eb8
000001d0: 57b3 22b8 b2bc de37 5429 9136 54bf 0437
000001e0: d8bc 0ab9 9b45 d738 59af 9539 5622 86b9
000001f0: c2bb bbb8 048a 6e39 dcc0 49b9 da52 6438
00000200: ddd5 5f39 e2e2 8b38 f801 dcb9 a13c 1239
00000210: 0079 1d39 5e7c ce38 d71d a039 b83c 11ba
00000220: 8ebe de38 9682 4bb5 236e 9fb8 80e5 f6b7
00000230: 4ee2 f138 2b8f bab8 5e8f 4f39 f038 6bb9
00000240: 56ae 62b8 33fd 0d39 a573 64b9 0922 0f39
00000250: e4b3 7338 8137 f138 2557 a3b9 8f25 1139
00000260: 894b 88b7 7752 15b9 b5f9 8ab9 a627 de39
00000270: 48e2 a837 9c12 9db6 3023 a4b7 2b16 8a36
00000280: c389 5e39 b8cb 1ab7 f0a1 abb9 d766 0239
00000290: 15cc c737 bba1 b1b8 d4bf e037 79fd 0e38
000002a0: 7688 1439 1edc cab7 3923 feb8 232b 7936
000002b0: bf31 6a39 f705 9739 b044 0139 9860 26ba
000002c0: 0eb2 22b7 83f2 fcb7 7708 82b8 5a9b d538

exp_avg_sq f4 [45, 4]
2.8280195e-10 7.5875126e-11 1.510642e-10 1.03451046e-10 1.7496436e-10 1.0173848e-11 2.8477163e-11 3.972103e-11
6.0385164e-10 1.7216703e-10 1.5981343e-10 1.629231e-10 1.2720821e-09 3.7537673e-10 8.4433655e-10 4.2367898e-10
7.78207e-10 5.1188216e-12 2.7057345e-10 1.15144325e-10 9.014417e-11 7.313184e-11 7.8847893e-11 5.1728916e-11
4.5831294e-11 1.9283795e-11 8.997331e-11 2.7621619e-11 4.0154516e-10 2.8024636e-11 6.942866e-11 1.7434923e-10
1.0504379e-10 8.9121724e-11 4.711887e-11 8.769801e-11 1.0345755e-10 1.1951164e-11 1.3383082e-10 3.9627395e-11
1.4354552e-10 3.2676e-11 8.2866804e-11 9.526288e-11 7.887666e-10 4.9035064e-11 6.126865e-10 1.3813083e-10
2.4216913e-11 1.523691e-11 2.3171404e-11 1.6128463e-11 3.464067e-10 9.7976474e-11 2.7625177e-10 1.343561e-10
1.372592e-10 1.697452e-11 2.999935e-11 3.9413372e-11 2.7612557e-10 2.9869257e-10 5.903212e-10 6.7857947e-10
7.785535e-10 2.938413e-10 4.7431137e-10 5.873272e-10 1.1209353e-09 8.7329594e-10 1.9080797e-09 1.0541581e-09
2.9145906e-09 1.2512761e-09 1.350771e-09 2.5584301e-09 2.1575963e-10 1.3141439e-11 6.759445e-11 6.1708756e-11
6.2656735e-10 5.671887e-10 1.756077e-09 1.1311403e-09 1.8140387e-11 2.5129183e-11 8.0461325e-11 3.404304e-11
5.4661064e-11 4.5219623e-11 5.5921445e-11 2.9718922e-11 1.7647726e-09 6.631877e-10 7.8825596e-10 2.069717e-09
5.069889e-11 1.1013313e-10 3.6870687e-10 1.9820151e-10 4.9675297e-10 3.2454445e-10 7.837307e-10 6.3585387e-10
1.333712e-10 1.2542556e-11 2.8900637e-11 1.1187047e-10 4.76029e-11 2.201511e-11 1.836613e-10 1.2339883e-10
1.4975621e-09 1.0335415e-09 3.1487808e-09 2.7843918e-09 1.6535277e-10 1.0001341e-10 1.7133246e-10 1.38236e-10
4.4723272e-08 1.0082867e-08 1.00169736e-07 3.2800536e-08 4.7949095e-07 1.114102e-08 2.4019317e-07 7.5947995e-08
7.220949e-08 7.968925e-09 4.9103267e-08 2.4498826e-08 1.4420804e-07 2.1501819e-08 2.1382924e-07 9.439494e-08
2.2256405e-07 3.5749324e-09 7.039127e-08 3.035781e-08 5.5627368e-08 5.226928e-09 3.5385188e-08 2.7205827e-08
6.214704e-09 3.360441e-09 1.2120757e-08 3.423002e-09 7.22223e-08 5.460724e-09 1.9922286e-08 3.3588666e-08
9.176422e-08 1.0959178e-08 9.147036e-08 4.9909097e-08 3.367805e-08 3.0762597e-09 3.744453e-08 1.27309665e-08
7.037774e-08 6.6855237e-09 7.252429e-08 3.7545714e-08 1.392285e-07 3.3292196e-09 9.422036e-08 1.567993e-08
5.7657555e-08 7.454617e-09 1.1856004e-08 1.201252e-08 1.2396495e-07 2.0706125e-08 1.3866237e-07 8.896455e-08
1.07849246e-07 6.815956e-09 2.6980725e-08 2.5336613e-08
00000000: d678 9b2f e6d9 a62e cb18 262f c37d e32e
00000010: 1760 402f f0fa 322d df7c fa2d e7b1 2e2e
00000020: 48fc 2530 b64c 3d2f 7bb7 2f2f c722 332f
00000030: 69d5 ae30 945d ce2f e716 6830 84eb e82f
00000040: 73e9 5530 3f1a b42c d4bf 942f 7e34 fd2e
00000050: a83a c62e 91d1 a02e 6b63 ad2e 9581 632e
00000060: 7391 492e 3f9f a92d 78da c52e 5bf6 f22d
00000070: 75c0 dc2f df81 f62d dcac 982e f2b2 3f2f
00000080: 66fe e62e 12fb c32e 223b 4f2e 97d9 c02e
00000090: 6c81 e32e 423f 522d 0726 132f 7b48 2e2e
000000a0: 79d4 1d2f e8b5 0f2e dd39 b62e 3c7c d12e
000000b0: 84d0 5830 93a8 572e fb69 2830 5fe0 172f
000000c0: a403 d52d 7906 862d 5dd1 cb2d 12de 8d2d
000000d0: 6970 be2f da73 d72e fbde 972f e1b9 132f
000000e0: 08eb 162f 394f 952d 44f0 032e 8357 2d2e
000000f0: 38cd 972f 3e35 a42f 2944 2230 c986 3a30
00000100: d501 5630 7d8a a12f b260 0230 7a71 2130
00000110: 680f 9a30 bd0c 7030 4b1f 0331 e4e1 9030
00000120: 054a 4831 5df9 ab30 08a6 b930 61d0 2f31
00000130: f03a 6d2f c82f 672d 4ba4 942e f1b2 872e
00000140: c23a 2c30 5be8 1b30 775a f130 7676 9b30
00000150: 8590 9f2d e409 dd2d b3ef b02e 0eb9 152e
00000160: e366 702e c5e0 462e f3f1 752e 88b4 022e
00000170: 6a8c f230 b04b 3630 95ac 5830 d93a 0e31
00000180: e0f9 5e2e 712f f22e e1b2 ca2f c4ec 592f
00000190: e28b 0830 926b b22f 256e 5730 3dc8 2e30
000001a0: a8a4 122f a7a6 5c2d 7336 fe2d 7a01 f62e
000001b0: 1a5c 512e 9fa5 c12d 0ff0 492f afad 072f
000001c0: c8d2 cd30 820c 8e30 f061 5831 8a57 3f31
000001d0: abce 352f 8bee db2e cd61 3c2f fafd 172f
000001e0: c215 4033 eb38 2d32 e51c d733 92e0 0c33
000001f0: 5eb6 0035 b966 3f32 e6f3 8034 da18 a333
00000200: 9611 9b33 b4e7 0832 9de5 5233 7d71 d232
00000210: 9bd7 1a34 00b3 b832 ef98 6534 2bb6 ca33
00000220: f1f9 6e34 e0aa 7531 032a 9733 c462 0233
00000230: f0ea 6e33 8b98 b331 6dfa 1733 3fb2 e932
00000240: 1d89 d531 81ed 6631 a73b 5032 173a 6b31
00000250: a118 9b33 09a1 bb31 9221 ab32 2143 1033
00000260: ea0f c533 f946 3c32 5d6e c433 a25b 5633
00000270: 68a5 1033 2266 5331 b2d2 2033 62b7 5a32
00000280: 9222 9733 7db6 e531 a6be 9b33 f341 2133
00000290: d77e 1534 40c8 6431 3156 ca33 88b0 8632
000002a0: 27a3 7733 c111 0032 42af 4b32 9f5f 4e32
000002b0: 3a1b 0534 40dd b132 39e3 1434 c70c bf33
000002c0: c09a e733 c831 ea31 3ec3 e732 cda3 d932

slow_buffer f4 [45, 4]
0.19261962 -0.031132607 0.16091332 -0.04141541 -0.13079023 0.025992535 -0.15197271 -0.018322818
-0.0779504 0.093129694 0.04047276 0.14696486 0.27963445 0.17667916 0.062923536 0.26931417
-0.25561547 -0.13144736 -0.005181703 0.15439534 0.028496755 0.16977054 0.31250322 -0.3272528
0.09792344 0.04563936 0.16034523 -0.3079458 -0.3117648 0.01740108 0.22055463 0.17992827
-0.23482238 -0.08695765 0.0750054 0.21229827 -0.058096714 -0.124871805 0.08797138 0.264336
-0.3678674 -0.23550908 0.25434452 0.2522928 0.012994563 -0.11391006 -0.070545316 -0.32399514
0.12474301 0.28466445 -0.28320563 0.011966289 -0.19158489 -0.052660726 -0.40903583 0.24882418
0.123892084 -0.1286417 0.04718182 -0.0038214978 -0.26527977 -0.11084697 -0.2269761 0.43640876
-0.07915971 -0.39863318 0.04993131 -0.07844991 -0.04499145 0.042275205 0.15871474 0.27204263
-0.13817294 0.036386106 -0.41405857 0.105223134 -0.12840709 0.016103795 -0.0008362995 -0.051475175
-0.41375798 0.08030606 0.21334743 -0.022014722 0.1944966 -0.17301145 -0.0823071 0.01950472
0.060126796 -0.14732264 0.25784922 0.14128631 -0.36802083 0.039269924 -0.37293166 0.4725206
0.04705759 0.17423193 0.0852316 0.14259079 -0.031184427 -0.010658782 -0.046778426 0.22554824
0.16957879 -0.11196806 -0.17324409 -0.009794071 0.14542556 0.23656651 -0.20055583 0.09428033
-0.13413084 0.08702473 -0.16635129 0.39226663 0.091137104 -0.10460244 0.24005722 0.04962591
0.0048236167 0.22577891 -0.40205926 0.41612273 -0.2558048 -0.22819725 -0.04533589 -0.037830688
0.10325022 0.018975621 0.38790733 0.012675434 0.15366592 0.26388317 -0.55020964 0.30619228
0.0204277 0.16124895 0.03019689 0.35802087 0.1975103 0.08020921 -0.4962504 -0.06315456
-0.32860982 -0.16248097 0.21926558 -0.07647452 -0.21542755 0.1751098 0.23258193 -0.13185327
-0.12838185 -0.088798866 0.5976348 0.016699754 -0.26330483 -0.31319243 0.3331697 -0.2714252
-0.09478171 0.026357386 0.3612883 -0.061224665 -0.007544632 0.097213686 -0.026279837 -0.12957235
0.0018242113 -0.041999288 0.3619567 0.29634312 -0.06327731 0.1687186 -0.5062696 0.448377
0.1485866 0.09379116 -0.061222766 0.12469405
00000000: 143e 453e cf09 ffbc 76c6 243e 34a3 29bd
00000010: e0ed 05be 4cee d43c bc9e 1bbe bc19 96bc
00000020: 76a4 9fbd c8ba be3d c4c6 253d f57d 163e
00000030: 3f2c 8f3e 62eb 343e 0ede 803d 8ce3 893e
00000040: 08e0 82be 239a 06be 46cb a9bb d019 1e3e
00000050: 0772 e93c 54d8 2d3e 6c00 a03e ae8d a7be
00000060: 168c c83d 56f0 3a3d 8a31 243e 12ab 9dbe
00000070: a39f 9fbe b68c 8e3c 13d9 613e 1e3f 383e
00000080: 4775 70be da16 b2bd 6e9c 993d b864 593e
00000090: d2f6 6dbd cabc ffbd 572a b43d 0c57 873e
000000a0: 1e59 bcbe 4b29 71be 7239 823e 862c 813e
000000b0: 26e7 543c ad49 e9bd 107a 90bd b1e2 a5be
000000c0: 4379 ff3d 8abf 913e 5400 91be 410e 443c
000000d0: d42e 44be c6b2 57bd 256d d1be c4cb 7e3e
000000e0: 22bb fd3d a6ba 03be b941 413d 1872 7abb
000000f0: c0d2 87be bc03 e3bd 6c6c 68be f870 df3e
00000100: 7c1e a2bd a619 ccbe c684 4c3d 59aa a0bd
00000110: f448 38bd c428 2d3d 1e86 223e 2c49 8b3e
00000120: 357d 0dbe 9909 153d 7cff d3be 3a7f d73d
00000130: 267d 03be 1bec 833c 1c3b 5bba a2d7 52bd
00000140: 16d8 d3be 8177 a43d c077 5a3e 3858 b4bc
00000150: 1e2a 473e ea29 31be a090 a8bd 5dc8 9f3c
00000160: 8447 763d bfdb 16be d004 843e 5cad 103e
00000170: 3a6d bcbe 80d9 203d e6f0 bebe 38ee f13e
00000180: 76bf 403d db69 323e e88d ae3d 5203 123e
00000190: 7c76 ffbc 2ca2 2ebc bc9a 3fbd 1ef6 663e
000001a0: 10a6 2d3e 834f e5bd e666 31be 5077 20bc
000001b0: 70ea 143e 7e3e 723e 825e 4dbe 0c16 c13d
000001c0: 9859 09be 063a b23d fe57 2abe 2cd7 c83e
000001d0: 17a6 ba3d ce39 d6bd 8fd1 753e 8a44 4b3d
000001e0: 6e0f 9e3b 9632 673e b6da cdbe 0a0e d53e
000001f0: d9f8 82be 8aac 69be 20b2 39bd 5af4 1abd
00000200: da74 d33d c372 9b3c ca9b c63e a0ac 4f3c
00000210: 995a 1d3e b21b 873e 8ada 0cbf 3cc5 9c3e
00000220: fe57 a73c 721e 253e 785f f73c 834e b73e
00000230: 2440 4a3e ba44 a43d 8814 febe 2e57 81bd
00000240: 8c3f a8be 6961 26be 2887 603e ac9e 9cbd
00000250: 0a99 5cbe fc4f 333e f529 6e3e 8b04 07be
00000260: 8876 03be 2edc b5bd 98fe 183f eccd 883c
00000270: e4cf 86be c25a a0be 3895 aa3e 3ef8 8abe
00000280: ea1c c2bd 72eb d73c c8fa b83e b7c6 7abd
00000290: f638 f7bb f817 c73d d048 d7bc 9dae 04be
000002a0: 601a ef3a 7207 2cbd 6352 b93e 49ba 973e
000002b0: 8997 81bd 92c4 2c3e e29a 01bf ac91 e53e
000002c0: 1627 183e 9415 c03d b9c4 7abd 985f ff3d

exp_avg f4 [45, 15]
-5.908846e-06 1.1604823e-06 3.2604923e-06 -7.732152e-06 -4.8314555e-06 -3.0078315e-06 2.5112664e-07 -4.142261e-06
8.555402e-06 1.0114417e-05 3.676392e-06 2.8905256e-06 5.2415476e-06 -7.6246815e-06 -1.9031571e-06 8.1276914e-07
-3.2486482e-06 -4.730464e-07 1.7393879e-06 -2.6625676e-07 2.7711471e-06 -2.317706e-06 -1.4804805e-06 -8.470689e-07
4.4747775e-08 -8.940354e-07 2.5632064e-06 1.7249586e-06 1.215589e-06 -1.344564e-06 -8.307959e-06 -2.1822902e-05
9.7685015e-06 -1.0584833e-05 -1.24262815e-05 1.3211733e-06 -1.9615283e-05 -1.4918487e-06 1.5170448e-05 1.1357667e-05
7.0160418e-06 3.587268e-05 -3.7068628e-06 -7.4693758e-06 4.918838e-06 -7.2940898e-06 9.818202e-06 4.0379646e-06
-1.4553232e-05 -1.1023325e-05 -9.657548e-06 3.9633337e-06 -8.617426e-06 1.6268372e-05 2.049532e-05 4.7026065e-06
4.922337e-06 1.0434444e-06 -1.566429e-05 1.5583271e-06 4.1616428e-07 -3.064042e-06 -2.886444e-07 1.1174744e-06
9.425446e-07 9.810673e-07 -2.6360494e-06 -4.1601814e-07 3.8207415e-07 8.704744e-09 -9.997947e-07 2.7355636e-06
6.3776884e-07 1.9718784e-07 -1.4001739e-08 -5.722021e-06 7.102974e-07 7.754563e-06 -1.2263871e-05 -7.680445e-06
-1.2186109e-05 1.2594897e-07 1.7132849e-06 1.2185318e-05 7.1307513e-06 5.681075e-06 1.408832e-05 -1.0267239e-05
-9.487165e-06 8.2172955e-06 1.4257487e-06 1.0570071e-06 -9.259289e-07 1.3882005e-06 -4.2832747e-07 5.7596895e-07
6.443515e-07 -6.010872e-07 -1.2807853e-06 -4.9228544e-07 -9.965244e-07 -5.335951e-07 -4.923324e-07 1.4025667e-06
-7.429772e-07 9.914554e-07 -1.4086968e-05 2.9028863e-06 2.722397e-06 -1.4924972e-06 2.7080816e-06 -1.1256941e-05
1.7607564e-06 4.4014928e-07 -2.3156329e-06 5.8039825e-07 1.6142938e-05 -3.8188914e-06 2.5867193e-06 2.1351507e-06
-2.3613225e-06 6.944339e-06 1.8649334e-06 -4.826875e-06 -7.595337e-06 -2.7069575e-06 -1.264868e-06 -7.6734905e-06
7.894513e-06 1.2604184e-05 -5.808076e-07 3.7980185e-06 -1.1950667e-06 -6.0013595e-06 1.1000967e-06 3.3665208e-06
-6.6781354e-06 -1.6175572e-06 5.9591457e-06 -1.4862436e-06 7.868117e-06 -4.6045393e-06 -5.747223e-07 -5.8331316e-06
-4.026153e-06 -2.9546034e-06 5.650606e-06 -7.6595876e-07 7.831052e-06 -2.134398e-06 4.3992545e-06 -2.0465814e-06
3.240678e-07 5.5705495e-06 -4.2370825e-06 2.5919257e-06 -4.822127e-06 -3.0498811e-06 -3.3173865e-06 -3.1747106e-07
-3.565341e-06 8.883493e-06 -6.922387e-06 4.26158e-06 2.2473878e-06 -1.6337017e-07 -2.9658684e-06 6.231393e-07
-1.8889328e-06 -5.6891354e-06 2.652419e-06 -2.274693e-06 -1.6112267e-06 1.8285376e-06 1.9081403e-06 1.2918732e-06
6.7089454e-06 -4.0719392e-09 4.1874392e-07 -8.344978e-07 3.0623642e-06 -4.3071036e-06 -2.4751207e-06 4.775734e-06
1.1728214e-06 5.8884034e-06 -3.6577853e-06 2.5939352e-07 -4.7375634e-06 -3.9913452e-06 -2.8660666e-06 3.4684708e-06
-2.8293916e-06 5.578521e-06 6.586683e-07 -7.3242372e-06 1.1466253e-06 2.9289208e-06 -5.7048223e-06 -8.7781314e-07
-1.8441845e-06 -3.915048e-06 -5.0949725e-06 1.0400797e-05 1.338446e-05 2.0123855e-06 -3.0372007e-06 9.968384e-06
-8.110888e-06 -3.9324054e-06 -2.3756554e-06 -9.4027e-06 4.427897e-06 -2.6247835e-06 -5.7470584e-07 -1.8817664e-06
-7.323036e-06 3.0035956e-06 4.7976732e-06 1.4313511e-07 3.4520733e-06 9.6111235e-06 -2.75567e-07 -2.0935247e-06
1.1162426e-06 -5.695762e-06 -3.0237896e-05 1.6567496e-05 -2.5724287e-07 9.892403e-06 -1.0905862e-05 -1.2549737e-05
1.9627461e-05 3.7922057e-06 -1.8366834e-05 9.813159e-06 2.1413009e-05 -9.7426155e-06 5.190887e-07 6.1311193e-06
-2.2449465e-06 8.025605e-06 8.72681e-07 -5.7614247e-06 -2.0546202e-06 -5.3353647e-06 6.2560975e-06 3.4640188e-06
1.2915508e-06 5.1847786e-07 3.1788888e-06 -4.755172e-06 -4.3626887e-06 -2.245369e-06 3.1522636e-06 2.1984955e-05
00000000: 9a44 c6b6 dec1 9b35 d5ce 5a36 57b9 01b7
00000010: e31d a2b6 27da 49b6 95d2 8634 c0fd 8ab6
00000020: 2c89 0f37 17b1 2937 efb7 7636 dafa 4136
00000030: 8de0 af36 84d7 ffb6 fb6f ffb5 122d 5a35
00000040: 5a03 5ab6 01f7 fdb4 ea74 e935 0df2 8eb4
00000050: f2f7 3936 e389 1bb6 ecb4 c6b5 2262 63b5
00000060: b330 4033 a5fd 6fb5 8d03 2c36 2085 e735
00000070: 5227 a335 de76 b4b5 6a62 0bb7 5310 b7b7
00000080: 65e3 2337 8395 31b7 797a 50b7 2b53 b135
00000090: 808b a4b7 883b c8b5 9484 7e37 cf8c 3e37
000000a0: 576b eb36 ff75 1638 6bc3 78b6 73a1 fab6
000000b0: 7f0c a536 c1bf f4b6 dbb8 2437 da7d 8736
000000c0: a829 74b7 d2f0 38b7 da06 22b7 c7fc 8436
000000d0: 9093 10b7 1078 8837 5ded ab37 15cb 9d36
000000e0: 8e2a a536 7a0c 8c35 ce66 83b7 b627 d135
000000f0: 2f6d df34 d79f 4db6 fcf6 9ab4 21fc 9535
00000100: 2c03 7d35 37ad 8335 fce6 30b6 1959 dfb4
00000110: df1f cd34 de8b 1532 af30 86b5 a094 3736
00000120: 2433 2b35 95ba 5334 4d8c 70b2 c9ff bfb6
00000130: 44ab 3e35 9819 0237 edc0 4db7 43db 00b7
00000140: f172 4cb7 973c 0734 05f4 e535 8b6f 4c37
00000150: b044 ef36 10a0 be36 e05c 6c37 7541 2cb7
00000160: 102b 1fb7 04dd 0937 5a5c bf35 7dde 8d35
00000170: 598d 78b5 3552 ba35 e1f4 e5b4 499c 1a35
00000180: 7ff7 2c35 665a 21b5 73e7 abb5 9925 04b5
00000190: 51c0 85b5 603c 0fb5 d328 04b5 d33f bc35
000001a0: 0171 47b5 2612 8535 1157 6cb7 35cf 4236
000001b0: 6db2 3636 d051 c8b5 7dbc 3536 32dc 3cb7
000001c0: 2153 ec35 a84d ec34 4566 1bb6 aacc 1b35
000001d0: b26a 8737 0724 80b6 8097 2d36 9c49 0f36
000001e0: 3677 1eb6 6b03 e936 a04e fa35 8af6 a1b6
000001f0: 73db feb6 2da9 35b6 89c4 a9b5 64bd 00b7
00000200: ad72 0437 8f76 5337 cbe8 1bb5 76e1 7e36
00000210: 2e66 a0b5 495f c9b6 09a7 9335 63ec 6136
00000220: bf14 e0b6 d81a d9b5 acf4 c736 f17a c7b5
00000230: 4e01 0437 b180 9ab6 9e46 1ab5 38ba c3b6
00000240: 6418 87b6 b347 46b6 569a bd36 499c 4db5
00000250: 1d62 0337 ae3c 0fb6 4f9d 9336 0058 09b6
00000260: 8afb ad34 a8ea ba36 432c 8eb6 f2f0 2d36
00000270: c1cd a1b6 8fac 4cb6 44a0 5eb6 e470 aab4
00000280: 1844 6fb6 500a 1537 da46 e8b6 b2fe 8e36
00000290: d4d1 1636 da6a 2fb4 3b09 47b6 ce45 2735
000002a0: 3d87 fdb5 4de5 beb6 3600 3236 eea6 18b6
000002b0: 5441 d8b5 136c f535 9a0d 0036 6d64 ad35
000002c0: 671d e136 28e9 8bb1 bacf e034 4102 60b5
000002d0: 0483 4d36 bd85 90b6 401a 26b6 3e3f a036
000002e0: d669 9d35 0095 c536 4678 75b6 c642 8b34
000002f0: 5cf7 9eb6 65ed 85b6 a656 40b6 e0c3 6836
00000300: 94e0 3db6 212f bb36 57cf 3035 b8c2 f5b6
00000310: bfe5 9935 7a8e 4436 0d6c bfb6 dca2 6bb5
00000320: b285 f7b5 025e 83b6 7bf5 aab6 157f 2e37
00000330: d18d 6037 850c 0736 b6d2 4bb6 e23d 2737
00000340: 0014 08b7 1bf3 83b6 736d 1fb6 4ac0 1db7
00000350: 5893 9436 7025 30b6 7c45 1ab5 0091 fcb5
00000360: 66b8 f5b6 6191 4936 b3fb a036 aeb0 1934
00000370: 2baa 6736 763f 2137 a4f1 93b4 7b7e 0cb6
00000380: ced1 9535 391e bfb6 63a7 fdb7 6dfa 8a37
00000390: 311b 8ab4 8cf7 2537 52f8 36b7 b68c 52b7
000003a0: a7a5 a437 997d 7e36 7a12 9ab7 32a3 2437
000003b0: 16a0 b337 3774 23b7 8157 0b35 eab9 cd36
000003c0: e3a7 16b6 b6a5 0637 2f42 6a35 4352 c1b6
000003d0: 1be2 09b6 6f06 b3b6 78eb d136 6477 6836
000003e0: 5959 ad35 872d 0b35 e554 5536 9e8e 9fb6
000003f0: 3663 92b6 25af 16b6 7a8b 5336 556c b837
