GRU_logs/lightning_logs/version_0/checkpoints/epoch=0-step=79.ckpt (torch, 70471 bytes, 40 tensors)

embeddings.embeddings.house_hold.weight f4 [2, 1]
0	0x00000000	0.0
1	0xbe53f642	-0.20699409

rnn.weight_ih_l0 f4 [45, 4]
0	0x3ea704de	0.326209
1	0xbe27fdab	-0.1640536
2	0xbc848d0c	-0.016180538
3	0x3e1e84e9	0.15480389
4	0xbd684f43	-0.056716215
5	0xbd9a91e2	-0.07547356
6	0xbe37fae0	-0.17966795
7	0x3d24708e	0.040146403
8	0xbe0033fa	-0.12519827
9	0x3e16d112	0.14728191
10	0xbe047d3b	-0.12938397
11	0x3e752698	0.23940504
12	0x3e8c7ff9	0.27441385
13	0xbb2acff1	-0.0026063884
14	0x3d447863	0.047966372
15	0x3ed7a8d6	0.42121
16	0xbe7ccd43	-0.24687676
17	0xbe3a3ce7	-0.18187295
18	0x3ce93b26	0.028470587
19	0x3e01327b	0.12616913
20	0x3d82bfbd	0.063842274
21	0xbc7d2115	-0.015449782
22	0x3ed9ed64	0.42563927
23	0xbec72e12	-0.38902336
24	0x3e4c5360	0.1995368
25	0xbb873a30	-0.0041268095
26	0x3d856769	0.065138645
27	0xbe8894b7	-0.2667596
28	0xbe62f1e8	-0.22162592
29	0xbe08b4eb	-0.13350265
30	0x3d90aae8	0.07063848
31	0x3e959e28	0.29222226
32	0xbe3346e0	-0.17507505
33	0xbe913ad9	-0.2836521
34	0x3e16d4e8	0.14729655
35	0x3eb2b400	0.34902954
36	0xbd1d79f8	-0.038446397
37	0xbe8730a2	-0.2640429
38	0x3c0592ad	0.008152646
39	0x3ee383bb	0.4443644
40	0xbe939581	-0.28825
41	0xbec8e680	-0.39238358
42	0x3e640b86	0.22270021
43	0x3ecd83cd	0.4013962
44	0x3de1735c	0.11008331
45	0xbdf2e873	-0.118607424
46	0xbe540461	-0.20704795
47	0xbe84798d	-0.25873986
48	0x3e449f2d	0.19201346
49	0x3dc7dc45	0.0975881
50	0xbe06cdc1	-0.13164426
51	0xbe0ea336	-0.13929448
52	0xbe7a7c9a	-0.24461594
53	0xbe444d9c	-0.1917023
54	0xbed734d1	-0.42032483
55	0x3ed1e145	0.4099218
56	0x3e383d34	0.17992097
57	0xbe471c1a	-0.19444314
58	0x3ccca721	0.024982037
59	0x3c324cd4	0.010882575
60	0xbed70a97	-0.42000267
61	0xbde8d2eb	-0.113683544
62	0x3de60d49	0.11233003
63	0x3ec8bb36	0.3920533
64	0xbbadd524	-0.0053049494
65	0xbeb40ff7	-0.3516843
66	0xbdcbb5d2	-0.09946789
67	0xbdcf8567	-0.10132866
68	0xbe1f9a6a	-0.15586248
69	0xbdffe39e	-0.124945864
70	0x3ea2e131	0.31812432
71	0xbddd54c5	-0.10807184
72	0xbe416d4e	-0.18889353
73	0xbd0d705e	-0.03453099
74	0xbce35559	-0.027750658
75	0x3d9ba9df	0.0760076
76	0xbe23e1f1	-0.16004159
77	0x3c6757b0	0.014120027
78	0x3c0f59b3	0.008749413
79	0xbca656e8	-0.020305112
80	0xbeea45eb	-0.45756468
81	0xbd7714bb	-0.060322504
82	0x3eeb69e3	0.45979223
83	0xbee32885	-0.4436685
84	0x3eaf22f3	0.34206352
85	0xbeb5b429	-0.35489014
86	0xbd295ffd	-0.041351307
87	0x3cf84ea1	0.03031093
88	0xbdb79d05	-0.08965496
89	0xbe954fcc	-0.29162443
90	0x3ee45ab2	0.44600445
91	0xbe0f290e	-0.13980505
92	0xbeda4f30	-0.4263854
93	0xbe462224	-0.19348961
94	0x3d89fa61	0.06737209
95	0x3d5ae0b6	0.053436957
96	0xbdb0cccb	-0.08632811
97	0x3d82ee70	0.063931346
98	0x3ec3aaad	0.38216153
99	0xbe8119f7	-0.25215122
100	0xbde9cfac	-0.114165634
101	0xbe830306	-0.25588244
102	0x3e86cbc4	0.26327336
103	0xbe3bf5ce	-0.18355486
104	0x3dad78f2	0.08470334
105	0x3a722565	0.00092371396
106	0xbe60d697	-0.2195686
107	0x3d61aeb1	0.05509824
108	0xbd2ec1b2	-0.04266519
109	0x3ec24b01	0.37947848
110	0xbe66e64c	-0.22548789
111	0x3e22cd4f	0.15898632
112	0xbe279a17	-0.16367374
113	0xbe25830a	-0.16163269
114	0x3e50fde4	0.20409352
115	0xbc2ff1e9	-0.010738828
116	0xbe6a49ea	-0.22879758
117	0xbd9fa8dc	-0.07795879
118	0x3ec8c2d6	0.39211148
119	0xbc694b15	-0.014239092
120	0xbd9bc9cb	-0.07606848
121	0x3da43a61	0.080189474
122	0xbead4f39	-0.33849505
123	0x3ed359d8	0.41279483
124	0xbe9eb550	-0.30997705
125	0xbc98c796	-0.018649857
126	0xbd35e149	-0.0444043
127	0xbdb9f5f8	-0.09080118
128	0x3e2e5180	0.17023277
129	0xbbc57d1e	-0.006026878
130	0x3ed6fc0c	0.41989172
131	0xbad1840a	-0.0015984785
132	0x3d136a1d	0.03598987
133	0x3da6949c	0.08133814
134	0xbecc21a8	-0.39869428
135	0x3e885d40	0.26633644
136	0xbcc526be	-0.024066325
137	0x3e40f397	0.18842922
138	0x3da88c9a	0.082299426
139	0x3e9a8ac9	0.3018401
140	0x3df1b27d	0.11801622
141	0xbc926fd6	-0.017875593
142	0xbee17a28	-0.4403851
143	0xbc9530ce	-0.018211748
144	0xbe930376	-0.28713578
145	0xbd231596	-0.039815508
146	0x3d93b9a0	0.072131395
147	0x3d4f22af	0.050570186
148	0xbe816195	-0.25269762
149	0x3e72e2eb	0.23719375
150	0x3e51b7de	0.20480296
151	0xbdf122da	-0.117742255
152	0xbd45105d	-0.04811131
153	0xbd385b93	-0.045009207
154	0x3f022760	0.5084133
155	0x3d154a1b	0.036447626
156	0xbe7ce3d4	-0.24696285
157	0xbdc28ad7	-0.09499138
158	0x3e9bbc36	0.3041703
159	0xbec28c2d	-0.3799757
160	0xbab816f8	-0.0014044931
161	0x3df26bc3	0.1183696
162	0x3e836a03	0.25666818
163	0x3cfa6440	0.030565381
164	0x3dd4055b	0.10352584
165	0xbda4676c	-0.08027539
166	0xbe1a1b4b	-0.15049474
167	0xbd4fc1d8	-0.050721973
168	0x3e4cb406	0.19990548
169	0x3d00cccf	0.03144532
170	0xbd82ba81	-0.06383229
171	0x3ec01232	0.37513882
172	0xbe13b235	-0.1442345
173	0x3dd6a60e	0.10480891
174	0xbeabfa10	-0.3358922
175	0x3eda133c	0.425928
176	0x3dd457a2	0.10368277
177	0x3def3363	0.11679723
178	0xbd9a8e4c	-0.07546672
179	0x3e140059	0.14453258

rnn.weight_hh_l0 f4 [45, 15]
0	0x3eb843af	0.35989138
1	0xbd5c0af8	-0.053721398
2	0xbed2df35	-0.41185918
3	0x3de9fc81	0.114251144
4	0x3d30d59d	0.043172467
5	0x3cc43b1e	0.02395397
6	0x3debc780	0.11512661
7	0x3cb9b76e	0.022670474
8	0xbed3f5c8	-0.41398454
9	0x3cf36c01	0.029714586
10	0xbe5dc900	-0.21658707
11	0xbcfd724a	-0.030938286
12	0x3e710e23	0.23540549
13	0x3ecb34fb	0.39688858
14	0x3e87bb99	0.26510313
15	0x3e9cb58a	0.30607253
16	0x3e4b3eff	0.1984825
17	0x3d8b55ef	0.068035
18	0x3d2cbbcc	0.042171285
19	0x3e133d3d	0.1437883
20	0x3e956fd2	0.29186875
21	0xbd8c4a81	-0.06850148
22	0xbe1d3858	-0.15353525
23	0xbddf89c2	-0.10914947
24	0x3d05a685	0.03262951
25	0xbd9e92ee	-0.07742868
26	0xbdb4f86e	-0.08836447
27	0x3e146806	0.14492807
28	0x3d04f3a8	0.03245893
29	0xbd1b88cf	-0.037972268
30	0xbe8bebb4	-0.27328265
31	0xbe0fab26	-0.14030132
32	0x3e521182	0.20514491
33	0xbe8b21b7	-0.2717416
34	0x3dd79667	0.10526734
35	0xbe7b548b	-0.2454397
36	0x3e19b220	0.15009356
37	0x3e308869	0.17239536
38	0x3de910bb	0.11380144
39	0x3d6c3b54	0.057673767
40	0x3e4aaab5	0.19791682
41	0xbe98d87f	-0.29852673
42	0xbe98df0f	-0.2985768
43	0x3dffdd94	0.124934345
44	0xbb82fdeb	-0.0039975545
45	0x3dd34be2	0.10317208
46	0x3e9d7aec	0.30757844
47	0xbe946656	-0.28984326
48	0x3eb464af	0.35233065
49	0xbdc9905d	-0.09841988
50	0x3e60b3b8	0.21943557
51	0x3ea9dad2	0.3317476
52	0xbdf47887	-0.11937051
53	0xbf007d9d	-0.5019167
54	0xbe00d3e1	-0.12580825
55	0xbed0365c	-0.40666473
56	0xbe49b112	-0.19696453
57	0xbe8c198e	-0.27363247
58	0xbc47db0d	-0.012198222
59	0x3db30ec1	0.087430485
60	0xbe3e20fa	-0.18567267
61	0xbd84bb64	-0.064810544
62	0x3da1ca7f	0.07899951
63	0x3cd40d98	0.025885388
64	0xbd9129ce	-0.07088052
65	0x3e044076	0.12915215
66	0x3d754ae5	0.059885878
67	0x3d965511	0.07340444
68	0xbe073644	-0.13204294
69	0xbe4f6ead	-0.20257063
70	0x3d91dc28	0.071220696
71	0xbe0c5ba0	-0.13706827
72	0x3d810c66	0.06301193
73	0x3e251cda	0.16124287
74	0xbdc34f3d	-0.09536598
75	0xbe3f721d	-0.18695875
76	0xbe441f18	-0.19152486
77	0x3e9169ea	0.2840112
78	0x3dbc73f8	0.09201807
79	0xbdae0e2a	-0.08498795
80	0x3bcf8efa	0.006334183
81	0x3e5bb98f	0.21457504
82	0xbd8cae61	-0.06869198
83	0x3d2bd4f7	0.041951146
84	0xbe59cab2	-0.21268728
85	0x3e6a45e2	0.2287822
86	0x3db92305	0.090398826
87	0x3e5b9edc	0.21447319
88	0xbe229a46	-0.15879163
89	0x3ce989a0	0.028508008
90	0xbd576baa	-0.05259291
91	0xbc7e393a	-0.015516574
92	0x3d6815ac	0.056661293
93	0x3ce7d7e0	0.02830118
94	0x3d56ae96	0.052412592
95	0x3cce17a7	0.025157763
96	0x3e53e57a	0.20693007
97	0x3ba50a05	0.005036595
98	0xbcc94b36	-0.024571996
99	0x3dbeb982	0.093127266
100	0xbead9807	-0.3390505
101	0x3e05d720	0.13070345
102	0xbd07c2e9	-0.033144865
103	0x3eaca0d1	0.33716443
104	0x3e5c8234	0.21534044
105	0x3e32970a	0.1744043
106	0xbda5f449	-0.08103234
107	0x3d042354	0.032260254
108	0xbb108828	-0.0022053812
109	0xbea641bd	-0.3247203
110	0x3d931f78	0.071837366
111	0x3e26798f	0.16257308
112	0xbe3e347f	-0.18574713
113	0xbd4214bc	-0.047383055
114	0x3bd64a3f	0.0065396125
115	0xbea4ed55	-0.3221232
116	0xbc1a8127	-0.009430206
117	0xbdabf088	-0.08395487
118	0x3dcd1f1a	0.10015698
119	0xbdb9356d	-0.09043393
120	0x3ed4a99d	0.41535655
121	0x3e0cb4fb	0.13740914
122	0xbdb07a5a	-0.08617087
123	0x3d583b93	0.05279119
124	0x3e105779	0.14095868
125	0x3d3a81b9	0.04553387
126	0xba2c1e21	-0.0006565769
127	0xbe0674ae	-0.13130447
128	0xbdefc9d9	-0.11708421
129	0xbe8b3f28	-0.27196622
130	0xbda77605	-0.08176807
131	0x3d26e63c	0.040746912
132	0x3e45db55	0.1932195
133	0x3e803d55	0.25046793
134	0xbd908fed	-0.07058702
135	0x3e88e1a4	0.2673465
136	0x3eac9f4e	0.3371529
137	0xbe51f2b7	-0.20502745
138	0x3dd7374b	0.10508593
139	0xbe0af090	-0.1356833
140	0x3ebfde95	0.37474504
141	0x3eb856fa	0.36003858
142	0xbc7641e0	-0.015030354
143	0xbef7f021	-0.4842539
144	0xbe18afbf	-0.14910792
145	0xbd0b8ff7	-0.034072842
146	0x3e27b7fa	0.16378775
147	0xbc1f0707	-0.009706265
148	0x3e3fe259	0.18738689
149	0x3e6ade77	0.22936426
150	0x3e2c715e	0.16840121
151	0x3cb50a63	0.02209968
152	0xbeb0ccf9	-0.34531382
153	0x3e1df56e	0.15425655
154	0xbe15cd0a	-0.14628997
155	0x3e2d523c	0.16925901
156	0x3e7024c2	0.23451522
157	0xbe83d2ae	-0.25746673
158	0x3dcab710	0.09898198
159	0xbe7563a4	-0.23963791
160	0xbe2646a3	-0.16237883
161	0xbddd58a3	-0.10807922
162	0xbe1953f3	-0.1497343
163	0xbdfe7ca6	-0.124261186
164	0xbe1d3405	-0.15351875
165	0xbe649f18	-0.22326314
166	0xbe89c626	-0.26908988
167	0xbe753ad7	-0.23948227
168	0x3e4d7d12	0.20067242
169	0x3cb9ff66	0.022704791
170	0xbe4fe7c5	-0.20303257
171	0xbe3fda5b	-0.1873564
172	0x3d8dd598	0.069255054
173	0x3e17e6ef	0.14834188
174	0x3de819da	0.11333056
175	0xbe22cf99	-0.15899505
176	0xbc8e0eee	-0.017341103
177	0xbdab1006	-0.083526656
178	0x3de765c4	0.11298707
179	0xbd04f2cc	-0.03245811
180	0xbe2d5388	-0.16926396
181	0x3ceb1ce3	0.028700298
182	0xbe378868	-0.17923129
183	0xbe765e13	-0.24059324
184	0xbe545e08	-0.20738995
185	0x3cc7f0c7	0.024406804
186	0xbd97f6e3	-0.07420137
187	0x3d83b4a5	0.064309396
188	0x3e8e382b	0.27777228
189	0x3cce236a	0.025163371
190	0xbe37ec60	-0.17961264
191	0x3e14b7fe	0.14523312
192	0x3d96c220	0.07361245
193	0xbe884976	-0.26618546
194	0xbe740d1b	-0.23833124
195	0xbe0ca4a8	-0.13734686
196	0x3e6607bb	0.22463886
197	0xbe25b57c	-0.16182512
198	0x3c2eae33	0.0106616495
199	0xbe8e386f	-0.2777743
200	0x3e24b6ab	0.16085307
201	0x3e631fbc	0.22180074
202	0xbea83ef6	-0.32860535
203	0x3bd36721	0.006451503
204	0xbdc7434e	-0.09729634
205	0xbdd6e5db	-0.1049306
206	0xbe750b42	-0.23930076
207	0xbe931ee6	-0.2873451
208	0x3e6cb48a	0.23115745
209	0xbd8ae191	-0.06781305
210	0x3e7cce19	0.24687995
211	0x3cc6b899	0.024257945
212	0xbca50f00	-0.020148754
213	0x3d8901c5	0.06689791
214	0xbe564fea	-0.20928922
215	0xbe742089	-0.23840536
216	0x3e145cf5	0.14488585
217	0xbde1f550	-0.11033118
218	0xbd682050	-0.05667144
219	0xbe53f62d	-0.20699377
220	0x3cdf6f71	0.02727482
221	0xbc947422	-0.018121783
222	0x3d0d0ddf	0.034437057
223	0x3cf3ed77	0.029776318
224	0xbe69bda7	-0.22826253
225	0x3d746c80	0.059673786
226	0x3de0049c	0.10938379
227	0xbe289495	-0.1646293
228	0x3e050ee4	0.12993962
229	0xbddeba19	-0.10875339
230	0x3e83180e	0.2560429
231	0x3e6851b6	0.2268742
232	0xbe56bdc2	-0.20970824
233	0xbdc02997	-0.09382933
234	0x3d2e4fad	0.042556453
235	0xbdd105b9	-0.1020617
236	0xbe4c69f8	-0.19962299
237	0xbedfb04e	-0.43689197
238	0x3eb3f675	0.3514897
239	0x3e7a4f4c	0.24444312
240	0x3e2f0d24	0.17094857
241	0x3cac82d9	0.021058487
242	0xbd9e398b	-0.07725819
243	0xbe8d74a0	-0.2762804
244	0xbe0ed54e	-0.13948557
245	0x3c8b6e47	0.017020358
246	0x3da489ad	0.08034072
247	0x3bc94202	0.006141902
248	0x3edd4f2e	0.43224472
249	0x3cb9cfcd	0.022682095
250	0xbd906141	-0.070498
251	0x3ed139b0	0.40864325
252	0x3e5e5c4e	0.21714899
253	0xbdb610f9	-0.08889956
254	0x3d2da131	0.042390052
255	0xbcdbd169	-0.026833253

rnn.bias_ih_l0 f4 [45]
0	0xb9ab4b7e	-0.00032671908
1	0xbe7f170e	-0.24911138
2	0xbe161312	-0.14655712
3	0x3e20c0db	0.15698569
4	0xbe3af7e0	-0.1825862
5	0x3e97f9d6	0.29682797
6	0x3e98722e	0.29774612
7	0x3da9a9ee	0.08284365
8	0xbe10b4f9	-0.14131536
9	0xbe80a5d3	-0.25126514
10	0xbd9b232a	-0.075750664
11	0xbc650210	-0.0139775425
12	0x3dbde36e	0.092718944
13	0xbdf1eaae	-0.1181234
14	0xbe1429d9	-0.14469089
15	0xbe593b75	-0.21214087
16	0x3cf03866	0.029323768
17	0x3d853d06	0.0650578
18	0xbe8c87da	-0.27447397
19	0x3e3792c2	0.17927077
20	0xbdf811cb	-0.12112769
21	0x3ec9c518	0.39408183
22	0x3e94d22e	0.29066604
23	0xbe1d3a04	-0.15354162
24	0xbe700a19	-0.23441352
25	0xbe9717d5	-0.2951037
26	0xbe640212	-0.22266415
27	0xbe8612d0	-0.26186228
28	0xbf0807f8	-0.5313716
29	0x3da7d88a	0.081955984
30	0x3de4bb9c	0.11168596
31	0xbe8c2107	-0.27368948
32	0xbc0f55f4	-0.00874852
33	0x3c8fe38e	0.017564561
34	0xbcfaa250	-0.030594975
35	0xbbe5cada	-0.007012707
36	0xbe63ec34	-0.22258073
37	0x3e852ffc	0.26013172
38	0x3e2a168b	0.16610162
39	0x3e685926	0.22690257
40	0x3d27da87	0.04097989
41	0x3e4a14bd	0.19734474
42	0x3e5b18cb	0.21396177
43	0x3daab681	0.08335591
44	0xbe32b154	-0.17450458

rnn.bias_hh_l0 f4 [45]
0	0x3d7548f6	0.059884034
1	0xbda60822	-0.0810702
2	0xbe990783	-0.29888543
3	0xbe677337	-0.22602545
4	0x3d3f0f17	0.04664525
5	0x3e3ca0ba	0.18420687
6	0x3cb0f4f9	0.021601187
7	0xbdf89cf8	-0.121393144
8	0xbe83b0c5	-0.25720802
9	0x3df7e1f5	0.12103645
10	0xbd4ba1f9	-0.049715016
11	0x3ea761dd	0.3269185
12	0x3eb29900	0.34882355
13	0xbecddac6	-0.40205973
14	0xbe736cef	-0.23772024
15	0xbec75a8a	-0.38936263
16	0x3f01dde0	0.5072918
17	0xbd88282c	-0.06648287
18	0xbefef7cb	-0.49798426
19	0x3e4be7ee	0.19912693
20	0xbe9583bb	-0.29202065
21	0x3eb1feb8	0.34764647
22	0xbe3faef0	-0.18719077
23	0xbf194777	-0.5987467
24	0xbdbfc7aa	-0.09364255
25	0xbe8a6694	-0.27031386
26	0x3dbcbae6	0.092153355
27	0x3c61d15e	0.013782827
28	0xbe78f24f	-0.24311183
29	0x3e87b74a	0.26507026
30	0xbd15ad51	-0.03654224
31	0xbd8983d2	-0.06714596
32	0x3cf34529	0.029696064
33	0xbcb4b22e	-0.022057619
34	0x3dd3948f	0.1033107
35	0xbe22d5a8	-0.15901816
36	0x3e7e1683	0.24813275
37	0xbd4c82dd	-0.04992949
38	0xbd9994b7	-0.07499068
39	0xbe5f8743	-0.21828942
40	0xbd84c32f	-0.06482541
41	0x3ebd9469	0.3702729
42	0xbd271062	-0.04078711
43	0x3d08d68d	0.033407737
44	0xbe291a14	-0.16513854

rnn.weight_ih_l1 f4 [45, 15]
0	0xbe84a7ba	-0.25909215
1	0xbe4ea066	-0.20178375
2	0x3e4d668b	0.20058648
3	0xbdd66925	-0.104692735
4	0x3e657503	0.22407918
5	0xbe98996c	-0.29804552
6	0xbdd25ed4	-0.10271993
7	0x3e8c1164	0.27357018
8	0xbdeaf0c8	-0.11471707
9	0x3e727639	0.23677911
10	0xbdac688c	-0.08418378
11	0x3d70f665	0.05882873
12	0xbd9f51b3	-0.07779255
13	0xbd9897df	-0.07450842
14	0xbe6c4bdb	-0.23075812
15	0x3e968705	0.29399887
16	0x3d8fa6d7	0.07014244
17	0xbdef9951	-0.11699165
18	0xbd46f62e	-0.04857462
19	0x3e7bd042	0.24591163
20	0xbd2d1ffb	-0.042266827
21	0x3d09a155	0.033601124
22	0xbda136ff	-0.07871818
23	0xbe9f9208	-0.311661
24	0x3da7a7ca	0.081863
25	0xbdc573a0	-0.09641194
26	0x3b73b63c	0.0037187478
27	0x3e939264	0.28822625
28	0x3ebd8584	0.37015927
29	0xbdf278a0	-0.11839414
30	0x3e5bbbb4	0.21458322
31	0xbe10a70a	-0.1412622
32	0xbee083b0	-0.4385047
33	0x3e028eff	0.12749861
34	0x3d191333	0.037371825
35	0x3d8f2b9b	0.06990739
36	0x3d264c5e	0.040600173
37	0xbec3c2e0	-0.38234615
38	0xbd70d221	-0.058794145
39	0xbe1e5316	-0.15461382
40	0xbd0905b9	-0.033452723
41	0xbdcb3219	-0.09921665
42	0xbe169d6b	-0.14708488
43	0x3d92e83a	0.071732
44	0x3ebd9b49	0.37032536
45	0x3ddc680d	0.107620336
46	0x3dd4fa71	0.103993304
47	0xbe64696e	-0.22305843
48	0xbcd78a57	-0.026311083
49	0x3d0819e5	0.03322782
50	0x3db8ad1d	0.09017394
51	0x3d07cc69	0.033153925
52	0xbe788c6a	-0.24272314
53	0x3d6bdcce	0.057583623
54	0x3df2f607	0.11863332
55	0xbce322c3	-0.027726537
56	0x3e370571	0.1787317
57	0xbc431b2c	-0.011908334
58	0x3b67a691	0.0035347084
59	0x3e9e7f92	0.30956703
60	0xbe674339	-0.22584237
61	0xbe9a18d2	-0.3009706
62	0x3e4ea46a	0.20179906
63	0xbd10db65	-0.03536548
64	0xbe271438	-0.16316307
65	0xbe7914bb	-0.24324314
66	0xbdeca5f2	-0.11555089
67	0x3d3bb0cf	0.045822915
68	0x3e11d5ed	0.14241762
69	0x3e9fc683	0.3120614
70	0x3ee45410	0.44595385
71	0xbe0dfb69	-0.13865437
72	0x3c86f4c2	0.016474131
73	0x3dd4ad40	0.10384607
74	0xbdea2fee	-0.11434923
75	0xbe00e80b	-0.12588517
76	0x3cb4f0f2	0.022087548
77	0xbe008015	-0.1254886
78	0x3e6bf467	0.23042451
79	0xbe68e6e9	-0.22744335
80	0x3d97d069	0.07412798
81	0xbe2709a3	-0.1631227
82	0xbe2db734	-0.16964418
83	0x3db02e84	0.08602622
84	0x3e2fa2f4	0.17152005
85	0x3e46a4b2	0.19398764
86	0x3e5ac0e9	0.21362652
87	0xbd3a3d66	-0.04546871
88	0xbdf52b78	-0.11971182
89	0xbdb542fc	-0.08850667
90	0xbea87e28	-0.3290875
91	0xbe5e20ae	-0.21692154
92	0x3e0f84fe	0.14015576
93	0xbed24613	-0.41069087
94	0xbd565ff6	-0.05233761
95	0xbee99149	-0.45618656
96	0xbd4d0c27	-0.050060418
97	0x3de644d1	0.112435944
98	0x3d915f39	0.070982404
99	0x3d24cfa6	0.04023709
100	0x3e7acd25	0.24492319
101	0x3e2855b3	0.16438942
102	0x3d74f07a	0.05979965
103	0xbec47222	-0.38368326
104	0xbe39589f	-0.18100213
105	0x3e926fe8	0.28601003
106	0xbdea1d0e	-0.11431323
107	0xbd42ed05	-0.04758932
108	0x3e003914	0.12521774
109	0xbe6b1276	-0.22956261
110	0xbd2cfe3e	-0.04223465
111	0x3e542d52	0.20720413
112	0xbe00990d	-0.12558384
113	0x3dd9b897	0.10630911
114	0xbe0729d1	-0.13199545
115	0xbd798e55	-0.060926754
116	0x3deecb6d	0.11659894
117	0xbdfeb814	-0.12437454
118	0x3e7ef6a3	0.24898772
119	0x3e4e2f45	0.2013522
120	0x3d9bdd2b	0.07610544
121	0x3e3017c2	0.17196563
122	0x3c73f8ea	0.014890889
123	0x3ba0de75	0.0049093314
124	0xbe0bc1f7	-0.1364821
125	0x3e1a14d7	0.15047012
126	0xbe2abb15	-0.16672929
127	0x3e046f02	0.12932971
128	0xbdc34a26	-0.09535627
129	0x3d6e9fd1	0.05825788
130	0x3e8dae0d	0.27671853
131	0x3da0896b	0.078387104
132	0xbe02f8ed	-0.1279027
133	0x3d18bb40	0.03728795
134	0x3c250e7f	0.010074257
135	0x3dcbd9b3	0.09953632
136	0xbd9062ff	-0.07050132
137	0xbe4a3ded	-0.19750185
138	0x3d6bf2d9	0.057604644
139	0xbe3c6974	-0.18399602
140	0x3c534a73	0.012896168
141	0xbe04adc7	-0.12956916
142	0x3d680e1a	0.056654073
143	0x3de7f3b4	0.113257796
144	0xbda91dd7	-0.082576446
145	0xbde792c1	-0.11307288
146	0xbde51cda	-0.111871436
147	0x3e66a614	0.22524291
148	0x3d80cac0	0.062886715
149	0xbd3b08fb	-0.04566286
150	0xbeccd325	-0.4000484
151	0xbe109a15	-0.14121278
152	0x3d7891be	0.060685866
153	0xbe44bff6	-0.19213852
154	0xbe8416f7	-0.2579877
155	0xbe27d1a0	-0.1638856
156	0x3d92166d	0.07133184
157	0x3ed34f75	0.41271558
158	0x3e248adb	0.16068594
159	0x3e6c67d5	0.23086484
160	0x3e86821e	0.26271147
161	0xbe67b7a3	-0.22628646
162	0x3d8fce62	0.07021786
163	0x3dc34b28	0.09535819
164	0xbd9d060e	-0.076671705
165	0xbe58f88e	-0.21188566
166	0x3dafe3ec	0.085883945
167	0xbd400973	-0.04688401
168	0xbe9ff7af	-0.31243655
169	0xbe5eb433	-0.21748428
170	0xbe6ad827	-0.22934018
171	0xbd2bc5a7	-0.041936543
172	0xbe05e251	-0.13074614
173	0x3e8c06a7	0.27348825
174	0x3bf2c6b7	0.0074089426
175	0xbe62a3fa	-0.22132865
176	0xbe042b1e	-0.12907073
177	0xbccee8a8	-0.025257424
178	0xbe90e8d2	-0.28302628
179	0x3d905b43	0.07048657
180	0x3ea680b2	0.32520062
181	0xbdb0f479	-0.086403795
182	0xbdefc45e	-0.11707376
183	0x3abad62e	0.0014254504
184	0xbdd8f2f1	-0.105932124
185	0xbe2671a7	-0.16254292
186	0x3ea1d1c6	0.31605357
187	0x3e0cb30d	0.13740177
188	0x3d7d6048	0.0618594
189	0xbe7a8887	-0.24466144
190	0x3d3f0209	0.0466328
191	0xbcab4356	-0.020906132
192	0xbc5f56a6	-0.013631498
193	0x3e311742	0.17294028
194	0xbdc59d8f	-0.096491925
195	0xbd72a7fa	-0.059242226
196	0x3c486a7f	0.012232422
197	0x3de6d28a	0.11270626
198	0xbe970cd8	-0.29501987
199	0x3e491ab3	0.19639091
200	0x3d2e754c	0.04259233
201	0xbcac9267	-0.021065904
202	0xbdf83686	-0.121197745
203	0x3d9f5650	0.07780135
204	0xbe337d34	-0.1752823
205	0x3dcc1e53	0.099667214
206	0xbea52da6	-0.3226139
207	0xbe3accd6	-0.18242201
208	0xbe1eae32	-0.15496138
209	0x3d960165	0.07324485
210	0xbd12c0a1	-0.035828236
211	0x3e962408	0.29324365
212	0x3daaa544	0.08332303
213	0xbd9bb1f9	-0.07602305
214	0xbdc5d05a	-0.096588805
215	0x3e0c238d	0.13685437
216	0xbdd3f018	-0.103485286
217	0x3e56d4cc	0.20979613
218	0x3d73c074	0.05950971
219	0x3e8001b7	0.25001308
220	0xbdd660b2	-0.10467662
221	0x3d459b1c	0.048243627
222	0xbe10c027	-0.141358
223	0xbe2bf801	-0.16793825
224	0x3e356476	0.17714104
225	0x3cd27873	0.0256922
226	0xbc9df7f7	-0.019283278
227	0x3d625b22	0.055262692
228	0xbd8d168b	-0.06889065
229	0x3c968654	0.0183746
230	0x3dede797	0.11616438
231	0xbe1aab03	-0.15104298
232	0x3e03c5c2	0.12868407
233	0xbdb02f6a	-0.086027935
234	0xbdb3a46c	-0.08771595
235	0xbe7ceec9	-0.24700464
236	0x3dff53bd	0.12467144
237	0x3e1f0905	0.15530784
238	0xbe52882d	-0.2055976
239	0x3e766915	0.24063523
240	0x3ca8b98b	0.020596286
241	0x3e9fb645	0.31193748
242	0x3e891551	0.26774076
243	0xbd400051	-0.0468753
244	0xbe8ac6ee	-0.27104896
245	0xbecd48cf	-0.4009461
246	0x3ee5fb3f	0.44918248
247	0xbd8b8608	-0.06812674
248	0x3c500d37	0.012698463
249	0x3d7bfce3	0.06152047
250	0x3ac18346	0.0014763854
251	0xbe8c88ed	-0.27448216
252	0x3dc9d0c2	0.098542705
253	0x3d8fd891	0.07023729
254	0x3e4726b0	0.19448352
255	0xbe2a8148	-0.1665088

rnn.weight_hh_l1 f4 [45, 15]
0	0x3dbabb45	0.0911775
1	0xbcd8f81c	-0.026485495
2	0xbda68fc7	-0.08132892
3	0x3de736fe	0.11289786
4	0x3e800a41	0.25007823
5	0xbdd851dd	-0.10562489
6	0xbe2c8644	-0.16848093
7	0x3d5ef305	0.05443098
8	0xbcd28630	-0.025698751
9	0xbdf22e0d	-0.1182519
10	0xbe143f3c	-0.14477247
11	0xbe0de914	-0.13858443
12	0xbd9f6b53	-0.07784142
13	0xbe36ab60	-0.17838812
14	0xbd92699e	-0.07149051
15	0x395ee6db	0.0002125757
16	0xbded775f	-0.11595034
17	0x3e54132d	0.2071044
18	0xbd2236d0	-0.039603055
19	0xbe31ee45	-0.17376049
20	0xbd97c5cc	-0.07410774
21	0xbe88d946	-0.26728266
22	0xbb3f6b5e	-0.0029208283
23	0xbd292fde	-0.041305415
24	0xbae0af7c	-0.0017142142
25	0x3e57c29f	0.21070336
26	0x3ea2e1bc	0.31812847
27	0x3df9415f	0.12170672
28	0x3ea43599	0.32072142
29	0xbe5a743d	-0.21333404
30	0xbd6da3b3	-0.058017444
31	0x3dcdb219	0.10043735
32	0xbdb79a96	-0.08965032
33	0x3db8c9e7	0.09022885
34	0x3d8db08b	0.069184385
35	0xbd168dd1	-0.03675634
36	0xbe9bc0b4	-0.30420458
37	0x3ebc4c92	0.3677717
38	0xbe595ab7	-0.21226011
39	0xbd3110ec	-0.04322903
40	0xbe20fee4	-0.15722233
41	0x3e628c97	0.22123943
42	0xbdddcc9a	-0.1083004
43	0x3e13be24	0.14428002
44	0x3e0f3475	0.13984855
45	0xbdc6889f	-0.09694027
46	0x3e0c996d	0.13730402
47	0xbd386ab0	-0.04502362
48	0x3e82eee9	0.255729
49	0xbea8ad27	-0.32944605
50	0x3ece8342	0.40334517
51	0x3d7c6ba1	0.06162608
52	0x3e026b6f	0.12736295
53	0xbe96644e	-0.293734
54	0x3e041ed8	0.12902391
55	0x3ca8b277	0.020592911
56	0x3dfde6f2	0.12397565
57	0xbdd339e3	-0.103137754
58	0x3ddd2618	0.107982814
59	0xbbd2663d	-0.006420879
60	0x3de8a7d9	0.113601394
61	0xbe0dc04b	-0.13842885
62	0xbe62a5ea	-0.22133604
63	0xbe541639	-0.20711602
64	0xbdd5def4	-0.104429156
65	0x3d78f386	0.060779117
66	0x3e903ca5	0.28171268
67	0xbe47ac4d	-0.19499321
68	0xbe142c81	-0.14470102
69	0x3d5844ba	0.052799918
70	0xbe21a0ad	-0.15783949
71	0xbe98ad0b	-0.2981952
72	0xbd9e050f	-0.077158086
73	0xbe068b0a	-0.13138977
74	0x3e900d1f	0.2813501
75	0xbdbf5416	-0.0934221
76	0xbe596d8f	-0.212332
77	0x3da148c4	0.07875207
78	0x3c808bc0	0.015691638
79	0xbd583056	-0.05278047
80	0x3e66d015	0.22540314
81	0xbe9d01d7	-0.30665466
82	0x3e41ad48	0.18913758
83	0xbe6355fe	-0.22200772
84	0xbe45a481	-0.19301035
85	0x3e84cbc2	0.25936705
86	0xbe41cee5	-0.1892658
87	0xbe09ed5a	-0.13469449
88	0x3e409e22	0.18810323
89	0xbd6eecbe	-0.058331244
90	0x3e1432d1	0.1447251
91	0xbe2ad2f7	-0.16682039
92	0xbe425a51	-0.18979765
93	0xbc71e42f	-0.014763876
94	0x3de6c796	0.11268537
95	0x3e1c4f01	0.15264513
96	0x3eb4eaa8	0.3533528
97	0x3e24be2c	0.1608817
98	0xbd818f50	-0.06326163
99	0x3d936fb5	0.07199041
100	0xbdbd7c22	-0.09252192
101	0xbcedf3dc	-0.029046945
102	0xbe08a1da	-0.13342991
103	0x3cfc8d33	0.030829048
104	0xbdb5a090	-0.088685155
105	0xbdeef756	-0.11668269
106	0x3df40bf6	0.11916344
107	0xbe25e7d7	-0.16201721
108	0xbe07b2a9	-0.13251747
109	0x3d1d1f7d	0.038360108
110	0x3e814ae7	0.25252458
111	0x3c8112e4	0.015756078
112	0x3eab065c	0.3340329
113	0x3d3f05c8	0.046636373
114	0xbdca8ec8	-0.098905146
115	0xbe8af0f1	-0.2713695
116	0x3e043d7c	0.1291408
117	0xbd11aced	-0.035565306
118	0x3e5a2783	0.21304135
119	0x3ddf116f	0.10891997
120	0xbd8e4c60	-0.06948161
121	0x3c66484b	0.014055322
122	0xbeb6227e	-0.3557319
123	0xbdfa8e06	-0.1223412
124	0x3e4108e2	0.18851045
125	0xbe27e41a	-0.16395608
126	0xbde82293	-0.113347195
127	0xbe3c3e36	-0.18383107
128	0x3e439852	0.19101074
129	0x3ea7b0bd	0.32752028
130	0x3da5fec0	0.0810523
131	0x3e850272	0.25978428
132	0xbd0fc9b1	-0.035104457
133	0xbda29251	-0.07938064
134	0xbd850b03	-0.06496241
135	0xbead6b5a	-0.33870965
136	0x3e30ecfc	0.17277902
137	0xbd45738c	-0.048205897
138	0xbc845219	-0.016152428
139	0x3d1aa926	0.03775897
140	0x3e3f30b9	0.1867093
141	0xbe7bfc71	-0.24608018
142	0x3e9b98ca	0.30390006
143	0xbe7f8bb1	-0.24955632
144	0xbe04f123	-0.12982611
145	0x3e3a2644	0.1817866
146	0x3e42ef24	0.19036537
147	0xbe6853cc	-0.22688216
148	0xbd8a8996	-0.06764524
149	0xbcb17fba	-0.02166735
150	0x3e49948d	0.19685574
151	0xbed92af5	-0.42415586
152	0xbe97e853	-0.29669437
153	0xbe950444	-0.29104817
154	0x3ec04b59	0.37557486
155	0xbcac59b0	-0.02103886
156	0x3e9ce46f	0.3064303
157	0xbe161df9	-0.14659871
158	0x3ec2d58e	0.38053554
159	0x3ebdbb45	0.37056938
160	0xbe68ef2a	-0.22747484
161	0x3da204cd	0.07911072
162	0x3ecfe177	0.40601704
163	0xbd840526	-0.064462945
164	0x3e73ec47	0.23820601
165	0x3d95ff06	0.073240325
166	0xbdd583fb	-0.10425564
167	0xbe0ebb39	-0.13938607
168	0x3c81123f	0.01575577
169	0xbdacd829	-0.08439667
170	0xbe002d00	-0.12517166
171	0x3dfee89e	0.12446712
172	0xbe184f7c	-0.14874071
173	0x3e20dc61	0.15709068
174	0xbe248ab4	-0.16068536
175	0xbe85147c	-0.2599219
176	0x3e825253	0.25453433
177	0x3e3be0e3	0.18347506
178	0x3e40736e	0.18794033
179	0xbd932629	-0.07185013
180	0xbde049a7	-0.10951548
181	0x3e910ce5	0.2833015
182	0xbe399ab7	-0.18125425
183	0xbd9f850f	-0.07789051
184	0xbe8228a6	-0.25421637
185	0x3e11b45c	0.14228958
186	0xbe1752c8	-0.14777672
187	0x3d476c3b	0.0486872
188	0x3d83db85	0.064383544
189	0x3e0c5275	0.1370333
190	0xbd832490	-0.06403458
191	0x3daf6f46	0.085661456
192	0xbe319f32	-0.17345884
193	0x3e6d1cf2	0.23155573
194	0xbe42853b	-0.18996136
195	0x3e312b4e	0.17301676
196	0xbe3b4161	-0.18286659
197	0xbdc7aa71	-0.09749306
198	0xbe54e548	-0.20790589
199	0x3e7ce6e2	0.2469745
200	0xbe7168cf	-0.23575138
201	0xbdb54d15	-0.08852593
202	0x3dfb2118	0.122621715
203	0x3e641ecc	0.22277373
204	0x3e881929	0.26581696
205	0x3e3a3a6e	0.18186352
206	0xbe091229	-0.13385834
207	0xbdb78632	-0.089611426
208	0xbe049ebe	-0.1295118
209	0x3cbd793c	0.023129098
210	0x3e0c0b97	0.13676296
211	0xbe6f3499	-0.23359908
212	0xbda249c3	-0.07924225
213	0xbc141f70	-0.009040698
214	0xbe4cc87d	-0.19998355
215	0x3e6047e6	0.21902427
216	0x3e847473	0.25870094
217	0xbcc6ecce	-0.02428284
218	0xbdd5c305	-0.10437588
219	0xbd0f265c	-0.03494869
220	0x3e0333aa	0.12812677
221	0xbdde6d93	-0.108607434
222	0x3cc00f21	0.023444714
223	0x3da8a29a	0.08234139
224	0x3d97a75a	0.07404967
225	0xbe78e964	-0.24307781
226	0xbdb1e302	-0.086858764
227	0xbdf78eec	-0.12087807
228	0x3ddaed35	0.10689775
229	0xbe92c27d	-0.28664008
230	0x3ed05c3a	0.40695363
231	0x3e21632d	0.15760489
232	0xbd94a350	-0.07257712
233	0x3c50c5e0	0.01274249
234	0xbe2821fd	-0.16419216
235	0x3e42445f	0.18971394
236	0x3de9fda1	0.11425329
237	0xbe86b013	-0.2630621
238	0x3e33b248	0.17548478
239	0xbe04c34c	-0.12965125
240	0xbb6cbc32	-0.0036122915
241	0x3e080f70	0.13287139
242	0x3c0ae039	0.00847631
243	0xbde66268	-0.11249238
244	0xbe0b7e23	-0.13622336
245	0x3e11e738	0.14248359
246	0xbd4f7532	-0.050648876
247	0x3e9ceb99	0.30648497
248	0xbe84fc26	-0.25973624
249	0x3d34b597	0.04411849
250	0xbebbec24	-0.36703598
251	0x3da12125	0.0786765
252	0xbe0c9735	-0.13729556
253	0xbd162ad0	-0.036661923
254	0x3efce2bc	0.49391735
255	0x3e86c38e	0.2632107

rnn.bias_ih_l1 f4 [45]
0	0x3e820b98	0.2539947
1	0x3e43f0d9	0.19134845
2	0x3cbdf915	0.02319006
3	0xbe4a3791	-0.1974776
4	0x3e453987	0.19260226
5	0x3d7656fa	0.06014154
6	0xbe98be5e	-0.2983274
7	0x3d299037	0.0413973
8	0xbe321309	-0.17390074
9	0xbe85fa2b	-0.26167426
10	0xbe838f8d	-0.25695458
11	0xbe2482e7	-0.1606556
12	0xbe3887b9	-0.18020524
13	0xbea21bde	-0.31661886
14	0xbe44aad4	-0.19205791
15	0xbe9c3bdf	-0.30514428
16	0xbe9d548a	-0.3072856
17	0xbce2a940	-0.027668595
18	0xbd8ca414	-0.06867233
19	0xbe8c9262	-0.2745543
20	0xbeaa2b4a	-0.33236152
21	0xbe1b13cd	-0.15144272
22	0xbe82cd57	-0.25547287
23	0x3e66ad4f	0.2252705
24	0x3e2351d4	0.15949184
25	0x3e1b02c7	0.15137778
26	0x3d8c70d2	0.06857456
27	0x3d95c5f9	0.07313151
28	0x3dc05d06	0.09392743
29	0x3dc773a6	0.09738855
30	0x3d71cd2f	0.05903357
31	0x3d8c6f6a	0.06857188
32	0x3e9c2727	0.3049862
33	0xbdbe28ee	-0.092851505
34	0xbe7eb739	-0.24874581
35	0xbcb020bf	-0.02149999
36	0x3e936d58	0.2879436
37	0xbe4287a3	-0.18997054
38	0xbe5ba3a5	-0.21449144
39	0xbe51d5fc	-0.20491785
40	0x3e921d18	0.28537822
41	0xbe151ac3	-0.1456099
42	0xbe8109a0	-0.25202656
43	0xbc085511	-0.008321063
44	0xbe222249	-0.15833391

rnn.bias_hh_l1 f4 [45]
0	0x3e203af4	0.15647489
1	0x3e164529	0.1467482
2	0xbe16091c	-0.14651912
3	0xbec61802	-0.38690192
4	0xbe91fa41	-0.2851124
5	0xbe7b8c43	-0.24565224
6	0x3d7e21d7	0.06204399
7	0x3def374b	0.11680468
8	0xbe039e04	-0.12853247
9	0xbe3fc0a2	-0.18725827
10	0x3d6efe19	0.058347795
11	0xbea5f51f	-0.32413575
12	0x3e2c06ef	0.1679952
13	0xbe878fb8	-0.26476836
14	0xbdfed9ec	-0.12443909
15	0xbeb9f1c7	-0.36317274
16	0xbe376564	-0.17909771
17	0x3e8eb1b9	0.27869967
18	0xbe2a044f	-0.16603206
19	0xbe94bffc	-0.29052722
20	0xbf0d1790	-0.5511408
21	0xbd22b4ac	-0.039723083
22	0xbea7ca8c	-0.32771719
23	0x3dce4745	0.10072187
24	0x3ea44d20	0.32090092
25	0x3e240ec3	0.16021256
26	0x3deccb2c	0.115621895
27	0xbbb66249	-0.0055659157
28	0x3e8a8213	0.27052364
29	0xbeb27dc5	-0.3486158
30	0x3ea0603c	0.3132342
31	0x3e3cfea4	0.18456513
32	0x3eb2d22d	0.34925976
33	0xbd6a06a2	-0.05713523
34	0xbbafb9b9	-0.005362716
35	0x3db898d9	0.090135284
36	0xbe378a5f	-0.17923878
37	0x3e5c5ae3	0.21519046
38	0xbe63611c	-0.22205013
39	0xbe08b753	-0.13351183
40	0x3ca0ded4	0.019637503
41	0xbc696b08	-0.01424671
42	0xbe8739bd	-0.26411238
43	0xbe1688df	-0.1470065
44	0x3e5dc3e6	0.2165676

output_projector.weight f4 [1, 15]
0	0xbb30e6a5	-0.0026992944
1	0xbeb0593c	-0.3444308
2	0xbe6c3509	-0.23067106
3	0xbe8a9eba	-0.27074224
4	0x3eb7244d	0.35769883
5	0xbde8ad23	-0.11361148
6	0xbe4027eb	-0.18765227
7	0xbe4fbab5	-0.20286067
8	0x3e57e1d0	0.21082234
9	0x3dc95857	0.098313026
10	0xbec011d2	-0.37513596
11	0xbe10cb99	-0.14140166
12	0x3e4b532f	0.19855951
13	0xbd16ccdf	-0.036816474
14	0x3d0c47d3	0.034248184

exp_avg f4 [2, 1]
0	0x00000000	0.0
1	0x00000000	0.0

exp_avg_sq f4 [2, 1]
0	0x00000000	0.0
1	0x00000000	0.0

slow_buffer f4 [2, 1]
0	0x00000000	0.0
1	0xbe53f642	-0.20699409

exp_avg f4 [45, 4]
0	0xb56f1e10	-8.9078185e-07
1	0xb84a8c8e	-4.8291455e-05
2	0x3875b090	5.857699e-05
3	0xb71d9e1c	-9.394742e-06
4	0xb66596f8	-3.4211535e-06
5	0xb32700e8	-3.888354e-08
6	0x36b54b7b	5.4030074e-06
7	0xb60263e0	-1.9429644e-06
8	0xb80e4c37	-3.392642e-05
9	0xb7f79d16	-2.9517843e-05
10	0x389e6215	7.552296e-05
11	0xb74aa5b2	-1.2078717e-05
12	0x388ef9fe	6.817652e-05
13	0xb86b691e	-5.6126264e-05
14	0xb5a8776e	-1.2551734e-06
15	0xb7351c83	-1.0795079e-05
16	0x37f04cde	2.8646024e-05
17	0xb6a2b146	-4.8486136e-06
18	0xb81a2d61	-3.6758724e-05
19	0x37597463	1.2961306e-05
20	0x358d0be7	1.0508783e-06
21	0x39140096	0.00014114598
22	0xb8c22393	-9.257267e-05
23	0xb8502389	-4.962416e-05
24	0x390601d7	0.00012779921
25	0xb7849aa6	-1.580764e-05
26	0xb8e581e4	-0.00010943765
27	0xb62b642b	-2.553929e-06
28	0x379c4302	1.8627852e-05
29	0x37b79ef2	2.1889315e-05
30	0xb6be8522	-5.67794e-06
31	0xb8122057	-3.483923e-05
32	0x38c6f2bb	9.486588e-05
33	0x37d0178c	2.4806497e-05
34	0xb882db75	-6.23976e-05
35	0xb8703a5c	-5.727481e-05
36	0x387fa50f	6.095046e-05
37	0xb734eb32	-1.0783597e-05
38	0x379f4eaf	1.8990917e-05
39	0xb89108cf	-6.9157795e-05
40	0x369114d6	4.3237624e-06
41	0x38ee2370	0.00011355325
42	0xb8a449dc	-7.833887e-05
43	0xb825d5c7	-3.953816e-05
44	0xb798ebea	-1.8229668e-05
45	0xb79c9ec9	-1.867059e-05
46	0x3887534f	6.452819e-05
47	0xb7e7c289	-2.7627933e-05
48	0xb708a378	-8.144292e-06
49	0xb7346c23	-1.0754014e-05
50	0x36dcaf1b	6.576896e-06
51	0x374eb807	1.2321404e-05
52	0x385a210d	5.200603e-05
53	0xb7403a13	-1.1457613e-05
54	0x37aa17ce	2.0276664e-05
55	0xb87f1e70	-6.0825085e-05
56	0x373646a1	1.086449e-05
57	0xb7809e01	-1.5332365e-05
58	0x36e1f4c3	6.7340166e-06
59	0xb618140c	-2.2661434e-06
60	0x39340699	0.00017168596
61	0xb963bd12	-0.00021718841
62	0x3972d94f	0.00023159872
63	0xb94322d2	-0.00018609621
64	0xb798d9c5	-1.8221219e-05
65	0x35a9424c	1.2610776e-06
66	0x34968b33	2.8040958e-07
67	0x378beb6d	1.667972e-05
68	0x39fca1c7	0.0004818572
69	0x39668f65	0.00021987928
70	0xba92cf2f	-0.0011200662
71	0x39db533d	0.00041832952
72	0x39aea4b8	0.0003331059
73	0xb942e1f9	-0.00018585463
74	0x381df377	3.765846e-05
75	0xb941e44e	-0.00018490964
76	0x389877c8	7.270236e-05
77	0x37d43316	2.5296158e-05
78	0xb8e4a1f0	-0.000109020504
79	0x3738eb0c	1.1021981e-05
80	0x39468a62	0.00018934303
81	0xb81f7ecf	-3.8026654e-05
82	0xb9696f95	-0.00022262179
83	0x389589c1	7.130532e-05
84	0xb8b39c81	-8.564536e-05
85	0x390395e8	0.00012548978
86	0xb79c23f5	-1.8613393e-05
87	0xb7b21942	-2.1231015e-05
88	0x3833cde2	4.286867e-05
89	0x3833a11d	4.2826974e-05
90	0xb92caadb	-0.00016466847
91	0x38a59e36	7.897282e-05
92	0x39d9c9df	0.0004153987
93	0xb8f2e94c	-0.00011582914
94	0xb96b78c6	-0.00022456338
95	0xb89d4c8c	-7.500601e-05
96	0x38daf047	0.00010439805
97	0xb6c61f7b	-5.9045246e-06
98	0xb95fb8a3	-0.0002133572
99	0x38f0e2fa	0.000114863695
100	0x3952a8b7	0.00020090012
101	0x37369216	1.0882059e-05
102	0xb98c98fd	-0.00026816866
103	0x386c80a1	5.638658e-05
104	0xb8a5426e	-7.8801866e-05
105	0xb7619dc0	-1.3447774e-05
106	0x38a969cd	8.078255e-05
107	0x374062d2	1.14671e-05
108	0x37d288b0	2.50976e-05
109	0xb7aa3384	-2.0289568e-05
110	0x3792d4b4	1.7503604e-05
111	0xb7bb29db	-2.2311628e-05
112	0x398e0209	0.00027085867
113	0xb89c8966	-7.464252e-05
114	0xb920601c	-0.00015294593
115	0xb8357d0e	-4.327023e-05
116	0x37e10d70	2.6828347e-05
117	0x3723f22e	9.771944e-06
118	0xb856f3c5	-5.1248604e-05
119	0x3775c1f3	1.4648295e-05
120	0x384c500d	4.8711943e-05
121	0x3a2179c2	0.0006159806
122	0xb8b3e990	-8.5788895e-05
123	0xba17c190	-0.0005789036
124	0x3980c8f1	0.00024563776
125	0x3988118b	0.00025953012
126	0xba0f49c5	-0.00054660096
127	0x382dc890	4.1433203e-05
128	0xb976b234	-0.00023526774
129	0x39a71e9a	0.00031875522
130	0xb9f3181e	-0.0004636654
131	0x39c752a2	0.00038017804
132	0x3996697a	0.00028688816
133	0x3a9315f7	0.0011221756
134	0xb984ce30	-0.00025330624
135	0xba977cc9	-0.0011557575
136	0xb8f4dfe7	-0.00011676532
137	0xb9331aba	-0.00017080727
138	0x398dde2e	0.00027059152
139	0x378e730b	1.698129e-05
140	0x3ac3110c	0.00148824
141	0xba618d0b	-0.0008604086
142	0x394a3545	0.00019284066
143	0xba572257	-0.0008206716
144	0x39ed29fb	0.0004523544
145	0x383b7615	4.4694247e-05
146	0xba6fa3c1	-0.00091415277
147	0x39daaeca	0.00041710428
148	0xb906898e	-0.00012830479
149	0x3a13aabc	0.00056330464
150	0xba0d39b4	-0.00053873216
151	0x38d98b0a	0.000103732644
152	0x3a3366e4	0.000684364
153	0xbac11d98	-0.0014733551
154	0xb8922f18	-6.9705944e-05
155	0x3a611a3a	0.0008586977
156	0xb8b404d5	-8.583969e-05
157	0xb9f6910a	-0.0004702884
158	0x387bbc5f	6.0018498e-05
159	0x3a020d57	0.0004961094
160	0xba5fb335	-0.0008533479
161	0x3a6a8bb4	0.0008947209
162	0xb94ca50b	-0.0001951644
163	0x39214319	0.00015379152
164	0xb9de79eb	-0.00042433976
165	0xb6f0be38	-7.1747018e-06
166	0x3a128b4b	0.0005590214
167	0xb905b364	-0.00012750697
168	0x39fc77e5	0.00048154514
169	0x38d6b0a1	0.00010237215
170	0xba0627c2	-0.0005117619
171	0xb8975220	-7.215538e-05
172	0x3a4de453	0.00078541524
173	0x3a9a659b	0.0011779548
174	0xba0a2f74	-0.00052713533
175	0xbabc4008	-0.0014362345
176	0xb9b3643d	-0.00034216224
177	0x3758b792	1.2917344e-05
178	0x39d23fc1	0.00040101822
179	0xb8968515	-7.177346e-05

exp_avg_sq f4 [45, 4]
0	0x31cd0945	5.967339e-09
1	0x30dcf207	1.6075895e-09
2	0x31e8633d	6.7633708e-09
3	0x315ea927	3.2401404e-09
4	0x3122ffa2	2.3719413e-09
5	0x302cf223	6.291733e-10
6	0x300ff032	5.2364435e-10
7	0x2f560100	1.9463542e-10
8	0x321b4051	9.036811e-09
9	0x31a1e7a0	4.7120494e-09
10	0x31c5e673	5.7596536e-09
11	0x3118ff0b	2.2263886e-09
12	0x31dd72af	6.4449845e-09
13	0x30cdcea5	1.4974445e-09
14	0x31d2eb6c	6.1385688e-09
15	0x31c4b41e	5.7248277e-09
16	0x3127b93c	2.4406992e-09
17	0x2f260a0e	1.5101184e-10
18	0x309cfc7f	1.1422258e-09
19	0x2f816917	2.3539634e-10
20	0x3413c6e6	1.37628e-07
21	0x32ae5b63	2.0297824e-08
22	0x3359bde2	5.0696947e-08
23	0x322434e4	9.558082e-09
24	0x324cf14e	1.1929229e-08
25	0x30d8339c	1.5730737e-09
26	0x31becee8	5.5532503e-09
27	0x3035a942	6.6087946e-10
28	0x31054101	1.9390998e-09
29	0x3071c179	8.795023e-10
30	0x30f498be	1.7796749e-09
31	0x313faeed	2.7893592e-09
32	0x3388aa66	6.363989e-08
33	0x32472db5	1.1593717e-08
34	0x329ab21a	1.800895e-08
35	0x31bd3249	5.5063407e-09
36	0x3228b696	9.820402e-09
37	0x313c8693	2.7434097e-09
38	0x31ee8d1d	6.9427544e-09
39	0x3189cebf	4.010729e-09
40	0x318e8373	4.147688e-09
41	0x31aaefb3	4.974902e-09
42	0x30de252f	1.6163194e-09
43	0x30d7b592	1.5694914e-09
44	0x31aee4e6	5.0900892e-09
45	0x309b97dd	1.1320896e-09
46	0x31b10c5b	5.1527826e-09
47	0x31000728	1.863052e-09
48	0x309ab920	1.125759e-09
49	0x2feaaed9	4.268859e-10
50	0x31191fe2	2.2282554e-09
51	0x302decc2	6.3273486e-10
52	0x32180a2c	8.849877e-09
53	0x310b6476	2.0284268e-09
54	0x31bcf98a	5.4998894e-09
55	0x31bc4edc	5.4804854e-09
56	0x303a999b	6.788469e-10
57	0x2f6c630a	2.1499261e-10
58	0x2fe5880f	4.1751533e-10
59	0x2f9f94e8	2.9027736e-10
60	0x32b12fa8	2.0627184e-08
61	0x31c40220	5.7045924e-09
62	0x3308ceef	3.1853173e-08
63	0x317bb84e	3.6630072e-09
64	0x3089d08e	1.0027337e-09
65	0x2f451b1a	1.7926674e-10
66	0x304e88e4	7.5136897e-10
67	0x30119a30	5.2969806e-10
68	0x340d8844	1.3181221e-07
69	0x33e655ed	1.07258394e-07
70	0x358613b2	9.98951e-07
71	0x33d5fd15	9.964621e-08
72	0x33ed03f8	1.10368944e-07
73	0x320883c1	7.946199e-09
74	0x33d82737	1.0065417e-07
75	0x3211bb9a	8.4827665e-09
76	0x302ded38	6.327414e-10
77	0x2ee6e130	1.04991904e-10
78	0x30cfa515	1.5108151e-09
79	0x2eafc0d5	7.9923325e-11
80	0x33579432	5.019337e-08
81	0x32b8005a	2.1420579e-08
82	0x347ec2ff	2.3726533e-07
83	0x32963978	1.7488432e-08
84	0x30bedb8c	1.3886718e-09
85	0x30bf618c	1.3924804e-09
86	0x30797c70	9.076251e-10
87	0x2ff24b60	4.40731e-10
88	0x3107e385	1.9774415e-09
89	0x313dcdf4	2.762019e-09
90	0x329f9ea0	1.858217e-08
91	0x3101e275	1.8900697e-09
92	0x340f31d9	1.3336047e-07
93	0x32ace8d0	2.0129306e-08
94	0x349b2b05	2.89023e-07
95	0x3176bbd8	3.5904488e-09
96	0x31ff3894	7.427909e-09
97	0x31d996bf	6.332669e-09
98	0x33833663	6.110056e-08
99	0x320ab9c7	8.074898e-09
100	0x32ed8209	2.7649564e-08
101	0x32d59d50	2.4868001e-08
102	0x34578ca6	2.0074603e-07
103	0x3292dcc9	1.7097038e-08
104	0x30795d30	9.07181e-10
105	0x2efce25d	1.14998434e-10
106	0x30a66352	1.2106318e-09
107	0x2f652954	2.0842111e-10
108	0x2f8a3226	2.5137686e-10
109	0x2f175aa6	1.3765575e-10
110	0x302764f6	6.089772e-10
111	0x30201947	5.824358e-10
112	0x33893869	6.3898206e-08
113	0x328d297e	1.6433429e-08
114	0x345f4f26	2.0797287e-07
115	0x321cbd03	9.123371e-09
116	0x2fe94859	4.243386e-10
117	0x2f572c2d	1.956983e-10
118	0x31136630	2.1449402e-09
119	0x2f5c6fba	2.0048577e-10
120	0x362d8c3b	2.5860634e-06
121	0x351da085	5.8720644e-07
122	0x35e64522	1.7156456e-06
123	0x35586a31	8.06208e-07
124	0x35918e72	1.0844799e-06
125	0x339d1e28	7.3163676e-08
126	0x3592b19f	1.0929542e-06
127	0x34ad7d6f	3.2315026e-07
128	0x3788fcc6	1.633017e-05
129	0x3644dc39	2.9334462e-06
130	0x36c31ac6	5.8145697e-06
131	0x364afb35	3.0246567e-06
132	0x3585cff0	9.96979e-07
133	0x34e0a87a	4.1845834e-07
134	0x35612a53	8.388062e-07
135	0x35853406	9.924413e-07
136	0x35799794	9.2980304e-07
137	0x33ae4378	8.114779e-08
138	0x34d6b769	3.9994055e-07
139	0x341874d5	1.4198606e-07
140	0x370260d0	7.771145e-06
141	0x35b616a1	1.3566643e-06
142	0x3642ffa0	2.9057046e-06
143	0x35bc9707	1.4051046e-06
144	0x3585a7bf	9.958093e-07
145	0x344d4149	1.9115863e-07
146	0x34a4d578	3.07027e-07
147	0x3410f34e	1.3499559e-07
148	0x35f5700e	1.8286535e-06
149	0x34e1b749	4.2042873e-07
150	0x357e09f2	9.4636846e-07
151	0x35513bae	7.794541e-07
152	0x3755f869	1.2753627e-05
153	0x361fee23	2.383146e-06
154	0x36a4cad1	4.911192e-06
155	0x364129f4	2.878366e-06
156	0x35bc17eb	1.4014053e-06
157	0x34cb76ed	3.7898226e-07
158	0x35859356	9.952153e-07
159	0x35190736	5.7007435e-07
160	0x36b36fc1	5.3476256e-06
161	0x35956874	1.1131765e-06
162	0x36089e0a	2.035757e-06
163	0x35b1c038	1.3243471e-06
164	0x35171f61	5.6297546e-07
165	0x33ef08ed	1.11309284e-07
166	0x351565dd	5.5655056e-07
167	0x344e1a89	1.9194898e-07
168	0x35022491	4.8481985e-07
169	0x33bf0fda	8.897014e-08
170	0x34bd7aec	3.529343e-07
171	0x34008309	1.1968599e-07
172	0x362cbd9f	2.5740371e-06
173	0x352be4c7	6.403538e-07
174	0x35b6de2b	1.3624716e-06
175	0x3598a416	1.1372638e-06
176	0x35ef6700	1.7836865e-06
177	0x348eaccd	2.657529e-07
178	0x353c4558	7.0136366e-07
179	0x34890903	2.5524795e-07

slow_buffer f4 [45, 4]
0	0x3ea6fdba	0.32615453
1	0xbe2d41cc	-0.16919631
2	0xbc51987c	-0.012792703
3	0x3e1dc097	0.15405498
4	0xbd699545	-0.05702712
5	0xbd9a94fc	-0.07547948
6	0xbe371518	-0.1787914
7	0x3d22aac5	0.03971364
8	0xbe01f791	-0.12692095
9	0x3e14c42e	0.14527962
10	0xbdff5f30	-0.124693274
11	0x3e73ff34	0.23827821
12	0x3e8e9002	0.27844244
13	0xbc0f713a	-0.008755023
14	0x3d4428ea	0.04789058
15	0x3ed750b8	0.4205377
16	0xbe7a2ae1	-0.2443042
17	0xbe3b6d1f	-0.18303345
18	0x3cc48d40	0.023993134
19	0x3e03fdb8	0.12889755
20	0x3d82c774	0.06385699
21	0xbc2c3777	-0.010511271
22	0x3ed8da21	0.4235392
23	0xbec8700e	-0.3914799
24	0x3e522e78	0.20525539
25	0xbbbedea5	-0.005824881
26	0x3d6e83cc	0.05823116
27	0xbe88c6ba	-0.26714116
28	0xbe610fce	-0.21978685
29	0xbe05b100	-0.13055801
30	0x3d8f7a98	0.07005805
31	0x3e941a56	0.28926343
32	0xbe314d08	-0.17314541
33	0xbe90a772	-0.2825275
34	0x3e1477c1	0.14498807
35	0x3eb0d864	0.34540093
36	0xbd1144cd	-0.035466004
37	0xbe87a984	-0.26496518
38	0x3c175c02	0.009238245
39	0x3ee0f048	0.4393332
40	0xbe936cdf	-0.28794
41	0xbec50c90	-0.38486147
42	0x3e5b8550	0.21437573
43	0x3ecb569a	0.3971451
44	0x3ddf008e	0.10888778
45	0xbdf794e4	-0.120889455
46	0xbe4fb4f6	-0.20283875
47	0xbe85e4ee	-0.26151222
48	0x3e4399a9	0.19101585
49	0x3dc40748	0.09571701
50	0xbe062cf8	-0.13103092
51	0xbe0cb90e	-0.13742468
52	0xbe77c1c8	-0.24195015
53	0xbe4570bd	-0.19281287
54	0xbed68c5a	-0.41903955
55	0x3ecfe721	0.40606025
56	0x3e39e29c	0.18152851
57	0xbe4a8182	-0.19775966
58	0x3cd652ab	0.026162466
59	0x3c2af96e	0.010435445
60	0xbed3fd22	-0.41404063
61	0xbe0248ae	-0.12723038
62	0x3df37a2f	0.11888539
63	0x3ec18610	0.37797594
64	0xbbfa4782	-0.007637919
65	0xbeb3ea44	-0.35139668
66	0xbdcba0db	-0.0994279
67	0xbdca005a	-0.09863348
68	0xbe188c1a	-0.14897195
69	0xbdf8c572	-0.12147035
70	0x3e9fd95a	0.31220514
71	0xbdcf4c06	-0.10121922
72	0xbe3c1c12	-0.18370083
73	0xbd3666e2	-0.04453171
74	0xbcde4df4	-0.02713678
75	0x3d87e088	0.06634623
76	0xbe1895c8	-0.14900887
77	0x3caa45e4	0.02078528
78	0xbb4e8c10	-0.003151659
79	0xbc8ce846	-0.0172006
80	0xbee81038	-0.45324874
81	0xbd7c652e	-0.06161993
82	0x3eea30bd	0.4574031
83	0xbee1ca00	-0.44099426
84	0x3eaa2fea	0.3323968
85	0xbeae75ac	-0.34074152
86	0xbd3382ca	-0.043825902
87	0x3cda5ede	0.026656564
88	0xbdaf03ba	-0.08545633
89	0xbe937114	-0.2879721
90	0x3ee147c2	0.4400006
91	0xbe0717c4	-0.1319266
92	0xbed74902	-0.42047888
93	0xbe4a4cae	-0.19755813
94	0x3d857f69	0.06518442
95	0x3d436ff6	0.047714196
96	0xbda4f10a	-0.08053787
97	0x3d823614	0.06357971
98	0x3ec1669a	0.3777359
99	0xbe7beb59	-0.24601497
100	0xbddd5c20	-0.10808587
101	0xbe82d5a6	-0.25553626
102	0x3e853264	0.26015007
103	0xbe39c594	-0.18141776
104	0x3d980340	0.07422495
105	0xbb26552c	-0.0025380356
106	0xbe56fc90	-0.20994782
107	0x3d6befa6	0.057601593
108	0xbd198ba8	-0.037486702
109	0x3ebfbe33	0.37449798
110	0xbe64246a	-0.22279516
111	0x3e1f3b32	0.15549925
112	0xbe21f8a2	-0.15817502
113	0xbe287666	-0.16451415
114	0x3e4f32f0	0.20234275
115	0xbc53c9ae	-0.012926502
116	0xbe657fcb	-0.2241203
117	0xbd9b3589	-0.075785704
118	0x3ec6467e	0.38725656
119	0xbc344c55	-0.011004527
120	0xbd9b7598	-0.075907886
121	0x3dace5b8	0.08442253
122	0xbead7cac	-0.3388418
123	0x3ed19bfd	0.40939322
124	0xbe9e11f3	-0.3087307
125	0xbc60af87	-0.013713724
126	0xbd413248	-0.047167093
127	0xbdb92da2	-0.09041907
128	0x3e2e0048	0.16992295
129	0xbba524e0	-0.0050397962
130	0x3ed67626	0.41887015
131	0xb9e62630	-0.0004389747
132	0x3d19a16c	0.03750746
133	0x3db93eb6	0.09045164
134	0xbecce0f6	-0.40015382
135	0x3e853a18	0.26020885
136	0xbcca6398	-0.024705693
137	0x3e3dc97e	0.18533894
138	0x3dad26b6	0.08454649
139	0x3e9aa97b	0.30207428
140	0x3df78256	0.120854065
141	0xbcb271e4	-0.021782823
142	0xbee12b84	-0.43978512
143	0xbcb331aa	-0.021874268
144	0xbe91c9a4	-0.28474152
145	0xbd20e68b	-0.039282363
146	0x3d82050b	0.06348618
147	0x3d6748c8	0.056465894
148	0xbe81a370	-0.25320005
149	0x3e778f64	0.24175793
150	0x3e4eb94b	0.20187871
151	0xbdefdde8	-0.11712247
152	0xbd40e362	-0.04709185
153	0xbd4d1408	-0.05006793
154	0x3f021c6d	0.50824624
155	0x3d2048c7	0.039131906
156	0xbe7d4862	-0.24734643
157	0xbdcac15c	-0.099001616
158	0x3e9be5dc	0.30448806
159	0xbec0c6bc	-0.37651622
160	0xbb5c8101	-0.0033646228
161	0x3dfb995a	0.12285109
162	0x3e830b08	0.25594354
163	0x3d00173e	0.031272165
164	0x3dcdec5c	0.100548476
165	0xbda4a1d2	-0.08038677
166	0xbe16113b	-0.1465501
167	0xbd55f983	-0.052239906
168	0x3e506d7e	0.20354268
169	0x3d080e68	0.033216864
170	0xbd8bfbfe	-0.06835173
171	0x3ebf8474	0.3740574
172	0xbe1109d6	-0.14163908
173	0x3de68870	0.11256492
174	0xbead3328	-0.33828092
175	0x3ed66e45	0.41881004
176	0x3dd19065	0.10232619
177	0x3def7823	0.11692836
178	0xbd9562cf	-0.07294237
179	0x3e133d88	0.14378941
