GRU_logs/lightning_logs/version_1/checkpoints/epoch=0-step=79.ckpt (torch, 70471 bytes, 40 tensors)

embeddings.embeddings.house_hold.weight f4 [2, 1]
00000000: 0000 0000 42f6 53be
0.0 -0.20699409

rnn.weight_ih_l0 f4 [45, 4]
00000000: 2312 973e 4c77 7cbd c1f8 cf3d feee d4ba
00000010: 2519 e2bd ec5b 5cbc 05c4 b7bd a48e c3bd
00000020: 561e 043d 693f 45be af37 aa3d a4c3 873e
00000030: ef48 b43e 652a 2e3e 47ba b13c 94d6 bc3e
00000040: b67b 7cbe 0fec bcbd 9d2b fd3b 951d 9e3d
00000050: 6ce9 073e ebc8 5abd a42b d53e 2c8b b1be
00000060: 3b96 a23d 4c9b 9f3d 76c0 193e c602 aabe
00000070: d589 81be 0ab7 5dbd c84f 163e 2cce 7c3e
00000080: 645d 21be ed07 29be 9009 a53c 3df7 803e
00000090: 5655 f2bc 9a81 14be 10ff 8c3d b6fc 9d3e
000000a0: 1700 a7be 432c 7cbe ff8e 3f3e 46b7 903e
000000b0: f56d 393d 1904 31be 8b9d e7bd f127 62be
000000c0: 417f d13d 675b 913e af61 80be 4ccc 1d3c
000000d0: 1b6e f3bd d18e e9bd b4f2 babe 4727 493e
000000e0: f204 463e 7811 84bd 27ae fbbc c964 b4bd
000000f0: 3577 bfbe cc95 8abd 003c 003e 9b05 af3e
00000100: 6302 50bd 3ede cbbe 42da 7ebd 2884 86bd
00000110: e3e9 1bbd c251 f33d 2e9d 4e3e fd15 633e
00000120: b417 3bbe c124 b53d ad3c 57bd d020 633c
00000130: bf60 eebd 6a24 2fbd 681a 8e3d 83ee adbd
00000140: 3bf3 d2be 8533 943d 8a97 a23e c822 81bd
00000150: c1db 653e 79f0 f7bd 7cf6 2cbe 2240 813c
00000160: 6fec 483d 81c1 1cbe b328 aa3e a15a 803d
00000170: 2911 cebe 24f2 a03d 7a35 1d3d 7574 a73e
00000180: 60d5 103d f842 b23e d3a0 613e 4c6e a3bd
00000190: 4634 a1bd af26 58bc 0aef 1c3e 3a39 133e
000001a0: d863 5a3e 8bd5 7fbb 63ed abbe a957 ffbb
000001b0: 05ca b4bd 3c4f 6c3e 3772 e43d 9309 c3bc
000001c0: 40c3 1bbe 5c3b 113e fde7 493d 768b 943e
000001d0: 2aa3 babd e8bf 383e cb3b 6e3e 1ed8 8239
000001e0: 956b 2a3d a738 213e 5a10 b0be af80 f33e
000001f0: 957d 94be 3d5a 3c3d 316b 19bd 341a 47be
00000200: 6fc5 0f3e 15fe 23bc ec4b d13e 989a be3c
00000210: fee0 163e 3665 f73d 7413 e2be 8380 a13e
00000220: 27fe ac3b 21d9 4c3e 0bc8 d53d 06d1 0e3e
00000230: 7012 193e 7f70 cd3c 8740 eebe aa47 c73b
00000240: 9bb3 cbbe dcd2 92bd 9f5f 4c3e b3cc 03be
00000250: 6bae 5bbe 5ec2 223e 59be 903e ab38 22be
00000260: 35a9 97bd b5b6 f8bc d25f 003f d6a4 29bc
00000270: 15bf abbe b215 cdbd edf2 9d3e fbad abbe
00000280: 4e49 d0bd 645f 9c3c 25b2 a13e 4151 20bd
00000290: 05a3 0c3c bdb8 febc 6876 89bd 2c37 0c3d
000002a0: 531c 85bc 5ed9 b7bd 1b62 a83e d414 503e
000002b0: 2669 9ebd 40d6 003e 488e c0be 3f82 e03e
000002c0: 6c66 793e d284 063e 8909 8abe f4f0 853e
0.29506025 -0.061637208 0.10154868 -0.0016245542 -0.11039952 -0.01344965 -0.08972935 -0.09548691
0.032255493 -0.1926247 0.08311402 0.2651645 0.35211894 0.1700836 0.02169527 0.3688246
-0.24656567 -0.09224712 0.0077261464 0.07720486 0.13272637 -0.053414267 0.41634858 -0.34676492
0.079388104 0.077932924 0.15014824 -0.3320524 -0.2530047 -0.054129638 0.14678872 0.24688023
-0.15758282 -0.1650693 0.020146161 0.25188628 -0.029581707 -0.14502564 0.06884587 0.30856866
-0.32617256 -0.2462626 0.18706892 0.28264827 0.04527088 -0.1728672 -0.11309346 -0.22085549
0.1022935 0.28390047 -0.25074527 0.009631228 -0.11886235 -0.11404193 -0.36513293 0.1964389
0.19337824 -0.064486444 -0.03072269 -0.08808286 -0.37395635 -0.06766853 0.12522888 0.34183964
-0.050783526 -0.39817995 -0.062219866 -0.065681756 -0.03806485 0.118808284 0.20177147 0.22176357
-0.18270761 0.08844901 -0.0525481 0.013862804 -0.116395466 -0.042759337 0.0693863 -0.08492758
-0.41201195 0.07236389 0.3175624 -0.06305462 0.2244711 -0.121064134 -0.16890901 0.015777651
0.049053606 -0.15308191 0.33234176 0.06267286 -0.40247467 0.07858685 0.038381077 0.32706037
0.03535974 0.34816718 0.22034006 -0.07980022 -0.078712985 -0.013192817 0.15325561 0.14377299
0.2132715 -0.0039037194 -0.3357955 -0.0077924323 -0.08827595 0.230771 0.11154597 -0.023808276
-0.152112 0.141828 0.049293507 0.2901265 -0.09113152 0.18041956 0.23264997 0.00024956552
0.041606504 0.15744267 -0.34387475 0.47559115 -0.2900206 0.045984495 -0.03745574 -0.1944359
0.14040159 -0.010009308 0.40878236 0.023267075 0.14734265 0.12079851 -0.44155467 0.3154336
0.0052793208 0.20004703 0.10438546 0.13946924 0.1494844 0.025078056 -0.46533605 0.006081541
-0.39785466 -0.071691245 0.19958352 -0.12871055 -0.21453254 0.15894458 0.28270224 -0.1584193
-0.074053206 -0.030360559 0.5014621 -0.010354241 -0.33544222 -0.10013904 0.308494 -0.33531174
-0.10170232 0.019088455 0.31581226 -0.03913999 0.008583789 -0.03109395 -0.06712037 0.034232304
-0.016248858 -0.089770064 0.3288735 0.20320445 -0.07734899 0.1258173 -0.37608552 0.4384937
0.24355477 0.13136604 -0.269604 0.26160395

rnn.weight_hh_l0 f4 [45, 15]
00000000: e703 d03d 6491 f5bd 5e5f 15be 291c 19be
00000010: 603d 143e 0bda 4bbe b02f 38bd 152b 503e
00000020: ad06 9bbd 95d7 7a3e 3f76 bf3c 9ade c4bb
00000030: b2d1 343e bb40 0f3e c765 263e c3f6 293e
00000040: dad7 0e3e 89bf 6a3e f9dd fbbd c10b f13d
00000050: a85b 233e e42c 78bd 69ef 90bd 4126 b33d
00000060: 4666 c03d 17f0 9e3d 0aba abbd 2c03 503e
00000070: 51ce 9bbd 5114 0dbe ffbd 67be bc63 61be
00000080: 83d2 483e 9af1 42be 4284 7abd 9adf c2bd
00000090: 421c 063d 2c13 9fbd 590c 313e bb62 2d3e
000000a0: fdc9 053e 8f21 1cbe 59ef ecbd af0f e73d
000000b0: 0648 e4bd fccd bcbd 95f1 4d3e 8909 bfbd
000000c0: 2ad7 033e eebb 11bd c34b 413d 9fe9 463e
000000d0: 499a d33b e70f 52be ed86 b83d 9592 51be
000000e0: 923d debd d70f 53be 50d4 63be 9bbd b3bd
000000f0: 5f28 59be c645 91bd bfe9 a53d 8b24 383c
00000100: 7324 17bd 1c31 c03d 60c8 b33d f0a0 c83d
00000110: fa06 fabd 7396 68be 0ece 903d ede7 39be
00000120: 605d 973d 79cb 1d3e 6ae4 93bd d7e2 6dbe
00000130: 4ab3 61be bbbe a03e 92ad a43d 1ace b0bd
00000140: 7aa3 8f3d 26d3 283e d740 b9bd ac92 963c
00000150: d5f5 4ebe f502 743e 1df1 0b3e 2d36 293e
00000160: 7726 32be 5c96 1f3e f89e 3abe 6e0d 1e3d
00000170: c058 2b3e d12d c9bd c23e ea3d 50fa f2bd
00000180: c023 503e 6beb 073e 3164 d93d 0851 243e
00000190: 969d 75be 0450 933d e910 febd 2bc5 673e
000001a0: 1dae 8c3e 0ddf b33c e8bb f2bd 8d81 693e
000001b0: e3cb debd bc41 91be d06d e5bd ad2d 4d3d
000001c0: 5bc0 d1bd 8b6e 2c3e 002a f73d c061 02be
000001d0: a29a aabb 5285 61bd 2940 43bd aa59 32be
000001e0: 6410 3f3e d1cf 003d e3c9 3e3e 2ae0 21be
000001f0: 09df 443e 9e37 46be a6ab 0cbe 4a4d 7d3d
00000200: 5cd7 033e c701 48be cf07 1e3e d80d 033e
00000210: 12ca 0b3e b3fc 673d 34fa 0cbd 83a7 a63d
00000220: 0925 763e 5655 cd3b 48ee 63bd 3391 94bd
00000230: 7de3 363e ca1e 5d3e b8fe 0f3e 8d5a 8bbe
00000240: 52b0 efbc f76e 233e 23f1 613e 56c6 13bd
00000250: 530e 203d eef7 1c3e 71a7 27bc 9a08 4abd
00000260: 4d33 33be 15ae aa3b 814e 4dbd f159 63bd
00000270: 4f61 193e 28a8 a4bd b24e 803e 9600 42be
00000280: 6538 0c3d 70e6 f4bd dce1 0abe 3a4c 87be
00000290: b7cb 25be a23c 60be 07c7 69be 529a 89be
000002a0: b40c 253e b5c2 18b9 70d8 27be 0488 13be
000002b0: 81f1 883d 6d66 f93d 5ffe e43d e5f2 2cbe
000002c0: 620f 94bc ce36 0dbe 2d98 d63d 9889 493d
000002d0: 530e 2bbe b7f7 163e 7f4d 45be 163a 74be
000002e0: 09f5 7dbe 710e e5bb 0bd3 b53c b3f1 b83d
000002f0: 9777 793e 8f67 88bb 890b 12be 1cef 783c
00000300: 3253 5e3c caf0 75be 2b0a 58be fe65 bbbe
00000310: c4bf ac3c 2bc8 123e cbc1 35be be50 3dbe
00000320: 3e9e babd 7521 04bb a6fc 23be 3308 b83e
00000330: db2c b9ba 2bd9 f33d d74a 23bd dc27 3cbe
00000340: 8352 7b3c f844 40be 1348 9c3e 4fd7 21bd
00000350: 7600 c3bc 89b5 d73d 2747 2fbe 4d5c 50be
00000360: 9209 a83d d28a 86bd 2700 a1bd 8500 92be
00000370: 3a18 003d e9e3 7e3c 3f7b 89bb 2d00 d63d
00000380: 8ee5 80be ba00 0cbe 6feb ad3c 05b3 a9bc
00000390: 6278 0ebe 2819 4fbe 88a5 c13d 5b59 333e
000003a0: 0206 f4bd bada ff3d d290 733e 017f c73d
000003b0: d5c4 cabd ba5e 7ebe cbf7 143e cd97 b43d
000003c0: 480a ab3e 60ea 9e3d 5804 95be 581c 24bd
000003d0: 3ed8 ffbd 55e1 443e 343b ca3d a457 97bd
000003e0: d44d 4c3e 7587 9ebd c637 76be ddfa be3e
000003f0: aacf 1d3e 76bd ec3d 8c88 d33d 8458 6dbe
0.10156994 -0.11990622 -0.14587161 -0.14952148 0.14476538 -0.19907396 -0.044967353 0.20328934
-0.07569633 0.244963 0.023371814 -0.0060079815 0.17658117 0.13989536 0.16249762 0.16598038
0.13949528 0.22924627 -0.12298197 0.1176982 0.15952933 -0.060589686 -0.07076914 0.08747531
0.09394507 0.07760637 -0.083850935 0.2031371 -0.07607711 -0.13777281 -0.22631072 -0.22010702
0.19611554 -0.19037476 -0.061161287 -0.09515305 0.032741793 -0.077673286 0.17289867 0.16932194
0.13065334 -0.15247177 -0.115690894 0.11282288 -0.1114655 -0.09218976 0.20111687 -0.093279906
0.12875047 -0.035579614 0.047191393 0.19425057 0.006457601 -0.20513879 0.0901011 -0.20466073
-0.10851587 -0.20611511 -0.2224896 -0.08776399 -0.21206807 -0.07093386 0.08101224 0.011239181
-0.036899995 0.09384367 0.08778453 0.097963214 -0.12208362 -0.22713642 0.07070552 -0.18154879
0.07390857 0.1540965 -0.07221301 -0.23231064 -0.2204105 0.31395516 0.080409184 -0.08633061
0.070136026 0.16486797 -0.0904557 0.018380485 -0.20210965 0.23829253 0.13666196 0.16524573
-0.17397486 0.15584701 -0.18224704 0.038587026 0.16733074 -0.09823192 0.11437751 -0.118641496
0.20326138 0.13273399 0.10614813 0.16046536 -0.23985896 0.07192996 -0.12405569 0.22633807
0.27476588 0.021956945 -0.118522465 0.22803326 -0.10878732 -0.28370464 -0.11202586 0.050092388
-0.10241767 0.16839044 0.12068558 -0.12732601 -0.005206422 -0.055058785 -0.04766861 -0.17417017
0.18658596 0.03144819 0.18631701 -0.15808168 0.19225706 -0.19357154 -0.13737354 0.061841287
0.12875122 -0.19531928 0.15432666 0.1279825 0.13651302 0.056637477 -0.0344183 0.08137419
0.24037565 0.0062662764 -0.055647165 -0.07254257 0.17860217 0.21593776 0.14062011 -0.27217522
-0.02925888 0.15960298 0.22064643 -0.03607782 0.03907616 0.15328953 -0.010232792 -0.04932461
-0.17500038 0.0052087405 -0.050123695 -0.055505697 0.14978527 -0.08039886 0.2506004 -0.18945536
0.03423347 -0.11958015 -0.13562721 -0.26425344 -0.16190992 -0.2189813 -0.22829829 -0.2687555
0.16118127 -0.00014568384 -0.16391158 -0.14407355 0.06686688 0.12177739 0.1118133 -0.16889532
-0.018073741 -0.13790438 0.10478244 0.049203485 -0.16704683 0.14742933 -0.19267844 -0.23850283
-0.24800505 -0.006990247 0.02219536 0.090304755 0.24362026 -0.004162736 -0.14262213 0.015193727
0.01356964 -0.24017635 -0.21097629 -0.3660125 0.021087535 0.1433417 -0.17749707 -0.18487832
-0.091122136 -0.0020161544 -0.16014346 0.35943756 -0.0014127748 0.11906656 -0.039866295 -0.1837458
0.015339497 -0.1877631 0.30523738 -0.039511975 -0.02380393 0.10532672 -0.17116986 -0.2034771
0.082049504 -0.065694466 -0.07861357 -0.2851602 0.031273104 0.015557268 -0.0041956003 0.10449252
-0.25175136 -0.13672152 0.021230428 -0.020715246 -0.1391311 -0.2022444 0.09455401 0.17514555
-0.119152084 0.12492891 0.23785713 0.09741021 -0.09900824 -0.24840823 0.1454765 0.08818016
0.3340628 0.07759547 -0.29104877 -0.040066093 -0.12492417 0.19226582 0.09874573 -0.07389763
0.19951564 -0.0774068 -0.24044713 0.37300768 0.15411249 0.11559574 0.103287786 -0.23178297

rnn.bias_ih_l0 f4 [45]
00000000: 9fdc b43d a1b5 7abe 3472 3fbd 7eb4 8b3e
00000010: 7301 2abe 35cc 9c3e 9a89 823e 07a3 da3d
00000020: 6328 e0bd 10c7 1cbe 50fb 71bd 72ec 52bd
00000030: 9c0b cebd ee56 f93d 1c6c 43bd b4ae 05be
00000040: 0862 21bd c796 9d3d 4d6c 72be 9b68 6a3e
00000050: 484c 66bd 1cf2 a03e 7112 553e 4b72 bfbd
00000060: a93b 4cbe 585a 83be d762 b9bd f38a 3cbe
00000070: 8d15 edbe 8bf8 323e 1f25 c03d b495 7ebe
00000080: 534e 0dbd e53c 9fb9 d808 6e3c 8a6c f1bc
00000090: c984 33be 8e85 9a3e 0120 563e dcad e93d
000000a0: 78b9 1a3d 2597 163e 314f 0e3e f36c 433d
000000b0: feb8 1dbe
0.08831143 -0.24483348 -0.046739772 0.27286142 -0.16602115 0.30624548 0.25495607 0.10675626
-0.10945203 -0.15310311 -0.05907756 -0.051495023 -0.10060808 0.12174784 -0.047710523 -0.13054925
-0.03940013 0.07694774 -0.23674126 0.22891466 -0.05622509 0.31434715 0.20807816 -0.093479715
-0.19944634 -0.25654864 -0.09052055 -0.1841238 -0.46305504 0.17477624 0.0938208 -0.24861795
-0.034498524 -0.00030372213 0.014528476 -0.0294707 -0.17531122 0.3018002 0.20910646 0.11410114
0.037774533 0.14706095 0.13897397 0.047711324 -0.154026

rnn.bias_hh_l0 f4 [45]
00000000: 3316 183e 4a45 9dbd 82d8 4bbe 2796 e1bd
00000010: 6574 813d 7945 463e 4d94 adbc daa3 c7bd
00000020: c2c0 66be 9275 603e f756 07bd 602c 943e
00000030: 7e3a 1f3e c314 26be 1b1e 10be 2d94 9dbe
00000040: fa8b e03e d59c 5fbd 1aa6 ebbe cdbd 7e3e
00000050: a791 68be ba2b 893e 6f20 8abe 42e7 09bf
00000060: 8855 70bd 2e52 6dbe 19ae 653e 836f bb3d
00000070: 88fd 32be 713d b73e 37c9 6dbd 8bb7 38bd
00000080: b4b2 ba3b b663 5cbd 49c6 143e 6a03 49be
00000090: bb38 a53e 5a80 80bc 9526 91bd 72f8 a9be
000000a0: fe35 90bd bf57 9f3e 5574 12be 7838 473d
000000b0: 2541 14be
0.14852218 -0.076792315 -0.1990681 -0.110149674 0.063210286 0.19362439 -0.02118888 -0.09748049
-0.22534469 0.2191985 -0.03304192 0.28940105 0.15549657 -0.16218857 -0.14073984 -0.30777112
0.43856794 -0.054592926 -0.46025163 0.24877091 -0.22711812 0.26791173 -0.2697787 -0.53868496
-0.05867532 -0.2317588 0.22429694 0.091521285 -0.17479527 0.35789064 -0.05805322 -0.045096915
0.0056975726 -0.05380603 0.14528765 -0.19630209 0.32269844 -0.015686203 -0.07087437 -0.3319736
-0.07041548 0.31121632 -0.1430219 0.048637837 -0.14477976

rnn.weight_ih_l1 f4 [45, 15]
00000000: 676c 29be dddc 75be d8c7 c73d fdb5 2abd
00000010: f5c3 f73d 97a8 f6bd 5699 87bd 0628 033e
00000020: aa38 62be 87dd 133e 2865 5dbe fd8f 273e
00000030: 2c69 99bd 2791 993c 3a67 0fbe 0458 853e
00000040: 0fc7 143e 0c04 b9bd 52a4 2ebd 2ee1 903e
00000050: 87b2 95bd 098a 11bd 17a1 00bc 37fd a4be
00000060: b80d 0c3e f803 35bd b94b 3abd 72ea 213e
00000070: 6308 cb3e 9f65 05be e973 163e f923 d2bd
00000080: 2b24 c5be 59f2 013e eb7b e73d 04ce 133d
00000090: 86d7 bb3b 1a55 93be 2cfa a4bc 43f9 d2bd
000000a0: d377 9d3c 93b4 1ebe 747d afbe 54e4 a33d
000000b0: 7ddf c43e a6b2 0fbb ad92 ae3d e026 ebbd
000000c0: ce5a 9fbd fa00 1c3e ee3b a1bc 9115 45bd
000000d0: 1318 37bd 3d9a 033e 1521 003e 4265 d23d
000000e0: 93f4 0f3e 8859 36be 658c f93a 3973 8f3e
000000f0: 7f71 24be b47d b1be b3db dc3d 02c9 c03c
00000100: 0b02 9cbe 8f0b abbd 7497 ebbd cf4f 23be
00000110: 858d 723d 227d 953e ab7d ad3e 722e 41bb
00000120: 3baf 433e 28b0 fd3d 5eab 0cbe 89c8 e4bd
00000130: ead1 b83d 5661 0ebe 48e6 7a3e fac4 60be
00000140: 3d0f 203d 6bbe 1ebe 4709 1dbe f565 dc3c
00000150: abb5 143e d397 4c3e 5491 3d3e ab83 82bd
00000160: b514 d2bd 947f 93bd b00e 66be 5a14 80be
00000170: 020e 8a3d 1912 a6be 4272 94bd 72c8 b8be
00000180: e9a4 48bd a6c3 173d 06c7 c0bc 4482 06be
00000190: fcd6 1c3e 43eb 673e 06f1 bd3d 7f73 96be
000001a0: c8ce e7bd 7196 783e 2ef9 18be 73ee 31bb
000001b0: a3a0 2f3e 6fba 14be 6b1a 93bd 0af1 0c3e
000001c0: 9d44 36bd 06a1 d93d fa69 1dbe 0a18 b7bc
000001d0: 31c8 cc3d 5a34 5bbe 08df 903e 7037 4b3e
000001e0: c750 e13d 6818 3f3d 5266 113c 519d e63d
000001f0: 1f72 79be 02b5 993e e9f6 88be 7369 a5bd
00000200: 3b28 86bd 0623 b03d 5db5 563e 05c7 743e
00000210: d35e 3ebc 363d dc3d 426b d1bd 2113 783d
00000220: a90c f5bd c4de 0fbe 1194 d5bc 2acf 57be
00000230: 1a39 58bc ce5a 20be f290 bf3d f613 513e
00000240: 01ad 8fbd 3621 a2bd 4009 7ebc b15b 4a3e
00000250: 1333 ee3c f044 77bd 7247 aebe 98c8 26be
00000260: 952b f6bb 9b04 07be c1e4 a3be afcf 31bd
00000270: 64cf bd3d 4ba4 8a3e ca05 043e f8ae 4e3e
00000280: ad46 363e 41f9 23be 2e94 333e 7eb8 e83d
00000290: c7e8 28bd f8fd 55be cd95 053c f057 69bd
000002a0: a814 84be 4b94 71be bcf4 25be 2a2f e9bd
000002b0: 7b0e 37be 5a1a 813e 48ef 233c b2dc 55be
000002c0: 4a3a 97bd d4a2 443d a0bc 7bbe 1fa1 e8b9
000002d0: 982d 8b3e 6c83 8abd 7e37 b0bd d904 7a3c
000002e0: ff97 bbbd 05c7 26be 7fc9 883e 5419 463e
000002f0: 597f 523d 03a0 81be ed00 e83d a7b5 38bd
00000300: ce09 b3bd 3c3c 4e3e 0aad d8bd 198b fa3c
00000310: dbfa 4fbc 419b 063d 1a7c 5abe 8450 d53d
00000320: 78d1 0a3e f7e7 823d cb81 5cbe 6bda 03bd
00000330: 4e2f 8abe 5526 ad3c a4ca 8dbe d0d1 f1bd
00000340: 789f 37bd 920f 3f3d c1e4 41bc 8a14 873e
00000350: a754 843d 474b 54bd 722a d5bd 39cc 173e
00000360: 8036 bbbd e7e2 4f3e ddde f13c bf8d 4b3e
00000370: 8c9d ffbd 889c 873d 98f3 eabd 0399 04be
00000380: fce7 323e 3680 9a3d d08c 5ebe 5f7a a03c
00000390: 3de6 da3d af48 173e 204f 833e 16d1 bebe
000003a0: 033f 693e 61b6 3abe be36 1ebe b3ca 9dbe
000003b0: 3ec3 913e 20dc 4cbd be4f 79bd ef46 843e
000003c0: fff4 10be 789e 883e 8180 b13e b3ee 50be
000003d0: fd45 48be 6222 03bf c4c4 d33e d490 de3d
000003e0: da46 583e 9ef1 633e abc1 ee3d 673e 5cbe
000003f0: bab9 d13d 1a58 c4bd df8f 2f3e 5004 21be
-0.16545258 -0.24010034 0.09754914 -0.041677464 0.12097923 -0.12043875 -0.066210434 0.12808236
-0.22091928 0.14439975 -0.2162062 0.16363521 -0.07490763 0.018745972 -0.14004222 0.26043713
0.1452906 -0.09033975 -0.042637177 0.28296798 -0.07309442 -0.03553203 -0.007850907 -0.32224438
0.13677108 -0.044193238 -0.04548237 0.1581209 0.39654836 -0.13027047 0.14692654 -0.102607675
-0.38504156 0.12690105 0.11302932 0.036085144 0.0057324795 -0.28775865 -0.020138822 -0.10301449
0.019222176 -0.15498571 -0.342754 0.080025345 0.38451758 -0.002192655 0.0852407 -0.11482024
-0.077809915 0.15234748 -0.019681897 -0.04811627 -0.044700693 0.12851806 0.1251262 0.1027322
0.14058141 -0.17807591 0.0019039033 0.28017595 -0.1605892 -0.34666216 0.10784092 0.023533348
-0.3047031 -0.08351814 -0.11503497 -0.15948413 0.059216995 0.2919703 0.3388494 -0.0029477146
0.19109814 0.12387115 -0.13737246 -0.111710615 0.09024413 -0.13904318 0.24501908 -0.2195014
0.039077032 -0.15502326 -0.1533557 0.026904086 0.14522426 0.19979791 0.1851247 -0.0637277
-0.10257856 -0.07202068 -0.2246654 -0.25015527 0.06740953 -0.32435682 -0.072483554 -0.36090428
-0.048985396 0.03705182 -0.023532402 -0.1313563 0.15316385 0.22648339 0.09274487 -0.29384992
-0.11318737 0.24276139 -0.14938805 -0.0027150183 0.17151122 -0.14524244 -0.07182773 0.13763824
-0.04449903 0.10626416 -0.15372458 -0.02235033 0.09999121 -0.2140669 0.2829516 0.19845366
0.11001735 0.046654135 0.008874493 0.112604745 -0.2435994 0.3002091 -0.26750877 -0.080767535
-0.06550642 0.0860043 0.20967622 0.23904045 -0.011619288 0.107538626 -0.10225536 0.060565118
-0.11965305 -0.14049822 -0.02607158 -0.2107512 -0.013197208 -0.15659639 0.09353818 0.2041777
-0.0701542 -0.07916491 -0.015505135 0.1976154 0.029077088 -0.06036848 -0.34038883 -0.16287458
-0.0075125196 -0.1318535 -0.32010463 -0.043410953 0.09268072 0.2707847 0.12892833 0.20183933
0.17800398 -0.16013052 0.17536995 0.11363314 -0.04123762 -0.20897663 0.008153391 -0.05696863
-0.2579701 -0.23591726 -0.1620664 -0.11385949 -0.17876618 0.25215417 0.01000578 -0.2088497
-0.07384165 0.048006848 -0.24583673 -0.00044370533 0.27183223 -0.06763348 -0.08604334 0.015259945
-0.0915985 -0.16286857 0.2671623 0.193456 0.05139098 -0.25317392 0.113283016 -0.045095112
-0.087421045 0.20140165 -0.105798796 0.030583905 -0.012694086 0.032862905 -0.21336403 0.10415748
0.13556468 0.063919 -0.21533887 -0.03219072 -0.26989216 0.021136442 -0.27693665 -0.11807597
-0.044829816 0.04664571 -0.011834324 0.26382858 0.06461459 -0.051829603 -0.104084864 0.14823999
-0.091412544 0.203014 0.029525215 0.1987829 -0.124812216 0.06621653 -0.11472243 -0.12948994
0.17471308 0.075439855 -0.21733403 0.019589601 0.10688446 0.1477382 0.25646305 -0.37268895
0.22777943 -0.18233635 -0.1545057 -0.3081871 0.2846927 -0.050014615 -0.060867064 0.25835368
-0.14155959 0.26683402 0.34668353 -0.20403557 -0.19557948 -0.5122434 0.41361058 0.108674675
0.21120778 0.22260138 0.11658033 -0.2150818 0.10240503 -0.095871165 0.17144726 -0.15724301

rnn.weight_hh_l1 f4 [45, 15]
00000000: 326c 5a3e f455 a33d 0d96 0dbd bb39 a23e
00000010: b9fa ff3d e213 80bc 1c51 7ebe ebbf 643e
00000020: 6f5b 41be cc5c 2ebe 6d7c 4cbe 4e7b e5bd
00000030: 51f1 7cbe 3a7d 72be e4e8 c1bb 4fea 4cbc
00000040: 9ede 6dbe 5593 2e3e dcb1 7abe 5e50 9ebd
00000050: 7080 2bbe 4dfc bfbc 2c43 47be 158a 193e
00000060: 2b9c 243e 68d7 573e 73cf b63d 8fa8 9c3e
00000070: f2de 9a3e 577b 5abe 0b91 99bd 730f dbbc
00000080: 5d8a f1bd 720a 77bd 2d5c 333e 55cb 0bbe
00000090: 4c6c 32be 6ba2 673e f738 8bbd f3ab bf3d
000000a0: 978f 18be 812b 813d 6686 083d 5abe f93d
000000b0: e09b f83d 0f22 a9bd 786a 3dbd ec18 f0bc
000000c0: e6ee 1a3d cfde 13be 9f0e 963e 8211 643e
000000d0: 5176 42bd 0b6c e8bd 60bb 8a3e bf7e ae3d
000000e0: c187 dabc d1b8 593d cb1d 993d 2b94 49bd
000000f0: 75f1 813e da10 c7bc 0069 48be 3c64 b6bc
00000100: 8500 4fbe f699 583d 34de 283e 087d 95bd
00000110: 5f99 8ebe 090c d83b 7a07 6bbe 498d 8cbe
00000120: 7364 61be 80cd bcbd 9211 943e 873b 0bbe
00000130: e15e 55be 1a1b 453b 80be 7dbb 8ba1 c2bd
00000140: fa43 8f3e 0e02 91be dea4 693e 4e55 45be
00000150: 60be d8bd db19 5d3e aa51 6abe 399f e6bd
00000160: 1ef3 2a3e 4913 00bd 5f7a 5a3e 06eb acbd
00000170: ca3b 22be 81f9 033e 66cf 653d 79ed 303e
00000180: bad7 1a3e 6ffb 933e 0c66 3fbe 9e8b 143d
00000190: f617 20be bda3 fa3c 0f8b 91be d123 6d3d
000001a0: 02fb cebd 89bb 8ebd dc03 4f3d 62ed f6bd
000001b0: afab 54be 2287 f83d 54a9 723e 8ebe 033d
000001c0: fddd 863e d0c0 ff3d 82c2 b4bc 2946 9bbe
000001d0: 8f28 553c bbbb 063b 2c94 393e 46f9 ae3d
000001e0: 4d07 bb3d b823 6f3d 2f89 64be e8f0 84bc
000001f0: 2c1d c53d 3224 39be 4c04 ddbc b77a 25be
00000200: 88ca db3d 1c4c 823e 4806 cd3d 2e59 243e
00000210: fc02 10be ec99 d6bd cb52 dcbd b662 54be
00000220: a916 f83d d81b 51bc d3a5 5ebd 30a4 d43d
00000230: 7616 f33d 5706 46be 56d5 5d3e 44c9 6dbe
00000240: 0d20 bbbd e732 4b3e cb93 db3d dd54 73be
00000250: b279 e0bd 4f13 a0bb 18ea 203e f6e1 9bbe
00000260: 45ce 92be e57c 07be e9fe 943e 7666 893d
00000270: 553b 0a3e a13a 5dbc 8ee5 913e 1e2e 943e
00000280: 4c8a 9dbe 8e76 1f3e 4b4a 8d3e eb39 4d3d
00000290: 471a 523e ea81 2d3e fcb4 03be 2208 a2bd
000002a0: 5b97 7f3c 30f8 a8bd 380b 06be 5205 393e
000002b0: 5b92 24be 34c1 233e 8620 2fbe f0ad 82be
000002c0: c4a3 2e3e 9b66 173e 5576 0b3e c5fc 8bbd
000002d0: 8d47 b0bd 24e5 463e 6229 52be ba7a 1bbe
000002e0: b561 26be 7a8e e23d 3249 bfbd 0c66 07bd
000002f0: c02f 3a3e b25c 5d3e f10f c7bd 31ac 0bbd
00000300: d9d2 dbbd 42b5 5a3e 2b66 26be 724b 593e
00000310: 3483 08be 7583 a5bd 030c cebd 82e9 123e
00000320: 8330 15be d76f a7bd 7ac5 753e da6d f43d
00000330: 820b 483e 355c 5c3e 6bbf 43bd a018 3ebe
00000340: f6a6 46be 465e ab3d 3a8d 183e 6c42 5cbe
00000350: e71b 65bd 69c2 323c d4c5 6ebe 3547 863e
00000360: c52a 763e 838d b93b 8d2f 18be a338 83bd
00000370: 5370 103e 4bb9 a0bd e659 05bd ef95 823d
00000380: 4a13 af3d ad13 66be 4f8f 18bd fdf7 013e
00000390: 248f a33d b8cb adbe 3277 db3e ca28 ab3e
000003a0: a1d8 9fbd 8b20 47bd 4b47 3abe 9e50 d03e
000003b0: 9bc0 943d 08f2 b0be 81d0 c23d 727e 96be
000003c0: b84c da3d eaf4 febd a707 3e3d 097a b8be
000003d0: 78c1 9a3d 7b1f e3bd 382b 563c 8615 1f3b
000003e0: a42d 2abd 067a 883e 3f14 bfbe 50e9 b5bd
000003f0: 2dff 76bd f9ba 623d 3da0 df3e b4e7 f93d
0.21330336 0.07975379 -0.034566928 0.3168467 0.124989934 -0.01563448 -0.24835628 0.22338836
-0.18882535 -0.17027587 -0.1996934 -0.11205159 -0.2470143 -0.23680583 -0.0059176553 -0.012507035
-0.23229453 0.1704839 -0.2448191 -0.077301726 -0.16748214 -0.023435736 -0.19459218 0.1499408
0.16075198 0.21078265 0.089262865 0.3059735 0.3024822 -0.21336113 -0.07498368 -0.026740765
-0.11793969 -0.060312696 0.17515631 -0.13651784 -0.17424124 0.22620551 -0.067979746 0.093589686
-0.14898525 0.06307126 0.033331297 0.1219451 0.12139106 -0.08258449 -0.046244115 -0.029308759
0.037825488 -0.14440463 0.2930803 0.22272304 -0.047476117 -0.113487326 0.2709608 0.08520269
-0.02667606 0.05315477 0.07476386 -0.04921357 0.2537953 -0.024300028 -0.19571304 -0.022264592
-0.20215042 0.052881204 0.16491014 -0.072992384 -0.27851388 0.0065932316 -0.22952071 -0.27451542
-0.22010975 -0.092188835 0.28919655 -0.13596927 -0.20836975 0.0030075968 -0.0038718283 -0.09503468
0.2798155 -0.2832188 0.22816798 -0.19270822 -0.10583186 0.21591894 -0.22882715 -0.11260838
0.16694304 -0.03126839 0.21335743 -0.08443265 -0.1584312 0.12888147 0.056105994 0.17278089
0.15121356 0.28902766 -0.18691272 0.03626596 -0.1563414 0.030595655 -0.28426406 0.057895485
-0.1010647 -0.06969363 0.05054079 -0.12056996 -0.20768617 0.121351495 0.23697406 0.03216415
0.2634124 0.12487948 -0.022065405 -0.30326965 0.013010158 0.0020558673 0.1812293 0.08543639
0.09132252 0.058383673 -0.22317956 -0.016228154 0.09624705 -0.18080214 -0.026979588 -0.16160093
0.10731989 0.25448692 0.10010964 0.16049644 -0.14063638 -0.10478577 -0.10757979 -0.2074078
0.12113697 -0.012762986 -0.05435736 0.10382879 0.118695185 -0.19338356 0.21663412 -0.23221308
-0.091369726 0.19843636 0.10721549 -0.23762842 -0.109607115 -0.0048851143 0.157143 -0.30445832
-0.28672996 -0.13231237 0.2910073 0.06708996 0.13499196 -0.013502748 0.2849545 0.28941435
-0.30769575 0.15572569 0.27595744 0.050104063 0.20517837 0.1694409 -0.12862009 -0.079117075
0.015600051 -0.08250463 -0.13090217 0.18068436 -0.16071455 0.1599167 -0.1710225 -0.2552333
0.17054659 0.14785235 0.13619359 -0.06835321 -0.08607397 0.19423348 -0.20523599 -0.15183535
-0.1624821 0.110623315 -0.09340133 -0.033056304 0.18182278 0.21617392 -0.097198375 -0.03409976
-0.107335754 0.21358207 -0.16249911 0.21220186 -0.133313 -0.08081714 -0.10060885 0.14346889
-0.14569287 -0.08175629 0.24001113 0.11935015 0.1953564 0.21519549 -0.047789972 -0.18564081
-0.19399628 0.083675906 0.14897624 -0.21509713 -0.055934813 0.010910609 -0.23317653 0.26226202
0.24039753 0.0056626215 -0.14861889 -0.06407287 0.14105348 -0.07847842 -0.032556437 0.06376254
0.08548601 -0.22468443 -0.037246045 0.12692256 0.07986286 -0.33944488 0.42864376 0.33429557
-0.078049906 -0.04861502 -0.18191259 0.40686506 0.07263299 -0.34559655 0.09512425 -0.29393345
0.10659164 -0.124490574 0.046394017 -0.36030605 0.075564325 -0.11089989 0.013071828 0.0024274304
-0.041547433 0.26655596 -0.37320134 -0.088823915 -0.06030195 0.055354092 0.4367694 0.12202397

rnn.bias_ih_l1 f4 [45]
00000000: 735d 963e e8c4 3a3e c572 bf3c 6f98 14be
00000010: e37b 633e 83cb d4bc 276a 8dbe 1d2b a83d
00000020: 7dea eebb 1319 39be fcb9 88be b077 8abd
00000030: 146f 5fbe 2626 a1be c6b3 34be 1eb9 bd3b
00000040: 7334 58be 29fc 52be de94 24be 6ea6 1fbe
00000050: ffe8 40be a3e0 ed3c fcdc 1dbe de17 9cbd
00000060: b0fd 0d3e 15d3 173e 27f1 2bbe 1fed f63c
00000070: f61d 643e 1242 b33e c4c0 a3ba c18b 573d
00000080: ab4f 883e 5443 a7bd 310f 6abe c351 75bd
00000090: a4aa 8e3e 4d25 40be c907 44be 15d3 47be
000000a0: c3e6 8f3e be83 26bd c262 50be e9df 4ebc
000000b0: bd20 27be
0.2936817 0.18239176 0.023370156 -0.14511274 0.22215228 -0.025975948 -0.2762005 0.08211348
-0.007291137 -0.18075971 -0.26704395 -0.0676111 -0.21819717 -0.31474417 -0.17646703 0.00578989
-0.21113758 -0.20604004 -0.16072413 -0.15590832 -0.18838881 0.02903778 -0.1541633 -0.0762174
0.13866305 0.14826615 -0.16791211 0.030142365 0.22277054 0.35011345 -0.0012493362 0.052623514
0.26623282 -0.08167139 -0.22857358 -0.059892427 0.27864563 -0.18764229 -0.19143595 -0.19514115
0.28105745 -0.040652983 -0.20350173 -0.0126266265 -0.16321082

rnn.bias_hh_l1 f4 [45]
00000000: b1de 483e 3819 0d3e ebd9 15be 6d48 abbe
00000010: 14d9 82be b9dd a9be bf61 ac3d 2b4d 213e
00000020: c2f6 1b3d c1ca d9bd b5aa 453d 30a3 6cbe
00000030: 941f 053e 009a 86be ceeb debd 23f8 55bd
00000040: 88e1 a9bd e478 cd3d 9223 84be 9e01 30be
00000050: 5178 d0be b422 103e 66d7 67be 9e95 4dbe
00000060: 0da3 993e 13df 203e f287 f7bd afe1 46bd
00000070: cb79 cc3e 7362 c4bd 64d9 7e3e 30c1 323e
00000080: 60e3 9e3e 75ef 33bd 6cb0 4a3c 4190 7a3d
00000090: 3c96 38be 492d 703e e02d 55be 8952 f5bd
000000a0: 3a30 ac3c d397 c03d f5f0 58be 34ca 1ebe
000000b0: 6bc4 5c3e
0.196162 0.13779151 -0.1463391 -0.33453694 -0.25556242 -0.33176973 0.08417081 0.15752093
0.038077123 -0.10634375 0.048258502 -0.23109126 0.13000327 -0.26289368 -0.1088482 -0.052238595
-0.0829497 0.10032824 -0.25808388 -0.17188117 -0.40716794 0.14075738 -0.22640762 -0.20076606
0.3000721 0.15710096 -0.120864764 -0.048555072 0.3993667 -0.0958909 0.24887615 0.17456508
0.31032848 -0.043929536 0.012371164 0.061172727 -0.1802606 0.23454775 -0.20818281 -0.11978633
0.02101909 0.09403958 -0.21185668 -0.15506822 0.21559303

output_projector.weight f4 [1, 15]
00000000: da91 173e c35b b0be 0a9b 57be fb6e a4be
00000010: 1256 b73e 96de f2bd 482e 15be 6a11 66be
00000020: 9b5c 4d3e 48d8 cc3d 42c2 95be b80c f0bd
00000030: ca09 333e 7bda 20bd ad47 da3c
0.14801732 -0.3444501 -0.21055236 -0.3211592 0.35807854 -0.11858861 -0.14568436 -0.2246758
0.20054857 0.1000219 -0.2924977 -0.11721176 0.17484203 -0.03927086 0.026645506

exp_avg f4 [2, 1]
00000000: 0000 0000 0000 0000
0.0 0.0

exp_avg_sq f4 [2, 1]
00000000: 0000 0000 0000 0000
0.0 0.0

slow_buffer f4 [2, 1]
00000000: 0000 0000 42f6 53be
0.0 -0.20699409

exp_avg f4 [45, 4]
00000000: 4599 48b6 367f 49b7 300f e2b6 9156 b637
00000010: cfe3 3137 bfbe 9337 9972 d7b7 6ff0 29b6
00000020: 1da9 ec37 a704 0738 da12 25b8 bd8c b0b7
00000030: 72ef 0538 df6c 30b8 2488 0837 57b6 0536
00000040: 22b0 d5b4 142f 04b7 4526 5635 5ef4 fa36
00000050: 209e 0836 e6e7 2e38 a546 47b8 b94d 7d36
00000060: 6f82 c236 5682 d735 75cc 90b7 6467 2537
00000070: c668 5837 559b ea36 1d03 64b5 1fbb 9fb7
00000080: c96f 95b6 9465 c2b6 c414 3436 f8ca fd36
00000090: 2c02 1636 079b 52b6 ece9 aa37 d456 a3b7
000000a0: 110b c236 682e 81b5 ca09 d7b6 6d29 d535
000000b0: 8f99 a5b6 776a 05b7 e7af 4737 793a 8435
000000c0: e2a8 e837 68b9 c2b6 528a 70b6 3fe9 99b7
000000d0: 39e8 aa36 7f87 efb7 79d4 88b6 9502 e737
000000e0: 455c 92b7 333a 2cb8 6a66 3238 d603 8637
000000f0: a1e1 8138 275d d937 965d 4fb8 4014 21b8
00000100: 6598 cdb7 7e18 3136 58c3 1137 5827 5d37
00000110: 9e44 5f38 b77e 9137 9f52 9fb8 540a b536
00000120: 2ac2 0839 7749 cd37 51c1 cbb8 bc2a 72b8
00000130: 7c9c 6b37 8d64 3537 ef69 b5b7 a8b4 58b6
00000140: f9bf 3038 fb71 7738 08a3 83b8 e1eb 20b8
00000150: 0dcf 2436 5337 32b6 970c 4837 85b2 44b7
00000160: 982d a736 3495 bb37 cbff 16b8 fd3d 1137
00000170: 5fba 0339 b0e1 3d37 89c6 f5b8 bba9 a5b7
00000180: 3e2a 0637 3001 feb7 37dd f8b6 6823 f937
00000190: 5fda 5238 5802 5f37 d8ca 24b8 35a0 cbb7
000001a0: 7dba afb7 a24c f9b6 670c 0338 2a59 40b6
000001b0: 3c4e 2d38 c418 fa36 38ca 5cb8 07c7 8136
000001c0: 2735 c538 c295 6837 acd2 9cb8 59ea 0ab8
000001d0: 40c0 8538 50ab b7b8 1ac9 b5b6 7d1e f537
000001e0: 0d76 75b9 4a03 1039 fecf 0d3a 9ce6 e8b9
000001f0: f358 e438 5d5a 9d38 73fc 9ab9 773e ea38
00000200: 44a6 aeb7 5699 a639 a3af 12ba 57b0 8939
00000210: 63b7 88b8 5a89 4339 3ca2 b439 1139 f4b9
00000220: a0e4 4139 0e75 a937 af83 8eb9 2ce8 8b38
00000230: 1410 8e39 5e27 cfb9 cc0d d839 83f6 96b9
00000240: ff92 2538 f86d b938 b1a1 93b9 a327 2139
00000250: 4da0 1639 84ec ea39 d3ca 36ba d363 dd38
00000260: 6a37 84b9 c49e 9538 60b0 6fb9 e4a7 d639
00000270: 393e 0639 deae 8eb8 f422 84b9 1a5f 4939
00000280: 5428 35b9 f0cd 4d39 6701 a3b9 99ae 9639
00000290: 9f77 7cb8 c1fa 0eb9 3445 7339 3eb2 14b8
000002a0: 703a e4b8 87f2 e637 c73b 69b8 da8d 0f39
000002b0: fcd5 0939 aad0 6b39 7733 0639 0fed fdb9
000002c0: bb6d d1b8 5e5f 8e38 be1d a139 295a 90b9
-2.9891537e-06 -1.2010152e-05 -6.737093e-06 2.1736401e-05 1.0603063e-05 1.7612589e-05 -2.5683361e-05 -2.5322913e-06
2.8212142e-05 3.219084e-05 -3.9356622e-05 -2.1046371e-05 3.1932672e-05 -4.2063064e-05 8.137929e-06 1.992468e-06
-3.9802495e-07 -7.878774e-06 7.97769e-07 7.4790287e-06 2.035762e-06 4.1700805e-05 -4.751109e-05 3.7745178e-06
5.796835e-06 1.6056681e-06 -1.7261345e-05 9.858839e-06 1.2898998e-05 6.9918265e-06 -8.494115e-07 -1.9041412e-05
-4.4535595e-06 -5.793476e-06 2.6834177e-06 7.5636162e-06 2.2353006e-06 -3.1382676e-06 2.0374508e-05 -1.9471547e-05
5.782939e-06 -9.624755e-07 -6.408639e-06 1.5881793e-06 -4.9352598e-06 -7.952206e-06 1.190228e-05 9.851784e-07
2.7735197e-05 -5.8032347e-06 -3.58433e-06 -1.8347635e-05 5.093429e-06 -2.8554115e-05 -4.077851e-06 2.7538548e-05
-1.7447523e-05 -4.1062198e-05 4.2533888e-05 1.5975831e-05 6.193226e-05 2.5911793e-05 -4.9439805e-05 -3.840425e-05
-2.4508869e-05 2.6389312e-06 8.6881555e-06 1.3181787e-05 5.3231248e-05 1.7344353e-05 -7.5971e-05 5.3954227e-06
0.00013042302 2.4472114e-05 -9.715802e-05 -5.7737096e-05 1.4043526e-05 1.0811852e-05 -2.162621e-05 -3.2291664e-06
4.214046e-05 5.899554e-05 -6.276934e-05 -3.8366652e-05 2.4558424e-06 -2.655627e-06 1.192386e-05 -1.1724075e-05
4.9822956e-06 2.2361615e-05 -3.6001013e-05 8.657106e-06 0.00012562562 1.1317825e-05 -0.000117194904 -1.974857e-05
7.996858e-06 -3.0279713e-05 -7.4167287e-06 2.96996e-05 5.0271276e-05 1.32923815e-05 -3.928956e-05 -2.4274088e-05
-2.0948466e-05 -7.4296995e-06 3.1244384e-05 -2.866213e-06 4.1319276e-05 7.4534637e-06 -5.264042e-05 3.8676694e-06
9.4035924e-05 1.3863146e-05 -7.4779e-05 -3.3120017e-05 6.3777436e-05 -8.7580294e-05 -5.4176317e-06 2.9220473e-05
-0.00023408998 0.00013734135 0.00054097164 -0.00044422306 0.00010888455 7.503175e-05 -0.00029561258 0.000111696245
-2.081984e-05 0.00031776231 -0.000559563 0.0002626206 -6.519144e-05 0.00018647817 0.0003445315 -0.00046581824
0.00018491084 2.0200878e-05 -0.00027182463 6.671282e-05 0.0002709633 -0.00039511448 0.0004120901 -0.00028793895
3.9475966e-05 8.841971e-05 -0.00028158494 0.00015368922 0.00014364831 0.00044808176 -0.0006972972 0.00010556695
-0.0002521829 7.134446e-05 -0.00022858521 0.0004094235 0.00012802416 -6.803659e-05 -0.00025203044 0.00019204282
-0.00017276529 0.00019627041 -0.00031090828 0.00028740315 -6.0192888e-05 -0.00013635588 0.00023200066 -3.545195e-05
-0.00010882772 2.7531072e-05 -5.56072e-05 0.00013690387 0.00013145054 0.0002248908 0.00012798408 -0.00048432543
-9.9863355e-05 6.788851e-05 0.00030730473 -0.00027532995

exp_avg_sq f4 [45, 4]
00000000: da38 df2f c30e b12f 3ca6 5e30 0b2f 3a2f
00000010: 84c5 bb2f a806 222f 7746 3c2f 73ab 902d
00000020: cd23 7c31 2f83 c630 98c7 7330 ec68 0d30
00000030: 4227 a530 c579 ec2f cdcf 4931 e254 3230
00000040: b4be a030 885f ba2e 10c4 0530 29da 372e
00000050: 33aa 5130 746c 6630 7754 3530 0167 012f
00000060: d28e 6b2e 9c26 112e 16b6 492f d75b 582e
00000070: a183 4c30 b4ca 9b2f 7e80 7f2f aa41 af2f
00000080: a3c5 562f 4bc7 1c2f 8378 b92e de35 a12e
00000090: fdf4 022f 69a3 e42d d3d8 9f2f 6f7d a62e
000000a0: 3428 832f ecba 812e 6551 412f ebd2 032f
000000b0: b373 aa30 dfc2 192f 9b5d cc30 076c 2d2f
000000c0: 4fd3 e12e 8d6d 512e 5a04 a72e fc38 a72e
000000d0: 276d 9630 d787 1a30 af19 8c30 f83b c32f
000000e0: b0a2 1a2f ec18 202f 9aa6 0b2f a39c 922e
000000f0: d21c 6e31 3470 5430 7726 6c30 30b4 2930
00000100: b294 0031 8ebd 3230 c46a ac2f 395a ec2f
00000110: cbf7 0c32 11cf 5830 292f 8a31 3566 2931
00000120: 0860 9f32 1d75 8731 e177 5531 1a70 6531
00000130: bdca e42f e7e5 672e b51f d22e 8f3a 222f
00000140: c639 a831 00a6 3430 be14 7c31 5f54 5b31
00000150: 61ce 932e 61aa 732d 07bf af2d 713f 6b2e
00000160: 9a1d 4930 592c fe2e 308b da2f d84c e92e
00000170: 94b7 8232 76c3 fa30 baec 8d31 53c3 5e31
00000180: eb6b 7e2f c6bd 0d2f 6fb4 cf2f 604d e12f
00000190: caa2 3f31 ae05 f22f f0ff f030 2b46 9530
000001a0: 7b78 aa2f ae7c 422e dffa 322f 14a0 cd2e
000001b0: ce13 ec2f 28d6 9b2e c6d5 2230 3b36 922f
000001c0: 17a7 4532 0f5b 5031 a0c1 9e31 858b 8d31
000001d0: 792a af30 4d6c 6030 f68a 2630 3504 9d30
000001e0: f749 e033 06de 8d33 a7d2 c934 a5dd d733
000001f0: f498 2135 136d 1333 33d4 0a35 706d 5d33
00000200: 5fca 6434 7c56 0434 582f 0a34 3d11 ae33
00000210: fd31 6834 a83e 8433 e91e 2f35 7676 8434
00000220: f658 b234 5548 1233 28bc 3634 c754 8d32
00000230: 5b12 0634 5276 9333 1918 3634 a1c3 c933
00000240: 1f2c 2332 4e78 9c31 b326 f432 d623 1832
00000250: 09b0 3634 7b4a d033 201e db33 36a2 f333
00000260: 71fb 3d34 d43f b233 8f0d 7a34 251a 1d34
00000270: 77d4 7133 2398 5c32 8087 cb33 a5a5 0833
00000280: e773 e433 c9ad 5c33 52c6 7334 8044 b133
00000290: bda6 6534 b134 7632 4b5d 5a34 cdb0 7932
000002a0: c573 ed32 70e5 5a32 44ff 1133 5749 2732
000002b0: 30a0 6534 8f9f c533 e974 0c35 8915 7934
000002c0: 2af9 9433 fec6 a632 ce5a 9a33 c48d 0433
4.060386e-10 3.22066e-10 8.099936e-10 1.6933314e-10 3.4155445e-10 1.4736179e-10 1.7123535e-10 1.6447043e-11
3.6691177e-09 1.4443681e-09 8.8686525e-10 5.1444604e-10 1.2016488e-09 4.3014672e-10 2.936747e-09 6.487665e-10
1.1695733e-09 8.4752705e-11 4.866374e-10 4.1803148e-11 7.6275625e-10 8.3827634e-10 6.596745e-10 1.1769076e-10
5.3559664e-11 3.3003475e-11 1.8345533e-10 4.9194284e-11 7.4401824e-10 2.8338365e-10 2.3237764e-10 3.1878972e-10
1.9533401e-10 1.425892e-10 8.434233e-11 7.331001e-11 1.1910468e-10 2.5993168e-11 2.9075994e-10 7.5710875e-11
2.3857327e-10 5.899445e-11 1.7582165e-10 1.1989314e-10 1.2402012e-09 1.3984501e-10 1.4869558e-09 1.5772637e-10
1.0269351e-10 4.76184e-11 7.595054e-11 7.604403e-11 1.0944959e-09 5.6217914e-10 1.019364e-09 3.5512904e-10
1.4064017e-10 1.4560769e-10 1.2701165e-10 6.6671356e-11 3.464994e-09 7.72846e-10 8.591096e-10 6.1737904e-10
1.8710975e-09 6.5025396e-10 3.136248e-10 4.2992257e-10 8.205414e-09 7.88746e-10 4.02169e-09 2.4650835e-09
1.8553706e-08 3.9423314e-09 3.1063723e-09 3.3387608e-09 4.1617013e-10 5.2727513e-11 9.555327e-11 1.4754618e-10
4.8960116e-09 6.571952e-10 3.6682617e-09 3.1916654e-09 6.721446e-11 1.38507825e-11 1.998003e-11 5.348916e-11
7.316544e-10 1.15584604e-10 3.9752868e-10 1.06092635e-10 1.5217474e-08 1.8245447e-09 4.130553e-09 3.241628e-09
2.3139506e-10 1.2891296e-10 3.7781286e-10 4.098224e-10 2.7886693e-09 4.402358e-10 1.753504e-09 1.086112e-09
3.1008426e-10 4.422123e-11 1.6278133e-10 9.350756e-11 4.2942222e-10 7.086626e-11 5.9239047e-10 2.6595778e-10
1.1504901e-08 3.0319744e-09 4.620418e-09 4.1195016e-09 1.2744997e-09 8.164463e-10 6.0587924e-10 1.1424449e-09
1.0444267e-07 6.60621e-08 3.7592437e-07 1.00520346e-07 6.019975e-07 3.4325307e-08 5.1717797e-07 5.1555105e-08
2.1307777e-07 1.2324921e-07 1.2869475e-07 8.105642e-08 2.162487e-07 6.158126e-08 6.523756e-07 2.4673108e-07
3.321981e-07 3.405906e-08 1.7018522e-07 1.6453113e-08 1.24864e-07 6.866743e-08 1.6958838e-07 9.3953766e-08
9.497881e-09 4.5538746e-09 2.8422937e-08 8.855713e-09 1.7014112e-07 9.699303e-08 1.0203462e-07 1.1345075e-07
1.769347e-07 8.300381e-08 2.3287997e-07 1.4631276e-07 5.630542e-08 1.2840277e-08 9.4775714e-08 3.181562e-08
1.063816e-07 5.13808e-08 2.2703287e-07 8.254665e-08 2.1387946e-07 1.4331065e-08 2.0336772e-07 1.4533907e-08
2.7643077e-08 1.2741438e-08 3.3992606e-08 9.737355e-09 2.1385563e-07 9.202551e-08 5.232419e-07 2.3197767e-07
6.93711e-08 1.9415435e-08 7.187701e-08 3.086258e-08

slow_buffer f4 [45, 4]
00000000: d0cc 963e a9ed 82bd d10e ce3d 58c2 5f3b
00000010: e407 debd 63d3 16bc aeeb c3bd 8c86 c5bd
00000020: 87da 0c3d a295 41be 8868 9f3d 5801 863e
00000030: d83c b63e ccb0 263e 9c44 b73c dbfd bc3e
00000040: 4e88 7cbe 6d67 c1bd 98c2 003c 0414 a33d
00000050: 1a35 083e 7064 43bd a888 d13e 940c b1be
00000060: 6c3e a63d 88b8 a03d 32bf 153e 986d a8be
00000070: e097 80be 8205 58bd ba20 163e 2e12 793e
00000080: 2861 22be 3079 2abe 8026 ab3c 2914 823e
00000090: 8ea9 edbc 48a4 15be a239 953d ac24 9b3e
000000a0: 2e61 a6be 6478 7cbe af0d 3e3e 48ec 903e
000000b0: 660b 373d a201 33be 04f0 e4bd deea 61be
000000c0: 2a8c e03d 4e6b 903e 9ae7 80be 7844 903b
000000d0: 7123 f2bd f2cf f2bd b636 bbbe 6a5e 4e3e
000000e0: b8a8 413e 0d66 98bd cb49 a4bc f5c8 aabd
000000f0: 5c02 bdbe 8218 83bd 5eba f23d fe02 ac3e
00000100: bb10 5abd 44aa cbbe 5300 78bd 93d4 81bd
00000110: 7a59 10bd 884b f83d 0ef6 483e 7c94 633e
00000120: 4038 36be 1ed1 b83d 9888 77bd 39ad 183c
00000130: b054 e9bd a074 21bd a827 823d 5386 afbd
00000140: c682 d1be e349 a63d 9029 a03e 9470 87bd
00000150: 7998 663e c80d fabd 1576 28be 7c50 473c
00000160: b0dc 4b3d 7ede 16be dcdf a63e 6603 853d
00000170: 797e cbbe a44a a33d 0075 f53c 28a6 a63e
00000180: b1c3 173d 7663 ae3e 7b40 603e b6b3 98bd
00000190: 9c75 98bd baa6 32bc dacb 183e f722 103e
000001a0: c13e 563e 0fec cdbb 6f2d a8be 4a68 0cbc
000001b0: 5d18 a6bd 2a85 6e3e 9eb2 d33d d29c bcbc
000001c0: c461 17be 5565 123e 4cf3 343d 4853 933e
000001d0: dc63 abbd b658 2c3e ea60 6d3e cc98 793b
000001e0: 5011 1b3d f007 243e 4eb1 adbe eeca ef3e
000001f0: b41c 94be a8bf 443d 1047 22bd 4687 44be
00000200: b287 0f3e 8a24 aebb d626 cd3e 618c e53c
00000210: 1221 163e 9349 ff3d d6ec e0be b8fd 9e3e
00000220: 681e e43b 566a 4d3e b8c0 ce3d c373 113e
00000230: 4c25 1d3e 87f7 8d3c 6895 ebbe 9005 a13a
00000240: bbb2 cabe 1c5b 86bd a6c2 433e 4b78 f7bd
00000250: ecd2 59be d45f 2a3e 49f6 8a3e 008f 20be
00000260: 1c0f 9ebd 2b41 eebc 277b ff3e 1cf2 9cbb
00000270: 1455 aabe da1c d3bd 80c8 9b3e 1ce5 a8be
00000280: c0e6 d5bd 449d c03c 44f3 9f3e c231 0bbd
00000290: 6080 013c c054 16bd b8f6 83bd 2f48 063d
000002a0: de17 a0bc b566 b5bd 109a a73e 82f6 563e
000002b0: f25e 9bbd e8c1 043e 4014 c0be 6ad1 dd3e
000002c0: 9567 773e 8e00 093e de04 87be 1ae4 813e
0.29453135 -0.06392986 0.1006142 0.0034142938 -0.10841349 -0.009205672 -0.09566437 -0.096448034
0.03438809 -0.18904737 0.0778361 0.261729 0.35593295 0.1627838 0.022371583 0.36912426
-0.24661371 -0.09443555 0.007858895 0.07962802 0.13301507 -0.047703207 0.40924573 -0.3457991
0.08117375 0.078476965 0.14623716 -0.32896113 -0.2511587 -0.052739628 0.14660922 0.24323341
-0.15857375 -0.16647792 0.020892382 0.25406006 -0.029011514 -0.1461345 0.07286383 0.30301416
-0.32496017 -0.246553 0.18559907 0.28305268 0.044688605 -0.17481092 -0.11178592 -0.22062251
0.10964234 0.28206867 -0.25176698 0.0044026934 -0.11823166 -0.11856069 -0.3656518 0.20153204
0.18912017 -0.0744134 -0.020054718 -0.08339111 -0.36915863 -0.06401159 0.11851953 0.33596033
-0.05323861 -0.3977834 -0.060547184 -0.063393734 -0.03524158 0.121237814 0.19625112 0.22224611
-0.17794895 0.09024261 -0.060433 0.009318643 -0.11393106 -0.039417863 0.0635522 -0.08570542
-0.40920085 0.081195615 0.3128171 -0.066132694 0.22519101 -0.1220966 -0.16451295 0.012165185
0.04977101 -0.14733312 0.32592666 0.06494789 -0.39744928 0.07973221 0.029963017 0.32548642
0.03705186 0.34060258 0.21899597 -0.07456152 -0.07444307 -0.0109040085 0.14921513 0.14075838
0.20922376 -0.006284244 -0.32847163 -0.008569786 -0.08110116 0.23292986 0.10336803 -0.023023997
-0.14783388 0.14296468 0.04417734 0.28774476 -0.08368656 0.16830716 0.23181501 0.0038085459
0.037858307 0.16018653 -0.33924335 0.4683451 -0.2892815 0.04803434 -0.03961855 -0.19192228
0.14016607 -0.0053144144 0.40068692 0.02802104 0.14661053 0.12465205 -0.4393069 0.31052947
0.0069616325 0.20060095 0.10095352 0.14204316 0.15346259 0.017329944 -0.46012425 0.0012284983
-0.39589486 -0.065603465 0.19117221 -0.12083491 -0.21271867 0.16638118 0.27141026 -0.1567955
-0.07717726 -0.029083809 0.49898645 -0.004789604 -0.33268034 -0.103082374 0.30426407 -0.32987297
-0.10444403 0.02351249 0.31240284 -0.033983 0.007904142 -0.036701918 -0.06443542 0.032783683
-0.01954263 -0.088574804 0.32734728 0.20992473 -0.07586469 0.12964594 -0.3751545 0.43323833
0.24160607 0.13379118 -0.263709 0.2536934

exp_avg f4 [45, 15]
00000000: 92a4 a235 76a5 8436 74aa 7db5 378c b6b6
00000010: 0925 c5b6 2b6c 5ab5 d6b6 6937 25c9 f1b6
00000020: eae2 6533 c131 8237 fb29 cb36 a029 6ab7
00000030: 9440 b337 3f28 6ab5 7959 e2b7 d668 0237
00000040: 3eba 8fb6 651c 8eb6 56d6 2d37 9998 3a36
00000050: 9f31 0337 340b dbb6 9736 5135 6968 21b7
00000060: fadb 0ab7 1c26 d0b6 da83 9c36 de63 12b7
00000070: 4c7b 2237 5289 8636 5d4f 9437 9742 94b7
00000080: 060d 2bb7 c2a7 c137 2284 4d37 4fa6 b037
00000090: f2df 2eb7 4fe9 d136 183a b6b7 84e0 5fb7
000000a0: 0aa6 22b7 767a 6033 50d8 0db7 f375 e937
000000b0: 651d 8cb7 601f 7cb5 9662 66b7 4d82 9f36
000000c0: 97db d9b6 1dae 04b7 533a 1bb6 22ff 6b36
000000d0: 78fc 0eb6 0522 f836 7844 a7b5 3a09 9c36
000000e0: 46e4 3d37 6cdb 0737 8d7b 78b6 f004 aab5
000000f0: 1682 2b35 760b 5a36 8476 02b6 2c4a 0e35
00000100: fdb3 0bb6 05b9 fd35 6c60 0036 82ef 97b6
00000110: 150b 6ab5 f479 b236 19c3 82b5 1899 50b6
00000120: 0480 c236 ffff 47b5 3d94 aab6 0c75 8437
00000130: 8f88 3235 8c64 04b7 5251 d536 4b1e d236
00000140: f6c4 9436 db52 2b37 2f19 7736 b1af 3ab7
00000150: d9bc 01b7 c778 8bb6 85c2 67b7 463f df35
00000160: 0b55 3237 0333 7bb7 40cc 0e36 2d90 0636
00000170: 0728 d9b5 d728 ba35 ed3b f3b5 332b 1036
00000180: c072 8435 553d 23b6 864b f7b5 f058 7d35
00000190: b744 88b5 2885 50b5 d47e 4835 d025 7935
000001a0: 3678 eeb5 c846 a436 3399 5ab7 875a 2db6
000001b0: 608f ad36 1a59 de36 6b80 f136 56f9 afb6
000001c0: 046d 5c36 0f8c 78b6 e793 0cb6 b365 a6b5
000001d0: 9c3b 1336 abf2 0d36 9cfb dd36 403b 2bb7
000001e0: f885 02b6 4863 3a36 997b b535 8cde 22b7
000001f0: df9c 8e36 1eb0 02b4 0790 9f37 426c 5fb6
00000200: 748e e136 8747 9a37 32e2 e236 0a0f deb7
00000210: bc50 de37 fee5 a6b6 298a 24b8 6be1 82b5
00000220: 92c7 b9b6 0a3a bd36 1680 72b6 6bd6 de36
00000230: e304 01b6 b575 29b6 7ccc 8b36 f1fd d136
00000240: d5a2 8035 a622 0f36 2bd0 33b6 efb9 9036
00000250: 20fc 8eb6 b236 10b7 8ec1 ec35 75cd 8db5
00000260: 7aea c035 9300 d835 717e 4b36 1ea6 3a36
00000270: 3880 d836 f242 0eb6 4322 54b5 eacc 7136
00000280: 3eaf c4b4 203d 40b7 a192 2037 2f30 fa35
00000290: c7ed 88b7 06b0 3936 0db2 14b5 5140 90b4
000002a0: 81a4 cf35 48b5 88b6 734a 1b36 987b 8eb4
000002b0: c792 a7b5 d1a0 1cb6 f160 70b4 4162 0435
000002c0: 5d94 f235 1dad 87b4 a4a2 5a36 9efd 46b6
000002d0: 8616 c936 b33d 4fb7 eb01 8bb5 ed7d 0e37
000002e0: 78c5 8d36 2f18 1537 9194 46b7 0672 8f36
000002f0: b377 a0b6 f628 69b7 02fc 17b7 cceb 8037
00000300: e31b 76b7 f202 dc36 0b19 6837 ce93 4637
00000310: c1e0 0a37 47db 75b7 8c55 6037 746f e1b6
00000320: a9f6 a837 6dd7 8c37 05e4 99b7 67ab 88b7
00000330: bf13 8137 c904 b4b6 4317 c8b7 f29d b237
00000340: 37e9 9137 59ae 24b8 79e6 b7b6 3fc0 2637
00000350: dc93 9835 2cd4 acb6 14e7 4eb7 7138 08b6
00000360: a56c c836 7b77 2fb7 1db3 9636 05ff 6237
00000370: 3055 4136 e169 87b6 f646 4037 63cb ebb6
00000380: fa64 42b6 a186 1b36 e36b 18b8 8049 4636
00000390: 86e2 3137 05b9 2437 7018 7836 b58c 33b8
000003a0: 64b5 6937 edca 6636 6b06 b8b7 d2e1 deb6
000003b0: 235f 4d38 a6e5 c5b7 33b3 0c37 ec3e e437
000003c0: 3707 02b7 301a 4d37 8655 7636 9cc7 56b7
000003d0: 182c 85b6 3125 36b7 a02b 5237 955d 5136
000003e0: 5d7d d736 b302 bf36 7289 0937 e638 35b7
000003f0: d5e4 4436 6475 16b7 ea62 c034 efaa 4e35
1.2117837e-06 3.9531687e-06 -9.4497886e-07 -5.440346e-06 -5.875369e-06 -8.1368734e-07 1.3930452e-05 -7.205776e-06
5.3524595e-08 1.5520376e-05 6.0547586e-06 -1.3957178e-05 2.1368534e-05 -8.723036e-07 -2.6982963e-05 7.773013e-06
-4.2834135e-06 -4.2352353e-06 1.03615075e-05 2.7804983e-06 7.819762e-06 -6.528013e-06 7.7938006e-07 -9.620658e-06
-8.276658e-06 -6.2033196e-06 4.664512e-06 -8.72553e-06 9.68466e-06 4.0094974e-06 1.7679931e-05 -1.7673983e-05
-1.01954265e-05 2.3085511e-05 1.2249717e-05 2.1058278e-05 -1.04233495e-05 6.255846e-06 -2.1723143e-05 -1.334411e-05
-9.694611e-06 5.226544e-08 -8.454619e-06 2.7830689e-05 -1.6702988e-05 -9.392297e-07 -1.3732022e-05 4.7537383e-06
-6.4926676e-06 -7.908352e-06 -2.313075e-06 3.5166236e-06 -2.1306605e-06 7.3949363e-06 -1.2462397e-06 4.6502364e-06
1.1318427e-05 8.097715e-06 -3.7026796e-06 -1.2667424e-06 6.3891764e-07 3.2491203e-06 -1.9440495e-06 5.3007057e-07
-2.081738e-06 1.8903817e-06 1.9129611e-06 -4.528033e-06 -8.718792e-07 5.3190106e-06 -9.742536e-07 -3.1083528e-06
5.7965535e-06 -7.45058e-07 -5.083652e-06 1.579013e-05 6.6508886e-07 -7.8912235e-06 6.3573616e-06 6.2620143e-06
4.433673e-06 1.0211686e-05 3.6820527e-06 -1.112737e-05 -7.732969e-06 -4.156583e-06 -1.3813963e-05 1.663321e-06
1.0629427e-05 -1.4972643e-05 2.1278538e-06 2.0051477e-06 -1.6179409e-06 1.3869966e-06 -1.8122352e-06 2.1482817e-06
9.868163e-07 -2.4324593e-06 -1.8424914e-06 9.4379266e-07 -1.0152788e-06 -7.7679806e-07 7.4690365e-07 9.2814753e-07
-1.7767368e-06 4.895821e-06 -1.3029482e-05 -2.5831703e-06 5.172493e-06 6.6264884e-06 7.1973095e-06 -5.244433e-06
3.284601e-06 -3.7036405e-06 -2.0947716e-06 -1.2397562e-06 2.1939404e-06 2.1151889e-06 6.6156044e-06 -1.02061895e-05
-1.944949e-06 2.777395e-06 1.3521523e-06 -9.707768e-06 4.250192e-06 -1.2171265e-07 1.9021345e-05 -3.3292604e-06
6.7221063e-06 1.8391538e-05 6.7616575e-06 -2.6471465e-05 2.6502057e-05 -4.97396e-06 -3.922932e-05 -9.75136e-07
-5.5366627e-06 5.6393956e-06 -3.6135366e-06 6.641077e-06 -1.9225342e-06 -2.5251477e-06 4.166328e-06 6.258248e-06
9.584134e-07 2.1328829e-06 -2.6794248e-06 4.31318e-06 -4.261281e-06 -8.595804e-06 1.7639702e-06 -1.0565115e-06
1.4373356e-06 1.6093421e-06 3.0322956e-06 2.7812853e-06 6.4522283e-06 -2.1198616e-06 -7.902601e-07 3.6031074e-06
-3.663535e-07 -1.1458324e-05 9.570883e-06 1.8640475e-06 -1.6323187e-05 2.7669607e-06 -5.5393394e-07 -2.6868886e-07
1.5470579e-06 -4.0742198e-06 2.3140135e-06 -2.6539487e-07 -1.2485187e-06 -2.333942e-06 -2.2387009e-07 4.931681e-07
1.8073584e-06 -2.5271666e-07 3.25792e-06 -2.9651924e-06 5.992889e-06 -1.2352527e-05 -1.0356865e-06 8.493179e-06
4.225116e-06 8.886723e-06 -1.18363105e-05 4.275006e-06 -4.7823064e-06 -1.3897419e-05 -9.0589765e-06 1.536859e-05
-1.46692355e-05 6.556854e-06 1.3834108e-05 1.1836133e-05 8.277771e-06 -1.46541925e-05 1.3371358e-05 -6.7184974e-06
2.014202e-05 1.6789616e-05 -1.8345201e-05 -1.6292279e-05 1.5387193e-05 -5.364975e-06 -2.385269e-05 2.1292803e-05
1.7393946e-05 -3.926302e-05 -5.4806555e-06 9.939132e-06 1.1367915e-06 -5.1506995e-06 -1.2332359e-05 -2.0298432e-06
5.9731124e-06 -1.0458632e-05 4.4912e-06 1.3530026e-05 2.8808827e-06 -4.0356394e-06 1.1460614e-05 -7.027223e-06
-2.8967029e-06 2.3175164e-06 -3.63401e-05 2.9547082e-06 1.0602764e-05 9.81824e-06 3.6969104e-06 -4.280797e-05
1.39301155e-05 3.439079e-06 -2.1937498e-05 -6.6424045e-06 4.896441e-05 -2.3591168e-05 8.386373e-06 2.7209018e-05
-7.750284e-06 1.2225049e-05 3.6706638e-06 -1.2801869e-05 -3.968842e-06 -1.0856705e-05 1.2527133e-05 3.1197899e-06
6.4220935e-06 5.692558e-06 8.197838e-06 -1.0801688e-05 2.9339474e-06 -8.968029e-06 3.5834756e-07 7.698972e-07
